char_rnns/models/Dino_Names_LSTM.pth (torch_old, 103249 bytes, 6 tensors)

lstm.weight_ih_l0 f4 [256, 27]
00000000: 1407 ee3c 6a90 093f 6c35 323d 0d6b fd3d
00000010: f61d 753e d0ea b43e 6c71 543f 7cd8 813e
00000020: 5523 953e b878 81bb 58e1 293f f4df 88be
00000030: fcd1 3c3f 793c d13e ac91 21bf 01a4 e2be
00000040: 5977 69be 5cda 5e3f 31d1 2c3f 7b8e 8239
00000050: cbda 243f e3a1 19bf 8fcc 5c3e 8e16 243f
00000060: 47f5 973e 45eb 9a3f 5029 d23c b853 b43c
00000070: 2a41 27be 1a5e 5d3d 0d6e ea3c c08f 503f
00000080: 0cc0 a3bd 3b5b 4e3e 42e9 66be 2852 073d
00000090: 92ee 813e 97bd d43d 931c 8b3e 7312 683f
000000a0: e328 c23e bce9 6f3f 4da1 b2bd c61f 193f
000000b0: 4c13 193f 1372 693f 87c5 093e b67c 903e
000000c0: da4a 4ebd 99db 003f 90be 1f3f 0769 5e3f
000000d0: f18b 293f c025 153f d421 713d c612 2c3e
000000e0: db23 babd c5a7 4bbc e600 b03e 2451 c0be
000000f0: 5a5e 923e 136c 56bf 75ae da3d 0a2e 68be
00000100: 6d75 673d ac3d e8bc 7137 c93b c137 143e
00000110: b4fc 053e f631 ca3e e1f8 dd3e 9854 913d
00000120: bf92 87be 948a 443f 3b3c 3f3e 726c dc3b
00000130: 5c7d 183e a09d 063f 73bd b53e 76de b93e
00000140: 2dc6 a33e dc0f c2bd f167 af3d ecb9 343e
00000150: 9873 cdbe eb4f 37bb 1c4b dc3e 66ec 3c3f
00000160: 047b 8b3f 3206 a33e ddd7 29bf 34a5 4f3f
00000170: e31c 533e 2ed1 f63e 9e09 ebbd fe78 8ebd
00000180: 8cb1 d03e 41eb 6cbe 70fb cc3e 3c06 1c3f
00000190: 292c 203e 77b0 a43e 0de9 823e 3790 ed3e
000001a0: 338e 22be cf94 8d3f 5b18 383e 1f4f 733e
000001b0: daf7 b7bd 5914 8f3e cb94 ee3e d449 873f
000001c0: bc87 0f3f d8b1 a4be 5956 45be cb66 e13e
000001d0: 2468 9d3e fd79 913d 34ca 713e dfa7 2e3f
000001e0: e743 403e ac69 193f 546a f93e 3604 8fbe
000001f0: 0d15 663f 7c89 5f3f de3f c73e e8d4 f5bd
00000200: aeed 613e 8849 87bf 4ef5 913e 6abb c53e
00000210: 9e7c 133f 5cb3 3d3e e268 5b3f 5de5 c6bd
00000220: bc0d b73e 0249 b53d 5125 903c 0231 4abc
00000230: 6559 4abe 1966 3e3f 4ef4 113f 9796 693e
00000240: 8bb6 273f 76d9 483e 34c0 cb3c 7ae7 3e3e
00000250: 4d10 2c3f 119f ab3e 8892 69bc 0054 733f
00000260: cc3e 89be 7c96 d0be 245b f33d f0d6 f43b
00000270: 8a51 7b3d 2b17 68be b56b 323f c169 923e
00000280: 06a9 443f 20df 62bf 3a9b babb 14d8 2cbe
00000290: c8b0 023f 10a8 5c3f 7961 51be 748c d83e
000002a0: 68fd 07bc cd5c 573f 22de 98bd d869 14bf
000002b0: 89b7 893e cbfb fc3e 639f 31be db29 353f
000002c0: e65c e4be 17ce 533d 7660 1e3f 735c 113e
000002d0: 4c7e d3bd 05a1 a5be 1b30 f8bd db1a 003e
000002e0: 697a 103f 0c35 9b3d f230 4abe d8d4 8a3e
000002f0: bff0 01be dcb0 6dbd 2d0f ae3e eb50 593e
00000300: 9b90 493f 233c c4bd 36a4 02bf 235f fc3c
00000310: 9e7e bbbe 9817 273e 5f19 203e f22f 0d3f
00000320: 06d7 da3e 77ba 24be 4e2d 7abe 2770 75bd
00000330: a9c2 cc3d b151 8e3e 60b3 6bbd 3f3b d0be
00000340: a90d 5a3d 89c9 b43e a7ed 973d e7d1 13be
00000350: 87e8 6e3e 0214 a4ba ca9c e43e d828 a93e
00000360: c34d 44bc b2b4 413f e21b 963e 4693 203f
00000370: 7430 323e 182d 2abf 57ca a93d aa61 1e3f
00000380: e1a7 adbe bff2 29be 1872 e8be 6304 d33e
00000390: a1c6 d73d 9e27 f03d 62ef 80be d4f8 233e
000003a0: cf71 3a3f 881e e1be b6f7 9b3f adb2 833f
000003b0: e2da c2bc e8ab 08be 0f4f 2b3e 3a2b 81be
000003c0: 63f5 a9be b436 37be 082f b2bd 9390 9dba
000003d0: 0136 03be 0c6b 063e a600 073e c6e8 f33d
000003e0: e220 babd 53c0 ca3d be95 a53d 3bd3 a23e
000003f0: d33d 9a3e 2afc c03c fa87 5e3e bba4 be3e
0.02905611 0.53735983 0.04350798 0.12373934 0.2393721 0.35335398 0.8298557 0.25360477
0.2912852 -0.0039511584 0.6635947 -0.26733363 0.7375791 0.4086645 -0.631129 -0.4426575
-0.22799434 0.8705194 0.675067 0.00024901688 0.6439635 -0.60012645 0.21562408 0.64096916
0.2967932 1.2103049 0.025654465 0.022012576 -0.16333452 0.05404482 0.02861693 0.81469345
-0.079956144 0.20151989 -0.22549918 0.033037335 0.25377327 0.10387724 0.27170238 0.9065315
0.3792182 0.93716025 -0.08722172 0.5981411 0.5979507 0.9118969 0.13454257 0.28220147
-0.050364353 0.5033508 0.6240015 0.8687901 0.6622916 0.58260727 0.05887015 0.16804036
-0.0908887 -0.012430136 0.34375685 -0.37561905 0.2858761 -0.8375866 0.10677806 -0.22673813
0.05650847 -0.02834972 0.0061406423 0.14474393 0.1308468 0.39491242 0.43353942 0.07096213
-0.26479146 0.76773953 0.1867532 0.006726795 0.14891571 0.52584267 0.354961 0.36302537
0.31987134 -0.09475681 0.08564747 0.17649049 -0.40127254 -0.0027971219 0.43026054 0.73798215
1.0896916 0.31840664 -0.66345006 0.81111455 0.20616488 0.48206466 -0.11476444 -0.06956671
0.40760458 -0.23136617 0.40035582 0.6094701 0.15641846 0.32165882 0.2556843 0.4639909
-0.15874557 1.1061038 0.17978041 0.23760651 -0.08982821 0.27945212 0.46597895 1.0569406
0.5606649 -0.32166934 -0.1927122 0.44023737 0.30743515 0.071033455 0.2361229 0.682249
0.18775903 0.5992687 0.48713934 -0.279329 0.8987587 0.8731916 0.38915914 -0.12003499
0.22063324 -1.0569315 0.28507465 0.38619548 0.57612026 0.18525451 0.85706913 -0.09711716
0.35752666 0.08851816 0.017595919 -0.012340786 -0.19760664 0.7437454 0.57013404 0.22811352
0.65512913 0.19614205 0.024871923 0.18642989 0.67212373 0.33519796 -0.014256127 0.9505005
-0.26805723 -0.4073981 0.11882618 0.0074719116 0.06135706 -0.22665088 0.696956 0.2859631
0.7682041 -0.8862171 -0.005694774 -0.16879302 0.51050997 0.86193943 -0.20447339 0.42294657
-0.008300163 0.8412598 -0.074642435 -0.57974005 0.2689784 0.49410853 -0.17345957 0.7076699
-0.44602126 0.051710214 0.6186594 0.14195423 -0.103268236 -0.3234941 -0.121185504 0.12510245
0.56436783 0.07578477 -0.19745234 0.27115512 -0.12689494 -0.058029994 0.33995953 0.21222274
0.78736275 -0.09581783 -0.51031816 0.030807083 -0.3662004 0.16317594 0.15634678 0.55151284
0.42742175 -0.16086756 -0.24431345 -0.05992141 0.09998066 0.277967 -0.057544112 -0.406702
0.053235684 0.3531001 0.074183755 -0.1443554 0.2333089 -0.001251817 0.4465087 0.33038974
-0.01198143 0.75666344 0.29318148 0.6272472 0.17401296 -0.6647506 0.082905464 0.61867774
-0.33917144 -0.16596507 -0.45399547 0.41214284 0.10535932 0.117263064 -0.25182635 0.16012889
0.7282991 -0.43968606 1.218497 1.0288903 -0.023786012 -0.13346827 0.16729377 -0.25228292
-0.33195028 -0.17891961 -0.08700377 -0.0012021236 -0.1281357 0.13126773 0.13183841 0.119096324
-0.09088303 0.09899964 0.08085202 0.3180178 0.30125293 0.023557741 0.21731558 0.37235054

lstm.weight_hh_l0 f4 [256, 64]
00000000: 11ff 3dbe ea2d e7bd f594 1f3e fc59 b13d
00000010: 211a 45be 105d cc3e da3c d7bd ad46 6fbe
00000020: e473 5a3e 8bd3 a5be a0a8 163e 6022 4a3f
00000030: f0ea 423e 3ae8 983d 67d3 60be 51e9 003e
00000040: 3a92 1c3d a471 403e c928 65bb 79fc 713f
00000050: 03c8 833e 72dd 24bf 4440 b9be 7263 233e
00000060: 4a2d 80be 66b7 8f3e 7449 063e 1bed bb3e
00000070: 1eab c63c b084 b8be 7149 683e 4281 91be
00000080: 29f9 af3d 0492 303e 4a82 fdbe dcd0 29bd
00000090: 015b 05be d4d4 b63c a105 a3be ac5d df3e
000000a0: bb59 a93e b2bc 79be 5031 0cbc b305 afbe
000000b0: 8821 e03d 4f34 01bf df15 4abe 7eea a1bd
000000c0: 416b 713e 533c 1e3f 830c 8d3d 396b a53e
000000d0: cba7 ac3c 0bd3 ea3d 17b0 c73e e54f a43e
000000e0: 7442 88bd 7cb1 15bf 6fc4 c7be b1e3 27be
000000f0: b07b 10be f6a6 d83e 28c1 fc3e d7b2 0d3f
00000100: b957 b73c 93e8 243f f7e1 27be 12e6 e1bc
00000110: 1a24 50be 8e0d 223f 2bf8 12bf 3f51 11bf
00000120: efd7 883e a26b 4bbe 7687 4abd 31ea 51be
00000130: 4f39 46be 6359 83bd 2bc7 ccbe 6d98 1f3b
00000140: 406f 6a3e 4cb0 1abc 7fa5 04bf 24eb fa3d
00000150: 0fa1 cabb 5639 1dbd d984 f4be 0889 b13e
00000160: 83ce f43e 057b 34be 64fe 4cbe 210b 723d
00000170: bcf5 1dbf 601b 2a3e 81f9 fcbd 9a22 85be
00000180: b685 0a3f 205d 893e 2ccb 90be 4bd9 f5bd
00000190: 6433 6f3f 5e60 3dbe 3d06 bb3e 28cb d5bb
000001a0: 0bfc d63e 2a79 8abe 395e c43e 8b36 233e
000001b0: dbeb 04bf 0131 a0be 9c60 fdbe f4f0 46be
000001c0: 9bd6 4cbe 83c7 dc3e 969c 9c3e d3c8 56be
000001d0: f5ce 24be 07c7 823e dc91 393f 386e 133e
000001e0: 2b3b 583e 3b93 8ebd b4d6 6dbd 6c8a b7be
000001f0: 8c35 25be 2b6c a23e 9ab5 b13d 2a55 15be
00000200: 6bc0 62be 7e87 aa3e c41e 93be 7f98 71be
00000210: 85bf a5bd 3067 033e 0098 06bf f9da c7be
00000220: d174 053f 4fd5 0fbf 5f13 69be ec6a c9be
00000230: 5cf0 463e c241 7e3d 41e5 8cbe 619a 8bbe
00000240: cd9e ba3e d174 f33e 4dcd 96be 45ed 743e
00000250: 3434 3b3e c333 d23d 2602 8fbe f7bb ce3e
00000260: e9b8 b53e 5b1e 413e 8c32 ffbe f86f 12bd
00000270: 3f2d c23d 8551 703e f905 34be 77d4 85bd
00000280: 2bf8 a83c 26c6 0abf f72b 20bd 59d7 bb3e
00000290: 4b62 e33e d0ae 293c 9420 45bc 226a 503d
000002a0: a158 913e 7fc8 70be 2511 a43e c57a 893e
000002b0: a4a0 13bf 58fd bdbe 9591 f4be 7cbb 74be
000002c0: 9f49 54be 3172 fc3c f8c1 84be b8e3 8bbd
000002d0: 905b 5ebe 57d2 d9be dba5 ce3d d09d 153d
000002e0: 01bf 823e 8ab8 7fbe 4f11 03be 3b04 e6be
000002f0: 818f 7e3e 6656 0f3d b69f a83e a63b ac3d
00000300: ef37 8f3d c774 6abd 69f4 803e 344c 1a3f
00000310: 99c1 b8be e9c3 85be bf0b 0e3d 8815 3e3e
00000320: 9c39 20bd e36c 04be d55b 67be 3805 293f
00000330: 0562 a83d 625f 093f f0dc 073e d7a3 15bd
00000340: 194d ef3e 0f1d 8f3e 5af9 84bd 7208 653e
00000350: f240 96be 143e 6cbe 63d1 46bf 33ed bebb
00000360: cd90 8f3e 7496 883e fd25 c13d 0ab7 2a3f
00000370: ea72 05be 1c2b 8fbf c59c b2bd 1512 bdbe
00000380: d7e8 923e 142c 023f 8f02 8b3e ec6d a43e
00000390: 9cd3 473e 707c 3f3e 8cec 703c b612 593f
000003a0: dfe3 15bf 2832 04bf adb6 f7bc 17cb 27bf
000003b0: be7c ce3e e94f 933d c6a3 c13e 2832 e4bd
000003c0: f5c6 a23e ad52 2d3f adb0 5c3e 9754 85bc
000003d0: 8a78 47bf 43ec 2a3d b50f 81be fad5 8e3e
000003e0: 6484 183e 61fd 22bf 73ac a63d 0e10 61be
000003f0: 1025 9dbc d677 b43e 2af4 c4bd c40b 013d
-0.18554331 -0.11288054 0.15584166 0.08659741 -0.19248249 0.3991475 -0.105096534 -0.23366804
0.21333271 -0.32387957 0.14712763 0.789587 0.19034934 0.07466169 -0.21955644 0.12589003
0.03822539 0.1879335 -0.0034966937 0.9452587 0.25738534 -0.644004 -0.36181843 0.15955904
-0.25034553 0.2806961 0.13113958 0.36704335 0.024251517 -0.36038733 0.22684266 -0.28418928
0.085924454 0.172432 -0.49513465 -0.04145895 -0.13022996 0.022318281 -0.31840232 0.43626153
0.3307627 -0.24388388 -0.008556679 -0.34184036 0.109438956 -0.5047044 -0.19734906 -0.07906054
0.2357607 0.618108 0.06887152 0.32308367 0.021076104 0.114660345 0.39001533 0.32092205
-0.066533 -0.58473945 -0.39017054 -0.16395451 -0.14109683 0.4231488 0.49366117 0.5535101
0.022380697 0.6441738 -0.16394792 -0.027575526 -0.20326272 0.6330193 -0.57409924 -0.56764597
0.26727244 -0.19865277 -0.049445592 -0.20499493 -0.19357799 -0.064135335 -0.39995703 0.0024352327
0.22894001 -0.0094414465 -0.51815027 0.12251881 -0.0061837505 -0.038384758 -0.47757605 0.3467486
0.47813806 -0.17625053 -0.20018917 0.059092645 -0.61703086 0.16612005 -0.123522766 -0.2600296
0.54110277 0.2682886 -0.28280008 -0.12004336 0.9343779 -0.18493792 0.36528197 -0.0065244623
0.4198917 -0.27045566 0.38353136 0.15938775 -0.51922387 -0.31287387 -0.4948777 -0.19427854
-0.2000374 0.43120965 0.30588216 -0.20975046 -0.16094573 0.2554247 0.7248819 0.14397514
0.21116321 -0.06961676 -0.058066085 -0.35847795 -0.16133708 0.3172315 0.08677216 -0.14583269
-0.22143714 0.33306497 -0.2873441 -0.23593329 -0.0809317 0.12832332 -0.52575684 -0.3903425
0.5213137 -0.5618486 -0.22761296 -0.39339387 0.19427627 0.06207443 -0.27518657 -0.2726622
0.3644928 0.4755006 -0.29453507 0.23918636 0.18281633 0.10263779 -0.27931327 0.4037778
0.35492638 0.18859236 -0.49843252 -0.035751313 0.09481286 0.23468597 -0.17580403 -0.06534665
0.020626148 -0.542086 -0.03910443 0.36687735 0.4441093 0.01035662 -0.012031693 0.050882466
0.2838793 -0.23513983 0.3204433 0.26851478 -0.57666993 -0.37107348 -0.4776732 -0.23899645
-0.20731209 0.03081617 -0.25929236 -0.06830543 -0.21714616 -0.4254329 0.10090228 0.036527455
0.2553635 -0.2497274 -0.12799571 -0.44925103 0.2485943 0.034994505 0.3293435 0.084098145
0.0699309 -0.057240274 0.2518647 0.60272527 -0.36085203 -0.2612603 0.03467917 0.18562901
-0.03911744 -0.12932162 -0.22593625 0.6602359 0.08221821 0.5366117 0.13267875 -0.036533203
0.46738508 0.27951857 -0.064928725 0.22366503 -0.29346424 -0.23070556 -0.7766325 -0.005826616
0.28040162 0.26677287 0.09431074 0.66685545 -0.13032117 -1.1185031 -0.08721308 -0.36927858
0.28693268 0.5084851 0.2715039 0.32115114 0.19514316 0.18699813 0.014704835 0.84794176
-0.5855083 -0.5163903 -0.030238474 -0.65544266 0.40329546 0.07192976 0.37820262 -0.11142379
0.31792417 0.6770428 0.21551771 -0.016275687 -0.77918303 0.041729223 -0.25207296 0.27897626
0.14894253 -0.63667876 0.08138361 -0.2197878 -0.019182712 0.35247678 -0.09616883 0.03150536

lstm.bias_ih_l0 f4 [256]
00000000: 8def 393f daf8 493f 0889 df3e 91b5 423f
00000010: f7cf 5f3f d4b3 2a3f 29e4 4a3e b484 5b3e
00000020: f0dc d03e cbd2 343e b26c 103e 9fca b53e
00000030: d735 8b3e c33c 78be 4533 183f b6d0 693e
00000040: 2963 283d e5b9 dd3e fead 7a3e 355f d43e
00000050: 6907 b63e a6f8 fbbc fb64 023f f624 263f
00000060: 10fa 113f 5b1f 733e 74f7 c43e 98c4 a73e
00000070: 00d6 cf3e 45ca 463f fb02 253f f46a a43e
00000080: d932 983e d544 043f e672 a23e 08ec 8e3e
00000090: 60dd 343e c0ac 903e d0a4 d13e d0d1 9c3e
000000a0: 1c7a 193e 58ae 4b3e 3791 c13e 9e0f 953e
000000b0: 473e e6bd 2644 ae3e 563e 733e d9ac 333f
000000c0: fc1d b43d 2814 6b3e 44dc 043f 95f4 003f
000000d0: 4585 fc3e 4318 9c3e a8d7 cf3e f360 0c3f
000000e0: cdea 583e 5476 7c3d 5dda e63e f434 c73e
000000f0: f687 e83e a53d 413f 42f9 b63e 04e4 573e
00000100: 6215 c5bd 8655 5cbd 78e8 82bc 9f14 173b
00000110: bf6a 2bbe 4b16 1fbe e42f a33d 71ff 8a3c
00000120: 776f dcbd 3867 253e c002 87bb 9686 893d
00000130: f45a 973d c1ee 0dbb 24ad 03bd 18ca 0f3e
00000140: c3a3 3f3d 750b 9f3d 0ec8 f1bd 0417 633e
00000150: 8b8a b4bc 1213 bc3d d96c aebc 3be3 593d
00000160: 3761 073e 12f0 e23d f75b d13b 809e 0dbe
00000170: b8cb 1ebe a677 3c3c 4dab 1a3d 13d9 0dbc
00000180: 4838 323d 8f1e 4e3d d014 3d3d 73d3 833e
00000190: bba3 3b3e 989d 17be 303d 3dbc b332 883d
000001a0: ec03 59bc 43fe be3d 7ff4 99bd 14ea 9cbd
000001b0: f312 0ebe 4597 863d 78ed f3bb 79d1 18be
000001c0: e206 d0bc 654a efbd 9ce6 423d 3911 013e
000001d0: b35d a5bd 44d1 e6bd 0693 8ebd a7a0 a03d
000001e0: a55c 463e 4361 f83d 2b4e 86bd 7d43 c83d
000001f0: baf7 1dbd 59a6 b83d e3a4 28bc 78b9 9d3e
00000200: c7c1 5abe 38a4 c43e 774a 67be af7d b1be
00000210: 501b 38be 0ba5 343e bf41 8fbe b6d5 15be
00000220: 06d6 5e3e 2bfa 6e3c b878 3c3e ca5a ab3b
00000230: f0ed 023d a87e 7dbd 6547 15be 588a 87bd
00000240: ac9e 803d 0db8 0d3d 5793 6fbe cd71 243c
00000250: 6258 9e3d 870e 24bd 8729 50bd f059 b5bb
00000260: 6841 943d 36fd 5d3d 72c9 60be 09a3 11bb
00000270: 437f ecbd 20e3 6f3e bc75 86bd 9f62 84bd
00000280: da2a e83c 4ee9 aebe fa0c adbd 61ef 943c
00000290: 95ac 1cbd a6e7 31be 2eb7 233e 7637 4bbd
000002a0: 1b91 e93d 0ae7 673c 942a ab3e d3fd 343d
000002b0: 091b b0bc 4ec1 e5bd 8408 2ebe 296e f0bd
000002c0: 6f78 a2bd c3be 3d3d 414d bebb d322 18be
000002d0: a68c 493d 5863 c83d c491 4b3d 4754 bb3c
000002e0: 14c6 453d e16c e03d cebd aabc 1998 8abe
000002f0: c5e3 883d 66dc 273d f2f8 30bd 70a5 a0bd
00000300: c9fa 1a3f aa8f 0d3f 07ff 883e 685a 323f
00000310: 629e 4d3f bc15 3b3f d6b1 4b3d 6010 9f3e
00000320: 89ab 943e 65f6 983d efda 0e3e 5214 553e
00000330: bab9 6a3e abed 66bd 0a4a 093f 814d d53d
00000340: ecd6 abbc 91e6 cf3e 7001 653e e908 fd3d
00000350: a6aa ae3e ef6c 1c3c 9421 d53e ab02 ca3e
00000360: 4ea7 b43e af97 503e 37f4 6b3e 6901 fc3e
00000370: 078b 9a3e 6d83 383f 0191 293f e610 0d3e
00000380: 1d9c 7f3e dd7b 043f 8f2b 813e fde5 4f3e
00000390: c368 253e 296c d03e 4d30 bb3e 2170 fa3e
000003a0: 522f 0c3b 89eb 323d 31b4 b93e 41c6 e73e
000003b0: cd34 953d e4ec 003e 4bb3 993e 4f82 e63e
000003c0: 1d39 4e3d 2abb b73d 44cf dd3e 4b95 f13e
000003d0: b1ff 013f cc93 4a3e 1a14 c23e 3c35 733e
000003e0: 411f 323e c96d 343e 8f19 833e 469a 1d3e
000003f0: 7eae 9a3e 9b48 113f e80b 173e e7f0 333e
0.7263115 0.7889534 0.43659234 0.760583 0.87426704 0.66680646 0.19813599 0.21437341
0.40793562 0.17658536 0.14103964 0.3550615 0.27189514 -0.24241929 0.5945323 0.22833523
0.04111019 0.4330589 0.24480435 0.41478887 0.35552529 -0.030758213 0.50935334 0.6490015
0.5702219 0.2374243 0.38470042 0.32767177 0.40592957 0.7765239 0.6445767 0.3211285
0.29726294 0.5166753 0.31728286 0.27914453 0.17662573 0.28256798 0.40946054 0.30628824
0.14987987 0.19890726 0.37806103 0.29113477 -0.11242347 0.34036368 0.23754248 0.7018562
0.087947816 0.22956908 0.518986 0.503732 0.49320427 0.3048726 0.4059422 0.5483543
0.2118332 0.061636284 0.45088473 0.38907588 0.4541623 0.7548469 0.35737044 0.21083075
-0.09623219 -0.0537925 -0.01597999 0.0023053063 -0.16739939 -0.15535848 0.07968119 0.016967507
-0.10763448 0.16152656 -0.004120201 0.06715123 0.07390395 -0.00216572 -0.03214754 0.14041936
0.046787035 0.07765857 -0.118057355 0.22176749 -0.022038719 0.09183325 -0.021292137 0.05319522
0.13220678 0.11080946 0.006389137 -0.13829994 -0.155074 0.011503136 0.03776102 -0.008657712
0.043510705 0.05032211 0.046162426 0.2574726 0.18324177 -0.14806211 -0.011550233 0.06650295
-0.013245564 0.0932584 -0.07517337 -0.07661834 -0.13874416 0.06571821 -0.00744408 -0.14923657
-0.025393907 -0.116841115 0.047583207 0.12604226 -0.08074512 -0.11270383 -0.06961636 0.07843142
0.19371279 0.12127926 -0.06557878 0.09778497 -0.03856633 0.09016103 -0.010293218 0.30805564
-0.21362983 0.3840654 -0.22587 -0.346662 -0.17979169 0.17641084 -0.27979848 -0.14632306
0.21761331 0.014586012 0.18405426 0.0052293288 0.031965196 -0.061888367 -0.14578016 -0.06618184
0.06280264 0.034599353 -0.2339605 0.010036898 0.077317014 -0.040052917 -0.050820854 -0.005534403
0.07239038 0.05419656 -0.21951845 -0.002222242 -0.11547711 0.23426485 -0.06565425 -0.06464123
0.028340746 -0.34162372 -0.08449741 0.018180551 -0.038250525 -0.17373523 0.15987846 -0.04961344
0.1140463 0.014154205 0.33430922 0.04418738 -0.021497266 -0.112185106 -0.16995436 -0.117397614
-0.07933127 0.046324503 -0.005807549 -0.14857034 0.0492064 0.09784573 0.04969956 0.022867335
0.048284605 0.10958267 -0.020842459 -0.27069166 0.066840686 0.040981673 -0.043206163 -0.07844055
0.6053892 0.5529734 0.2675707 0.696692 0.803198 0.7308004 0.049730144 0.3106718
0.2903712 0.07468871 0.13950704 0.20808533 0.22922412 -0.056379 0.536286 0.10415173
-0.020976506 0.40605596 0.2236383 0.12355215 0.3411457 0.009547456 0.4162718 0.3945516
0.35283893 0.20370363 0.2304238 0.49219826 0.30184194 0.7207554 0.66236883 0.13775977
0.24961896 0.517515 0.25228545 0.20302577 0.16153245 0.4070752 0.36560288 0.48913673
0.002139051 0.043681655 0.36270288 0.45268443 0.072854616 0.12590367 0.30019602 0.45021293
0.050347436 0.089712456 0.43322194 0.47184214 0.5078078 0.19782943 0.3790596 0.23750776
0.17394735 0.17620005 0.25605437 0.15390882 0.30211252 0.5675141 0.14750636 0.17572366

lstm.bias_hh_l0 f4 [256]
00000000: b880 2f3f 33c5 643f 110f a13e e823 4c3f
00000010: 6119 803f b5ee 0f3f 7cbb 843e 54b7 483e
00000020: 1c74 8b3e e96a a13e 880a 303e c2ee d23e
00000030: e457 be3e 6b6d e3bd dbfc 0b3f 3356 ea3d
00000040: 0bc6 5f3d 849b e73e 8c99 9c3e 4685 ea3e
00000050: e62e 4e3e e30e 3a3d c79c fc3e eec7 213f
00000060: 0c15 c33e 31a9 683e f863 9b3e 9f0b 933e
00000070: bcc2 8f3e 862c 433f 040e 163f c9f6 6e3e
00000080: f007 903e 4fa3 fc3e ee80 4a3e 16b5 9f3e
00000090: 1825 403e 2050 c33e 7277 b23e 45ef c13e
000000a0: cd72 503e 4a9e d23d 0d2c d43e 9e4f 973e
000000b0: 4f31 23bd 730f 9e3e be96 b33e eadc 1c3f
000000c0: 53b2 d53d c2cd 533d 772d 013f 7945 053f
000000d0: 4ec2 2d3f 10b9 3c3e f15d 073f c941 293f
000000e0: 03e6 963e ad91 2f3e 8bb2 0a3f 02d7 a13e
000000f0: 66b3 053f fc8c 243f 9092 9f3e 1edb 613e
00000100: 14d9 cb3c 0ac1 03be ec35 b9bd 89d5 2bbc
00000110: 53e0 05be 2f04 3bbe 4f80 183d 0a4a 903d
00000120: 2140 5dbc a43b 213d f890 9b3c 1b96 ed3d
00000130: 56b9 0a3e 368d 30bc 7de4 18bd f99f 7d3e
00000140: 888f f53d 9feb b73c d8a9 e73c 2ee0 4d3e
00000150: 9e88 8ebd f25e 483d eef4 74bb fd9e 47bd
00000160: 8816 d83d 8ddb f13d 6aaa ed3d 692f 86be
00000170: 4085 d63c b1c6 85bd 6c95 b13d e148 bf3d
00000180: e653 373e babe 0b3e 8514 32bc 934c 523e
00000190: 5a2e ba3d 6f93 92bd 0e96 ccbd 5585 5bbd
000001a0: 008d 70bb 2e84 8c3d 4aa5 6abc 58e4 b4bd
000001b0: b888 ccbc c088 153e 997c 3e3d 6a4f 0fbe
000001c0: a2aa c6bd f889 e2bc e2c9 c83d 955c b23c
000001d0: 6940 0ebe 1cf8 92bd 89c0 cdbc 4d6c b63d
000001e0: 8dd3 263e c6a0 363e 60a0 2abe 7a20 063c
000001f0: 60b6 d3bd 2a67 f83d 8428 babd 0d4d 013e
00000200: 5050 c5bd 9d0c ca3e c8d4 19be a09b a3be
00000210: 4493 b7bd 761c 783e 422b 0abe 9053 18be
00000220: 8b1c 833e 9c52 14bd 5467 4c3d 6413 fcbc
00000230: 7c91 25bc ccd6 efbd 9d05 80bd 7aed 853c
00000240: 89c2 11bd f8a0 db3d c3d2 d2bd a093 c4bb
00000250: 88b7 fc3d ea40 37bd 0c91 30bd 4364 463c
00000260: 70ac aa3d 6545 62bc d719 4fbe 8d97 71bd
00000270: 3bae 06be b32c 2b3e 6423 e23c 92f6 acbb
00000280: 725e d9bd 81c0 2ebe 8639 16bd 9005 60bd
00000290: b5ae 463c fee7 a8bd 48c0 fc3c 28aa d73c
000002a0: 055d 013e c38e e8bc ad13 3a3e 57c3 b43d
000002b0: 4fb2 b83d 9ef1 d7bb 892a 3ebe f008 dfbd
000002c0: b209 9abc 2233 643c f3df ccbc 05d0 883c
000002d0: e41d 763b 0532 8fbd 8eb9 76bd 3e80 a7bd
000002e0: c1f1 26bb 70bc 0d3d c790 1cbe 0cce 4dbe
000002f0: 7aae 553d bcbb 4b3d 6f30 923d 7771 c83c
00000300: d634 453f 9f1f 203f 7cf2 ae3e 8fd0 213f
00000310: 076b 4f3f 2d27 3a3f f3e2 0f3e 8c5d 903e
00000320: 7809 dd3e 710c 0e3e a490 013e a712 003e
00000330: e71a 6b3e b8e6 21be 229c 133f 555b f13d
00000340: e632 bd3c 8312 bb3e efb7 cb3e a77e c93d
00000350: c867 af3e adcb 743d 1fc9 c73e 6a5f 6d3e
00000360: 6b5a 3c3e 7cbd 043e 0e73 833e 6341 c83e
00000370: 6811 dd3e bd40 673f f479 213f e01d 693e
00000380: 3618 7d3e 18d2 eb3e c943 8c3e ebce 5c3e
00000390: 8be6 153e 3131 eb3e 2563 b73e cd85 cd3e
000003a0: c61b 0c3e 0064 203e 5f92 f13e fb85 ce3e
000003b0: d0dc f23b f1cd d73d 2430 723e 5f91 da3e
000003c0: fa72 a03c 2087 223d 2a1f a33e 016a fb3e
000003d0: e7b7 e53e c22b 7b3e 40cd c63e 9d73 823e
000003e0: 5a62 5a3d 6e3d ed3d 8f4a aa3e 5001 1d3e
000003f0: 6f87 ac3e ff1b 073f a2cb 6f3e 68b2 853d
0.68555784 0.893634 0.31456807 0.7974229 1.0007745 0.56223613 0.2592429 0.19601184
0.27237022 0.31526878 0.17191517 0.41197783 0.3717643 -0.11104854 0.546827 0.114422224
0.054632228 0.45235837 0.30585897 0.45804805 0.20135078 0.045424353 0.49338362 0.63195693
0.38101995 0.22720791 0.30349708 0.28719804 0.28078258 0.7623981 0.58615136 0.23336329
0.28131056 0.49343345 0.19775745 0.31192845 0.1876415 0.38147068 0.34856755 0.3787786
0.20356293 0.102840975 0.41439858 0.2955293 -0.039841946 0.30871162 0.35075945 0.6127459
0.10434403 0.051709898 0.5046 0.5205913 0.6787461 0.1842997 0.5287772 0.66116005
0.2947236 0.17145415 0.54178685 0.3160935 0.52226865 0.64277625 0.31166506 0.22056243
0.024883784 -0.12866607 -0.09043488 -0.0104879225 -0.13073854 -0.18263315 0.03723174 0.07045372
-0.013504059 0.03936352 0.018990025 0.11600896 0.13547263 -0.010775855 -0.03732728 0.24768056
0.11990267 0.02245122 0.02827923 0.20105049 -0.069596514 0.048918672 -0.0037377435 -0.048735607
0.105511725 0.11809454 0.116047695 -0.26208046 0.026186585 -0.06532038 0.08671078 0.093400724
0.17903098 0.13646975 -0.01086915 0.20537023 0.09090872 -0.07157027 -0.09989558 -0.053593952
-0.0036705136 0.06861149 -0.014321635 -0.088326156 -0.024967536 0.14602947 0.046505544 -0.13995138
-0.097005144 -0.02765368 0.09804131 0.021772662 -0.13891758 -0.07176229 -0.025116222 0.089073755
0.16291638 0.17834768 -0.1666274 0.008186454 -0.1033752 0.12129052 -0.09089759 0.12627049
-0.09634459 0.39462748 -0.15022576 -0.3195467 -0.089636356 0.24229607 -0.13493064 -0.14875627
0.25607714 -0.036211595 0.04990323 -0.030770965 -0.010105487 -0.11710891 -0.06251071 0.01634859
-0.035585914 0.10724062 -0.10294106 -0.0059990436 0.12339693 -0.04473964 -0.043107077 0.012108865
0.08333671 -0.01381049 -0.20224701 -0.05898242 -0.13152401 0.1671627 0.027604766 -0.005278417
-0.10613717 -0.17065622 -0.036675952 -0.054692805 0.012126614 -0.08247374 0.030853406 0.026326254
0.1263314 -0.028388387 0.18171568 0.088263206 0.09018385 -0.0065900823 -0.18570913 -0.108903766
-0.018803451 0.013928207 -0.025009131 0.016700754 0.0037554437 -0.06991962 -0.060235552 -0.08178757
-0.0025473686 0.034603536 -0.15289603 -0.20098132 0.052168347 0.049739584 0.07138144 0.024468167
0.77033746 0.6254825 0.34169376 0.6320886 0.81022686 0.7271603 0.14051418 0.2819637
0.43171287 0.13871934 0.12652832 0.12507115 0.22959481 -0.15810668 0.57660115 0.11784998
0.02309556 0.3653756 0.39788768 0.0983861 0.34258866 0.059764553 0.3902063 0.23180929
0.18393867 0.12962908 0.25673717 0.39112386 0.43177342 0.9033316 0.6307671 0.22765303
0.24716267 0.46058726 0.27395466 0.21563308 0.14638726 0.45935968 0.3581783 0.40141144
0.1368247 0.15663147 0.47181985 0.40336594 0.007411577 0.10537327 0.23651177 0.42689034
0.019586075 0.039679646 0.31859714 0.49104312 0.4486687 0.24528411 0.38828468 0.2547883
0.05331645 0.115839824 0.3326001 0.15332532 0.33697078 0.52777094 0.23417524 0.06528169

fc.weight f4 [27, 64]
00000000: a57e 693e 43bf 25bf 1211 463f 8966 803f
00000010: 9153 e43e e790 143f 6265 463f 6612 433f
00000020: b693 a9bf 3546 f93d 090a bd3c c95f 523e
00000030: 908a 473e c0f1 183f 0a26 b63e c263 723d
00000040: e22e 043c f26d 10bf 7d7b a53d e1ca debd
00000050: 7c67 30be 4f05 b8bd b8ff 1fbe f60a b13e
00000060: 3c57 f1be f414 fabd cfae d63e a578 5f3f
00000070: d8bd 5ebe 8d29 0c3f fe52 833e 3d15 90be
00000080: 9b0f e6bd 6112 0fbe 2450 123f 679d 783e
00000090: 4cd8 12bd 9abd 483e 1e5d adbe 1031 b73d
000000a0: efa7 b3be 0903 4b3d a86c 89bf 3d96 4dbe
000000b0: 7a47 863e 4b84 873e ee68 0c3f 75c5 7e3e
000000c0: 6123 553e 4e03 c7be e4f3 a8be db81 c63e
000000d0: ceaa 6f3e 8977 3b3e 14ef 333f 817e 6f3d
000000e0: 5179 163e 092e 6ebe e58f 7c3d cb54 883f
000000f0: bb67 e3be c433 e73e 5c14 913e 37c2 7bbe
00000100: 0162 82be 4c4e d03e 827d 113e fb4c 303e
00000110: 6c0d 18bf 06fd b43d 3c6b 2bbe 7f58 21be
00000120: 9fe7 263d e58d 2dbd f6ec aa3f 4d55 123f
00000130: 9230 31be 256e 2abf 4540 873d a374 8dbe
00000140: 1aeb 303d bcc5 a93e 114e 92be daa2 60be
00000150: bfde f83d 9b9a 2cbe 3160 ec3d 7c57 7b3e
00000160: 3681 463e 2dc8 a5bd ec3f 99bd f645 1e3e
00000170: 010f 253f 9e19 a43d 5aef 873e bd52 4d3c
00000180: ffe1 e3be 4ef4 0fbf 18d0 ce3e 95da 3e3e
00000190: c7b1 013e ea06 63bf f36a bcbe c495 f3be
000001a0: 3017 b13e 26df da3d cb46 3c3c 8228 ca3d
000001b0: 6b8e 27bf 5020 7b3e 0d23 a1be 8d14 f7bd
000001c0: 7141 f9be b11d 013f 35f7 043d 157b d1bc
000001d0: e70b 1ebe b01a 74bf 4ef0 18bf 4269 d9be
000001e0: ff17 d8bc 43a8 583e bf71 74be 18d2 6fbe
000001f0: 8680 af3e 517c 293e 5fb1 9d3e c027 fcbe
00000200: b54a d0bd 2c61 9abe 4994 223a 4d89 273e
00000210: cca6 043f 3354 873a f8a9 9f3e e1ea dd3e
00000220: 2c11 1a3b 4bc2 313e f938 cb3e c479 25be
00000230: 46ee 8c3d b93f cfbd 3873 17be a021 ac3e
00000240: 213c 23bd 3254 96bc 2398 1dbc 6133 813d
00000250: 58dc d3bd 4dc5 113c 1845 f83e 4dd1 8dbe
00000260: fc4b 03be cfba 87bb 5061 61bd e927 1bbe
00000270: 80a1 63be 0822 b3be 2a47 74be b60b ae3e
00000280: a57c dcbe d47f adbd 131f afbe d8cb 99bc
00000290: 8bb6 28bb bfc8 893e 4197 c2bc bc53 afbd
000002a0: c98a acbe ff95 9a3e 73f8 b3be 98cc 843e
000002b0: fa43 54bf 9c55 ae3e 56e3 d73e 9456 2ebe
000002c0: 0715 093e 1b66 6e3e 8b6c 99be 6e2c 413f
000002d0: c672 013f 41ca f1be 1a02 39be 3fa9 89be
000002e0: 8f0e 9abe 626a ac3e ccee 47be 64b8 193f
000002f0: 86e4 aa3d 8f24 5cbe 6864 e0be bd98 f6bc
00000300: 490e 3c3f 48e6 ef3c 7c84 dc3e 951c 1d3e
00000310: 7ffc e13e 0384 2dbe 902a 023f 68ad 833d
00000320: 51bc 13bc 8d4d 25bd d311 993e 8f03 aebe
00000330: 2b61 4fbe b121 09bf 88a4 cdbd e117 6c3e
00000340: 7645 5ebe 2625 d83d 6998 533e 67b1 c93b
00000350: 3b2f 5fbe e7c4 34bc ca63 d23d 8a66 71be
00000360: 0f1c 953e 1121 99bd b23c 19be f225 9abe
00000370: 56ef 2f3e bee2 4cbf 6c95 76be 8f57 c93e
00000380: c44f 8d3d 234d d5bd 501e 753e 3858 67be
00000390: 03bb 563e a443 03bf 02c3 d8be d468 643d
000003a0: b1fa 35bf ec0a f03c b02b b6bd d6d5 09bc
000003b0: b0a6 d0be 7930 f7bd 6ec0 d73e a851 b53d
000003c0: a08c 423d 96ae b83e 1d4e 293e 056a 213f
000003d0: 18ae 28be de12 02be 6cfb e13e 09d1 433e
000003e0: 80b4 f6bd be2a 643e e48e 123e 2a0d c7bc
000003f0: 53ef b4be 760b cebe 2508 07bf 60fc 513d
0.22802217 -0.6474497 0.773698 1.0031291 0.44595006 0.58033603 0.7749845 0.7619995
-1.3248203 0.12171594 0.023076074 0.20544352 0.19486451 0.5974388 0.35575897 0.059177168
0.008067818 -0.56417763 0.08080194 -0.1087854 -0.17226976 -0.089853875 -0.15624893 0.34578675
-0.47136867 -0.12211028 0.41930243 0.87293464 -0.21752107 0.547509 0.25649256 -0.28141204
-0.11233445 -0.13971855 0.57153535 0.24278794 -0.035850808 0.19603577 -0.33860105 0.08944905
-0.3508906 0.04956344 -1.0736284 -0.20076843 0.26226407 0.2646812 0.5484761 0.24880011
0.20814277 -0.3886971 -0.32998574 0.38770947 0.23405 0.18307318 0.7028668 0.058470253
0.14694716 -0.23259749 0.061660666 1.0650877 -0.44415078 0.45156682 0.28335845 -0.24585806
-0.25465396 0.40684736 0.14208034 0.17216866 -0.5939548 0.08837323 -0.16740125 -0.15756415
0.040748235 -0.04237165 1.3353565 0.5716141 -0.17303684 -0.6657432 0.06604055 -0.2762805
0.04319296 0.33158672 -0.28575185 -0.21937123 0.121518604 -0.16855852 0.115417846 0.24545091
0.19385228 -0.08094821 -0.07482895 0.15456375 0.6447602 0.080126986 0.26549798 0.012531933
-0.4450836 -0.56232154 0.40393138 0.1863807 0.12665473 -0.88682425 -0.36800346 -0.475752
0.34588003 0.106870934 0.011491488 0.098710075 -0.6545169 0.24524045 -0.31472054 -0.120644666
-0.4868274 0.5043593 0.032462317 -0.025571385 -0.15434228 -0.9535322 -0.59741676 -0.42463118
-0.02637863 0.21157937 -0.23871516 -0.23419988 0.34277743 0.16551329 0.30799386 -0.49249077
-0.10170499 -0.3015226 0.0006201906 0.1636097 0.5181701 0.0010324776 0.31184363 0.4334326
0.002350877 0.17359273 0.39691904 -0.16159731 0.068813846 -0.10119576 -0.14790046 0.33619404
-0.039852265 -0.018350694 -0.009618792 0.06308628 -0.103447616 0.008897138 0.48490214 -0.27698746
-0.12821954 -0.0041421424 -0.055024445 -0.15151943 -0.22229576 -0.349869 -0.23855272 0.3399331
-0.43063846 -0.08471647 -0.34203395 -0.018773958 -0.002574357 0.2691097 -0.023753764 -0.08560893
-0.33699635 0.30192563 -0.3515049 0.25937343 -0.82916224 0.3404969 0.4216563 -0.17025214
0.13386928 0.23281138 -0.29965624 0.7545842 0.50565755 -0.4722462 -0.18067208 -0.26886937
-0.30089232 0.33674914 -0.19524688 0.6004698 0.08344369 -0.21498321 -0.43826604 -0.030102128
0.734593 0.029284611 0.43069828 0.15342934 0.44137952 -0.1694489 0.50846195 0.06429559
-0.009017066 -0.04035716 0.2989641 -0.3398709 -0.2025191 -0.53567034 -0.100411475 0.23055984
-0.21706185 0.105539605 0.20663609 0.006155181 -0.2179536 -0.011033273 0.102729395 -0.23574272
0.2912297 -0.0747701 -0.1496456 -0.30107075 0.17181143 -0.8003348 -0.24080437 0.39324614
0.0689998 -0.10415103 0.23937345 -0.22592247 0.20969777 -0.51275086 -0.4233628 0.055764034
-0.7108565 0.029302083 -0.088950515 -0.008412799 -0.40752172 -0.12069792 0.42139 0.08853465
0.04749739 0.36070698 0.16533704 0.630524 -0.16472661 -0.1270251 0.44137132 0.1912271
-0.120461464 0.2228193 0.14312321 -0.02429827 -0.3533884 -0.4024312 -0.527468 0.051266074

fc.bias f4 [27]
00000000: 7888 96be 353e 2d3e 9e4a bcbe 5d59 f2bd
00000010: e6ac 63be 6775 c83c 57fe 01bf 6a9b 60be
00000020: 9a84 1dbe faef e73d 7751 a1be f8e6 93be
00000030: 1b1a 3f3c 68ea 5bbe 9660 0bbe 034f 63bd
00000040: bf39 51bd 2db6 e3be 9c85 0a3d 0164 8abc
00000050: 43dd 243d 8ba4 613e b195 a6be b7d1 b4be
00000060: 9e35 afbe 8965 62be be10 adbe
-0.29400992 0.16918261 -0.36775678 -0.11833451 -0.22233924 0.024470044 -0.50778717 -0.21934286
-0.15382615 0.11325069 -0.31507465 -0.28887153 0.011663939 -0.21476138 -0.13611063 -0.055495273
-0.05108046 -0.44474927 0.033818826 -0.016893389 0.040250074 0.22035424 -0.3253608 -0.3531625
-0.34220594 -0.22109045 -0.33801836
