char_rnns/models/Dino_Names_Scratch.pth (torch_old, 44459 bytes, 6 tensors)

i2h.weight f4 [64, 91]
0	0xbda564b3	-0.080758475
1	0x3e8256f5	0.25456968
2	0x3d3465f9	0.04404256
3	0xbe5d9f61	-0.2164283
4	0x3d3fb3c9	0.046802316
5	0x3e0e813b	0.13916485
6	0x3eb4ce54	0.35313666
7	0x3c5ff6b0	0.013669655
8	0x3de6a769	0.112624
9	0x3cc3a8a8	0.023884133
10	0xbdd70771	-0.10499466
11	0x3ea253f4	0.31704676
12	0x3c5955f3	0.013265121
13	0x3c49df6a	0.0123213325
14	0x3d545368	0.051837355
15	0x3e230597	0.15920101
16	0x3d52d1dc	0.05146967
17	0x3dbfeafa	0.0937099
18	0x3e23b192	0.15985706
19	0xbe0f3dea	-0.13988462
20	0xbe07849d	-0.13234182
21	0xbd9c35c9	-0.07627446
22	0x3e630181	0.22168542
23	0xbdd61773	-0.10453691
24	0xbecf6075	-0.40503278
25	0xbed0c887	-0.4077799
26	0x3d30fc60	0.043209434
27	0xbd14e72d	-0.03635328
28	0xbd93d5dc	-0.07218525
29	0xbd14839e	-0.036258332
30	0x3dd8daad	0.10588584
31	0xbd8a72a9	-0.06760151
32	0x3e020f2d	0.12701102
33	0x3d18e9b5	0.037332255
34	0xbce4b467	-0.027918054
35	0x3cfbee45	0.030753264
36	0xbd79ae43	-0.060957205
37	0xbcf7b927	-0.030239655
38	0x3da30e81	0.07961751
39	0xbd8a14b1	-0.06742228
40	0x3dba6747	0.0910173
41	0xbd9501eb	-0.072757564
42	0x3cbc8449	0.023012297
43	0xbd3b8e6d	-0.045790125
44	0x3d15daf0	0.03658575
45	0xbdd8edd0	-0.10592234
46	0xbafc859f	-0.0019265896
47	0x3cc73a1f	0.024319706
48	0xbd16e68f	-0.03684097
49	0xbd786985	-0.060647506
50	0x3db20d6b	0.086939655
51	0x3d679052	0.05653412
52	0xbe1b30ad	-0.15155287
53	0x3d458e8c	0.048231646
54	0x3dc93141	0.098238476
55	0xba861149	-0.001022854
56	0xbd5be40c	-0.05368428
57	0xbdbd0a95	-0.09230534
58	0xbdb25cb8	-0.08709091
59	0xbc54c591	-0.012986557
60	0x3d04b455	0.03239854
61	0x3d175234	0.03694363
62	0x3dc0da96	0.09416692
63	0x3d5e353a	0.05424998
64	0xba74435a	-0.00093178975
65	0xbdfe0ede	-0.124051794
66	0xbc9f2842	-0.019428376
67	0xbdc4920e	-0.0959817
68	0x3db5bb4d	0.088736154
69	0x3cd27866	0.025692176
70	0x3ca9ac61	0.02071208
71	0xbd884963	-0.066546224
72	0xbdee17f2	-0.11625661
73	0x3d40f368	0.04710713
74	0xbdc5b2e7	-0.096532635
75	0x3d80b109	0.06283767
76	0x3d67fdf7	0.056638684
77	0x3b93038e	0.0044865077
78	0xbd991d21	-0.07476259
79	0xbe28976a	-0.1646401
80	0x3d806a4d	0.06270275
81	0xbcb0d0c7	-0.021583928
82	0xbe09e756	-0.13467154
83	0x3ce4c39e	0.027925309
84	0x3db10821	0.086441286
85	0xbd80ab7a	-0.062827066
86	0xbc60329d	-0.013683942
87	0xbd7b4ae1	-0.061350707
88	0xbd446e7c	-0.04795693
89	0xbc4b6a5f	-0.012415498
90	0x3cb2e505	0.02183772
91	0xbcf66d8e	-0.030081537
92	0x3d90c0a6	0.07067995
93	0xbe0e817f	-0.13916586
94	0xbe30fd1a	-0.1728405
95	0xbda787a9	-0.08180172
96	0xbe0c9adc	-0.13730949
97	0xbe45d00e	-0.19317648
98	0xbe37d37d	-0.1795177
99	0x3c220dce	0.009890987
100	0x3e089e25	0.13341577
101	0xbe85c7e8	-0.2612908
102	0xbe817653	-0.25285587
103	0xbcc5f3cf	-0.024164109
104	0xbd6973e9	-0.056995306
105	0xbdfd9824	-0.12382534
106	0x3ea52f15	0.32262483
107	0xbee40b8f	-0.44540069
108	0xbeb4ef7d	-0.35338965
109	0xbd104b19	-0.03522787
110	0x3ea783ad	0.32717648
111	0xbcce45e2	-0.025179807
112	0xbe287db1	-0.16454197
113	0xbe34f468	-0.17671359
114	0xbe44f610	-0.1923449
115	0xbe15db9d	-0.14634557
116	0x3e28f63f	0.16500185
117	0x3d8c7b6c	0.06859478
118	0xbdbf2552	-0.0933329
119	0x3d5b9191	0.05360562
120	0xbdf73930	-0.120714545
121	0x3be65d59	0.007030171
122	0xbd6ef67f	-0.058340546
123	0x3d1dc1cd	0.0385149
124	0xbd9eb126	-0.07748632
125	0x3cc2e411	0.023790391
126	0xbc405831	-0.0117397765
127	0x3d3c4d9e	0.04597246
128	0x3cc8c564	0.024508186
129	0x3dc39bf8	0.09551233
130	0x3ca7babc	0.020474784
131	0xbd002255	-0.03128274
132	0xbc3c7ac0	-0.011503875
133	0xbd1c10b4	-0.038101867
134	0xbd04fbeb	-0.03246681
135	0x3d943812	0.07237257
136	0xba67a534	-0.0008836568
137	0xbd543a48	-0.051813394
138	0xbd103caa	-0.035214104
139	0x3cada0f2	0.021194909
140	0xb9b6ef1e	-0.000348919
141	0x3d256eae	0.040388756
142	0x3c14308f	0.00904478
143	0x3e041249	0.128976
144	0xbdb8bcbf	-0.090203755
145	0xbdcf4835	-0.10121194
146	0xbd579f1f	-0.052641984
147	0x3dc4a479	0.09601683
148	0x3d6f8b20	0.05848229
149	0x3e35794f	0.17722057
150	0xb8a8d6e1	-8.0508886e-05
151	0x3d98251e	0.074289545
152	0xbdd2e60d	-0.10297785
153	0xbdc73f40	-0.09728861
154	0xbe290bc2	-0.16508391
155	0x3ce12780	0.027484655
156	0x3c9363b4	0.017991878
157	0x3cef78ef	0.02923247
158	0x3d2e38da	0.042534687
159	0xbd967b2b	-0.07347711
160	0x3d92a843	0.071609996
161	0xbbdc9da9	-0.0067326617
162	0x37bb711a	2.2344804e-05
163	0x3ddefffb	0.10888668
164	0xbd2d0602	-0.042242058
165	0xbc103d72	-0.008803712
166	0x3d835450	0.06412566
167	0x3de0761a	0.10960026
168	0xbc0798d3	-0.008276182
169	0x3c261e39	0.010139042
170	0xbcff236b	-0.031144818
171	0x3cd90b63	0.026494687
172	0xbe0b0be9	-0.13578762
173	0xbbf0e2d6	-0.0073512597
174	0xbce26cee	-0.027639832
175	0xbc650f6c	-0.013980728
176	0x3d80f43f	0.06296586
177	0xbdf02bcf	-0.11727106
178	0x3d84a230	0.06476247
179	0x3e3c8e8d	0.18413754
180	0xbdc14deb	-0.0943869
181	0xbd0f077c	-0.034919247
182	0x3c47d7d1	0.012197451
183	0xbe183694	-0.1486457
184	0x3ea0bc61	0.31393722
185	0x3d53236d	0.051547457
186	0xbe54de4c	-0.20787925
187	0x3ca4df38	0.02012597
188	0xbdf6fa84	-0.12059501
189	0x3e4bd013	0.19903593
190	0xbe5b2592	-0.2140105
191	0x3e12363a	0.14278498
192	0x3e4e7074	0.20160085
193	0xbc26f558	-0.01019033
194	0x3d75e0b8	0.06002876
195	0x3f15cd9f	0.5851688
196	0x3e99236d	0.2990984
197	0xbe4607b2	-0.19338873
198	0xbeb423d4	-0.35183585
199	0x3caf1ee1	0.021377029
200	0xbdad2e90	-0.08456147
201	0xbd8f6805	-0.07002262
202	0xbd76a681	-0.060217384
203	0xbd946f38	-0.07247776
204	0x3f06a675	0.52597743
205	0xbe0b7f96	-0.13622889
206	0x3e0e74ad	0.13911696
207	0xbe82f91d	-0.25580683
208	0xbe696c76	-0.22795281
209	0xbd3da013	-0.046295237
210	0xbccdf95b	-0.025143316
211	0xbc82ca51	-0.015965613
212	0xbc5dbb86	-0.013533479
213	0x3da2af1e	0.07943557
214	0x3ab7607a	0.0013990544
215	0xbdae40fe	-0.0850849
216	0x3c4be2c6	0.012444204
217	0x3d05f990	0.032708704
218	0x3da4c5fc	0.08045575
219	0xbcca7db6	-0.024718147
220	0xbcaf7dec	-0.021422349
221	0x3e299404	0.1656037
222	0x3c8f1ad9	0.017468857
223	0xbb9e7e58	-0.0048368387
224	0x3ca541b6	0.020172935
225	0xbb80d855	-0.003932039
226	0x3d0166d0	0.03159219
227	0x3c770935	0.015077879
228	0x3d75323e	0.059862368
229	0x3de4eda2	0.11178137
230	0xbde8c30b	-0.113653265
231	0x3dda2f0d	0.106535055
232	0x3ce8bab5	0.028409341
233	0x3db31bb5	0.08745519
234	0x3d6d0b0c	0.057871863
235	0x3d9d3e9d	0.07677958
236	0x3d9926a2	0.07478072
237	0x3d73d499	0.05952892
238	0x3dc7b24f	0.097508065
239	0xbbd3015c	-0.006439371
240	0xbd7081e4	-0.058717623
241	0xbc228268	-0.009918787
242	0xbc907570	-0.017634124
243	0x3e024aaf	0.12723802
244	0x3d88997f	0.06669902
245	0x3cce4125	0.025177548
246	0x3db5bb77	0.08873647
247	0xbe029f30	-0.12756038
248	0xbb3ba575	-0.0028632556
249	0xbd9dbb12	-0.077016965
250	0x3dfa8191	0.12231744
251	0xbde49ee5	-0.11163119
252	0x3dc30275	0.09521953
253	0xbcf2e1a7	-0.029648615
254	0x3cea161b	0.028574994
255	0xbca90291	-0.020631107

i2h.bias f4 [64]
0	0x3d1e138e	0.038592868
1	0xbe00a64b	-0.12563436
2	0x3daea5df	0.08527731
3	0xbdfeba69	-0.12437899
4	0xbdf69216	-0.120395824
5	0x3cd81a30	0.026379675
6	0x3c301d51	0.010749177
7	0xbda87c09	-0.08226783
8	0xbd911165	-0.07083396
9	0x3d12aa17	0.03580674
10	0xba9ed98c	-0.0012119277
11	0x3d0bbf3a	0.034117915
12	0xbe2a922f	-0.16657327
13	0xbce144f4	-0.0274987
14	0xbe1085fd	-0.14113612
15	0x3dea996e	0.11455046
16	0x3dbaacb2	0.0911497
17	0xbd17e63d	-0.037084807
18	0xbd038ab1	-0.03211469
19	0xbde09744	-0.10966352
20	0x3d80ac5e	0.062828764
21	0xbd9e450c	-0.077280134
22	0x3d3d1478	0.0461621
23	0x3dbdd1bf	0.092685215
24	0xbdeba1bd	-0.115054585
25	0x3c71ca51	0.014757709
26	0xbdd14e8b	-0.10220059
27	0xbdbb6577	-0.09150212
28	0xbcaaa71a	-0.020831633
29	0x3c3acfd9	0.011402094
30	0x3e187cb2	0.14891317
31	0x3dfad104	0.12246898
32	0xbdb15a8b	-0.08659848
33	0x3d26f27b	0.04075859
34	0xbc70435c	-0.014664497
35	0xbd91a642	-0.07111789
36	0xbdad44e5	-0.08460406
37	0xbb018c2c	-0.0019767387
38	0xbde35eea	-0.11102088
39	0x3c916d15	0.01775221
40	0x3ca8bb47	0.020597113
41	0xbd812ec9	-0.06307752
42	0x3d250069	0.040283594
43	0x3e0aaee9	0.13543285
44	0x3b5b8021	0.0033493119
45	0x3da7ae94	0.08187595
46	0xbd8d436f	-0.068976276
47	0xbc281dea	-0.010261038
48	0xbe01266b	-0.12612312
49	0xbd446f91	-0.04795796
50	0xbe005c56	-0.12535223
51	0x3dfb761f	0.12278389
52	0x3e1a1342	0.15046409
53	0x3e0a13ed	0.13484164
54	0x3dfa0492	0.12207903
55	0x3e168646	0.14699659
56	0xbd8fea55	-0.07027117
57	0xbdcc4464	-0.09973982
58	0xbdf7cef1	-0.12100018
59	0xbc818416	-0.015810054
60	0xbe1ee9c0	-0.15518856
61	0x3d898aaa	0.06715901
62	0x3e23258e	0.15932295
63	0x3df8d844	0.121506244

i2o.weight f4 [27, 91]
0	0x3c80fef6	0.015746575
1	0xbd8b2ef7	-0.06796067
2	0xbd833d99	-0.06408233
3	0x3f089afb	0.5336148
4	0xbdf36b3a	-0.11885686
5	0xbe4001b6	-0.18750653
6	0x3e8865e8	0.26640248
7	0x3e206ffe	0.15667722
8	0x3e914515	0.28373018
9	0x3e9cab94	0.30599654
10	0x3e8b6cc4	0.2723142
11	0x3ec8659e	0.39140028
12	0x3ed9d2d3	0.4254366
13	0xbe5a7cdf	-0.21336697
14	0x3ea76856	0.3269679
15	0xbe7c2345	-0.2462283
16	0x3e20eab8	0.15714538
17	0x3d890c79	0.06691832
18	0x3e9b87a6	0.3037693
19	0xbd97e687	-0.074170165
20	0xbcfc815d	-0.030823404
21	0xbe05d1c0	-0.13068295
22	0x3e7f5b79	0.24937238
23	0x3ea41323	0.3204585
24	0xbe9c54b1	-0.30533364
25	0xbe932727	-0.28740808
26	0x3e9bcd65	0.3043014
27	0xbdbf63d4	-0.093452126
28	0x3cacd891	0.02109936
29	0x3da75f4e	0.08172475
30	0xbe5aad12	-0.21355084
31	0xbdd7b422	-0.105324045
32	0x3e374146	0.17895994
33	0xbda18a5d	-0.07887719
34	0xbddd6975	-0.1081113
35	0x3d1a8159	0.03772101
36	0x3d0122dd	0.03152739
37	0x3e10278d	0.14077587
38	0x3db696e3	0.08915498
39	0xbddba82d	-0.10725436
40	0x3d81a10c	0.063295454
41	0xbd37b1f0	-0.04484743
42	0xbe3d0d01	-0.18461992
43	0x3adb19a6	0.0016716018
44	0xbdaa5982	-0.083178535
45	0xbd036519	-0.032078836
46	0x3e7be5db	0.24599402
47	0xbd9ba124	-0.075990945
48	0xbe329bad	-0.17442198
49	0x3e8cffbb	0.27538857
50	0xbda61911	-0.0811025
51	0x3de5dc51	0.11223663
52	0xbe319c84	-0.17344862
53	0x3d2fbf21	0.042906884
54	0xbd20a634	-0.039221004
55	0x3dc7877a	0.09742637
56	0x3cdacad3	0.026708042
57	0x3d12c102	0.035828598
58	0x3df725c7	0.12067752
59	0xbe59db0b	-0.21274965
60	0x3e39a642	0.18129829
61	0x3d24e529	0.040257607
62	0x3dc7849b	0.09742089
63	0xbd62bee9	-0.055357847
64	0x3c9d289f	0.019184409
65	0x3d932c7b	0.07186218
66	0xbae7f514	-0.001769694
67	0xbd686d4f	-0.05674487
68	0x3cebf6c6	0.028804194
69	0x3e35606f	0.17712568
70	0x3c6a3c1b	0.014296557
71	0x3cbfc5af	0.023409693
72	0xbe052ac8	-0.13004601
73	0xbcdc2a68	-0.02687569
74	0xbd09ed18	-0.033673376
75	0xbe0b3949	-0.13596071
76	0xbda3bced	-0.07995019
77	0x3c907385	0.017633209
78	0xbb815fcb	-0.003948187
79	0xbe56a119	-0.20959891
80	0xbdd2b418	-0.102882564
81	0x3df71cb6	0.12066023
82	0x3e635146	0.22198972
83	0x3de68816	0.11256425
84	0x3c5c4a93	0.013445514
85	0x3e7355f5	0.23763259
86	0xbe50f753	-0.20406847
87	0x3e5db9ce	0.2165291
88	0xbe667cbb	-0.22508518
89	0xbe5e7e74	-0.21727926
90	0x3dfd1c78	0.123589456
91	0xbd31d099	-0.043411825
92	0x3e5ee9e9	0.21768917
93	0x3d163753	0.036673855
94	0xbe8cf4ac	-0.2753042
95	0xbd7a05ff	-0.061040875
96	0x3f05ef6c	0.52318454
97	0x3f07db82	0.5306932
98	0x3d1abf3d	0.037780035
99	0xbe9b7d92	-0.3036924
100	0x3e169ba7	0.14707814
101	0xbdbd3252	-0.092381135
102	0xbdd21f82	-0.10259916
103	0xbead6780	-0.33868027
104	0xbf1474df	-0.5799083
105	0xbe9b851f	-0.30375
106	0x3dbb3422	0.09140803
107	0xbe9529f5	-0.29133573
108	0x3e3bff64	0.18359143
109	0xbde0cb66	-0.10976295
110	0xbf149a49	-0.5804792
111	0xbe1f29e2	-0.15543321
112	0x3eae73f8	0.34072852
113	0xbe664070	-0.22485518
114	0xbed49e3d	-0.41526976
115	0xbf0c84c2	-0.5489007
116	0x3e800b9f	0.25008866
117	0xbda7fd8a	-0.082026556
118	0xbe05bab4	-0.13059503
119	0x3e60174d	0.21883889
120	0xbc8f1304	-0.017465122
121	0x3e8b0645	0.2715322
122	0x3dbfd7ed	0.093673564
123	0x3c939065	0.018013189
124	0x3d57312b	0.052537125
125	0xbde2dc28	-0.11077148
126	0x3df9afa5	0.12191705
127	0x3e5410f0	0.20709586
128	0xbcfea772	-0.031085704
129	0x3de5e2cb	0.11224898
130	0x3c20ddd2	0.009818511
131	0xbdcff70a	-0.10154541
132	0x3d8b423b	0.06799742
133	0xbe1c7bbf	-0.1528158
134	0x3e354f36	0.17705998
135	0x3cae2788	0.021259084
136	0x3e3cf9e7	0.18454705
137	0x3e4660ff	0.19372939
138	0xbd232193	-0.03982694
139	0x3d955b3a	0.07292791
140	0x3e014cfc	0.12627023
141	0xbd6e2dc0	-0.0581491
142	0xbd031b17	-0.032008257
143	0xbe0d8c65	-0.13823088
144	0x3e1474f9	0.14497747
145	0xbc18d66a	-0.009328464
146	0x3c97a4d2	0.01851121
147	0x3e6e1328	0.23249495
148	0xbdc0203b	-0.093811475
149	0xbe2d5f3e	-0.16930863
150	0xbe1e1354	-0.1543706
151	0x3da8c24f	0.082401864
152	0x3cdabe13	0.026701963
153	0x3d04a58e	0.032384448
154	0xbd710477	-0.05884215
155	0xbd5eaedb	-0.054365974
156	0xbe35a2f3	-0.17737941
157	0xbdd99445	-0.10623983
158	0x3dd6e08e	0.10492049
159	0x3e0112ef	0.12604879
160	0x3e7dd79f	0.24789284
161	0x3da34c69	0.079735585
162	0xbd7616e5	-0.060080428
163	0xbe78f52e	-0.24312279
164	0x3e07a491	0.13246371
165	0x3dab39ef	0.08360659
166	0xbe5f84ce	-0.21828005
167	0xbe6c64cb	-0.23085324
168	0x3db8280a	0.08992012
169	0x3b5e03b2	0.0033876714
170	0x3d25d883	0.040489685
171	0xbe4313c4	-0.19050509
172	0xbdbd4313	-0.09241309
173	0xbd69b99c	-0.057061777
174	0x3dd9391f	0.10606598
175	0x3dc80427	0.09766417
176	0x3e1b02af	0.15137742
177	0xbd815e00	-0.06316757
178	0xbd73209a	-0.059357263
179	0x3d44014a	0.04785279
180	0xbc9f1241	-0.019417884
181	0xbe0caa24	-0.13736778
182	0x3d70b6c1	0.058768038
183	0x3e9ce645	0.30644432
184	0xbea4ce1b	-0.32188496
185	0xbe0dbcf4	-0.13841611
186	0x3dbe6160	0.092959166
187	0x3ed429ef	0.41438243
188	0xbdf41195	-0.11917416
189	0x3e370b04	0.17875296
190	0xbf0d53d1	-0.5520602
191	0x3e6f265d	0.23354478
192	0xbf283cf9	-0.65718037
193	0xbe8ab56b	-0.27091536
194	0xbe93abbd	-0.28841963
195	0xbf1ccdb4	-0.6125138
196	0x3e2a6dfd	0.1664352
197	0x3ce636be	0.028102275
198	0xbebc2905	-0.36750045
199	0xbed6ecd8	-0.41977572
200	0xbe564760	-0.20925665
201	0xbe54755a	-0.20747891
202	0xbe0f941f	-0.14021347
203	0x3e1a1fae	0.15051147
204	0xbf5f105c	-0.8713434
205	0xbf392558	-0.7232261
206	0xbecc9bd8	-0.3996265
207	0x3f002427	0.50055164
208	0x3e6c1c69	0.23057713
209	0x3d9f86b7	0.07789367
210	0x3e02c942	0.12772086
211	0x3e1d3b0d	0.15354557
212	0x3e2b1732	0.16708067
213	0x3c9ef877	0.019405587
214	0xbda9939b	-0.08280107
215	0x3ba775af	0.0051104645
216	0x3e2febf6	0.17179856
217	0x3b3ff446	0.0029289885
218	0x3e25ed0d	0.16203709
219	0xbb839509	-0.004015569
220	0x3d2efb80	0.042720318
221	0xbdbaaa56	-0.0911452
222	0xbd0da0e1	-0.034577254
223	0x3e0661dd	0.1312327
224	0xbe34031e	-0.17579314
225	0x3dd8f7fc	0.10594174
226	0x3c182d36	0.009288123
227	0x3d142973	0.03617234
228	0xbdb5ad0c	-0.08870897
229	0xbe31da78	-0.17368495
230	0xbe1d80ee	-0.15381214
231	0xbd8d5713	-0.06901374
232	0xbe08ea40	-0.1337061
233	0xbcaf51a9	-0.021401243
234	0xbdd7d113	-0.105379246
235	0xbd3ada74	-0.04561849
236	0xbd10e8b9	-0.03537819
237	0x3e6b2f09	0.22967161
238	0x3c04836b	0.008087973
239	0xbdff74f3	-0.12473478
240	0xbdcc11b7	-0.09964316
241	0x3b05af88	0.0020398814
242	0xbe2610b4	-0.16217309
243	0xbcf288b4	-0.0296062
244	0xbd6df098	-0.058090776
245	0x3e1b0c59	0.15141429
246	0x3cd85a94	0.026410379
247	0xbdcb58d8	-0.09929055
248	0xbc0d31d5	-0.008617838
249	0x3e10f0ab	0.14154308
250	0xbe31c0c7	-0.17358695
251	0x3e0be6b3	0.13662224
252	0x3d422ffb	0.04740904
253	0xbdfcd07d	-0.123444535
254	0xbd79c3a6	-0.0609776
255	0xbb66d34c	-0.0035221158

i2o.bias f4 [27]
0	0x3e9f6208	0.3112948
1	0xbde55f69	-0.11199839
2	0xbeb6d16e	-0.35706657
3	0xbe668d37	-0.22514807
4	0xbe7709e7	-0.24124871
5	0xbe16a046	-0.14709577
6	0x3c085fc4	0.008323614
7	0xbd1a3e45	-0.03765704
8	0x3e53eb33	0.2069519
9	0x3eb37fda	0.3505848
10	0x3eac7eb2	0.3369041
11	0xbcb2f0e8	-0.021843389
12	0xbd9a476b	-0.07533153
13	0x3e8bd806	0.2731325
14	0xbd112889	-0.035439048
15	0xbe5b620e	-0.21424124
16	0x3ead964f	0.3390374
17	0xbe6b874e	-0.23000833
18	0xbdcf2abf	-0.10115575
19	0x3e9fbe17	0.31199715
20	0xbe1139d6	-0.14182219
21	0x3cd80e32	0.026373956
22	0x3e8d7018	0.27624583
23	0x3e48d66a	0.19613042
24	0xbe8be25e	-0.27321142
25	0xbca7c0f0	-0.020477742
26	0x3e5867cd	0.21133347

o2o.weight f4 [27, 91]
0	0xbdef063c	-0.11671111
1	0x3e0b7830	0.13620067
2	0x3dbe6fe2	0.09298684
3	0x3e450c0e	0.1924288
4	0x3e340929	0.1758162
5	0xbbe6c314	-0.007042298
6	0xbc858483	-0.016298538
7	0x3e389ad7	0.18027817
8	0xbe2e9eb7	-0.17052732
9	0xbd806e75	-0.06271068
10	0x3d82e8ac	0.06392035
11	0x3e25203f	0.16125582
12	0x3ea8d6db	0.32976422
13	0xbd96afa9	-0.07357723
14	0xbd244684	-0.04010631
15	0xbe1233dd	-0.14277597
16	0xbe0105c2	-0.12599853
17	0x3e1b40aa	0.15161386
18	0xbd38b3ed	-0.045093466
19	0xbd43e178	-0.047822446
20	0x3ded92aa	0.116002396
21	0x3e895765	0.2682449
22	0x3e0c4989	0.13699926
23	0xbcd59ea7	-0.026076628
24	0x3dab97c9	0.0837856
25	0xbdfd5298	-0.12369269
26	0x3da11b51	0.07866538
27	0xbda317c9	-0.07963521
28	0x3d80360b	0.06260308
29	0x3d8dbf5b	0.06921264
30	0xbf081b9e	-0.5316714
31	0x3d6c37dd	0.057670463
32	0xbc7982b9	-0.015228921
33	0xbd72d1bb	-0.059282046
34	0xbd978f09	-0.07400329
35	0x3e02db73	0.12779026
36	0x3ec066d7	0.3757846
37	0xbd97c470	-0.07410514
38	0xbd66f25f	-0.056383487
39	0xbc2f6204	-0.010704521
40	0xbe402127	-0.18762647
41	0x3ca423db	0.020036628
42	0x3deb8749	0.11500413
43	0xbf06797d	-0.52529126
44	0xbd914c95	-0.07094685
45	0xbd52e674	-0.05148931
46	0x3e8dd0b6	0.27698296
47	0xbe7994d0	-0.24373174
48	0x3d885573	0.06656923
49	0xbe4b97c4	-0.19882113
50	0x3eb2741f	0.34854218
51	0x3e299ed7	0.16564499
52	0xbedd82e7	-0.43263933
53	0xbe96b248	-0.29432893
54	0xbe18de81	-0.14928629
55	0xbe9a2aab	-0.30110678
56	0x3e033298	0.12812269
57	0x3db3f0ed	0.08786187
58	0x3dbde955	0.0927302
59	0xbc073c1d	-0.008254078
60	0xbcbcb65c	-0.023036174
61	0x3eb12b16	0.34603184
62	0xbdb10abf	-0.08644628
63	0xbe5bd134	-0.21466523
64	0xbe47bf57	-0.19506584
65	0x3ba1cd9f	0.004937842
66	0x3e94a024	0.29028428
67	0xbd78dc11	-0.060756747
68	0x3eddbc24	0.43307602
69	0xbc8981e9	-0.016785579
70	0x3e2fc990	0.17166734
71	0xbe12e38f	-0.14344619
72	0xbee9b5ae	-0.45646423
73	0xbf2a2bf5	-0.66473323
74	0xbf33d07d	-0.7024
75	0xbd90aed3	-0.07064595
76	0xbe1df590	-0.15425706
77	0xbf0aa645	-0.5415996
78	0x3e9abac4	0.30220616
79	0x3db892a2	0.09012343
80	0xbe1ca22e	-0.15296242
81	0x3f50df0e	0.81590354
82	0x3e7a40b6	0.24438748
83	0xbf1011bb	-0.56277055
84	0xbc88b91b	-0.016689828
85	0xbe634930	-0.22195888
86	0xbebe660e	-0.37187237
87	0x3dc8c185	0.09802536
88	0xbb0aa6b1	-0.0021156485
89	0xbdc03cde	-0.093866095
90	0xbe4ed10f	-0.20196937
91	0xbde56950	-0.112017274
92	0x3d9d84f2	0.07691373
93	0x3e188f6b	0.1489846
94	0xbe4d3c19	-0.20042457
95	0xbe355ad1	-0.17710425
96	0x3de66b11	0.1125089
97	0xbea03517	-0.31290504
98	0xbd9a9b35	-0.07549135
99	0x3dadd0c1	0.08487082
100	0xbd07c5d0	-0.033147633
101	0x3e195b48	0.14976227
102	0x3e21be48	0.15795243
103	0xbe39c540	-0.18141651
104	0x3d635da4	0.055509225
105	0xbe938bc6	-0.28817576
106	0xbdf8b920	-0.12144685
107	0x3be37496	0.0069413884
108	0xbda0b582	-0.0784712
109	0x3ccf978b	0.025340816
110	0xbd423cda	-0.047421314
111	0xbc4697f2	-0.0121211875
112	0xbcc2c79e	-0.023776826
113	0xbe54813a	-0.20752421
114	0x3d6a9814	0.05727394
115	0xbdde68a7	-0.108598046
116	0xbc2b5c33	-0.010458994
117	0xbe01ddd1	-0.12682272
118	0x3da9f9a9	0.08299572
119	0x3e088374	0.13331395
120	0x3d37bff2	0.044860788
121	0xbd036291	-0.032076422
122	0x3d26f3dc	0.040759906
123	0xbe90ea8a	-0.2830394
124	0xbd7d8f6c	-0.061904356
125	0x3db7d9be	0.08977078
126	0x3dce2370	0.10065353
127	0xbc9870dc	-0.018608503
128	0x3d788940	0.060677767
129	0x3e372d14	0.1788829
130	0xbd264599	-0.040593717
131	0xbe20eaf7	-0.15714632
132	0x3e87f937	0.26557323
133	0x3d8290f5	0.063753046
134	0x3dfb6433	0.12274971
135	0xbb6150d7	-0.003438046
136	0x3d055816	0.03255471
137	0x3e13e043	0.14441018
138	0x3dc802f9	0.09766192
139	0xbe236f9a	-0.15960541
140	0x3dbbb522	0.09165408
141	0x3e166afa	0.14689246
142	0x3de03cc3	0.109490894
143	0x3d9e75b0	0.07737291
144	0xbe9f9a72	-0.3117252
145	0x3d3d550d	0.04622369
146	0xbbf3edcf	-0.0074441205
147	0x3db5632a	0.08856805
148	0xbcf18a64	-0.029484935
149	0xbd77d41a	-0.06050501
150	0xbd52cce2	-0.051464923
151	0xbe0a4959	-0.13504542
152	0xbec3a3ed	-0.38211003
153	0x3c841778	0.016124472
154	0x3de000bb	0.10937639
155	0x3e29e85e	0.16592547
156	0xbd770c3e	-0.06031441
157	0xbe0958a6	-0.13412723
158	0xbe0feaf8	-0.14054477
159	0xbd672c6b	-0.056438845
160	0x3e1f76c0	0.15572643
161	0x3e2b2564	0.16713482
162	0xbee99fab	-0.4562963
163	0xbdefc6d3	-0.117078446
164	0x3d822ec9	0.0635658
165	0x3e58eb12	0.21183422
166	0xbe331575	-0.17488654
167	0xbe3afc22	-0.18260244
168	0x3d562160	0.052277923
169	0xbd690ca4	-0.05689682
170	0xbd946406	-0.072456405
171	0x3e8bb0f7	0.2728345
172	0x3db7d516	0.0897619
173	0xbde91f1c	-0.11382887
174	0xbcd4180d	-0.025890375
175	0xbdd5ebc3	-0.104453586
176	0x3e9a8a2f	0.3018355
177	0x3eb17550	0.34659815
178	0x3e0d7319	0.13813438
179	0xbe885937	-0.26630566
180	0x3e839b2a	0.25704318
181	0xbdefeb1c	-0.117147654
182	0x3e5ab54f	0.21358226
183	0x3d874e54	0.06606737
184	0x3e4d3549	0.20039858
185	0xbe003d34	-0.12523347
186	0x3e536f61	0.20647956
187	0xbdec1ca8	-0.11528903
188	0xbe45ecad	-0.19328566
189	0x3e9c34df	0.30509087
190	0x3e45fab4	0.19333917
191	0x3e5ed130	0.21759486
192	0x3d30c205	0.04315378
193	0x3cc2bd43	0.023771888
194	0xbdc58fc3	-0.09646561
195	0xba779d27	-0.000944572
196	0xbda70e3b	-0.08157011
197	0xbe2c5365	-0.16828687
198	0x3d4a08c6	0.049324773
199	0xbdecfe18	-0.11571902
200	0x3ecbc6ac	0.39800012
201	0x3d0f2bd1	0.034953896
202	0x3da88675	0.08228771
203	0x3e8958ff	0.2682571
204	0x3d919c47	0.07109886
205	0xbe693dad	-0.22777434
206	0x3e0023d4	0.12513667
207	0x3cfaad4a	0.030600209
208	0x3e52f7cc	0.2060234
209	0x3e61b91b	0.22043268
210	0x3e094d13	0.13408308
211	0x3e251cc0	0.16124249
212	0xbd8acac3	-0.06776955
213	0xbe6b566d	-0.22982188
214	0x3eb8dc23	0.3610545
215	0xbda0184a	-0.07817133
216	0x3da5ab97	0.08089369
217	0xbadc7839	-0.0016820497
218	0x3e023bc5	0.12718113
219	0x3e8cf86e	0.27533287
220	0x3cf9d99f	0.030499278
221	0x3d37eec1	0.044905428
222	0xbe8edd74	-0.2790333
223	0xbe09d4b2	-0.13460043
224	0x3dfaf2a6	0.12253313
225	0xbd84d89d	-0.06486628
226	0x3d6596f2	0.056052156
227	0xbe1dbc04	-0.15403754
228	0x3e97c18a	0.29639846
229	0x3e923b91	0.2856107
230	0xbdd92a8a	-0.10603817
231	0x3dcb1d37	0.09917682
232	0xbe132a81	-0.14371683
233	0xbddb1e8a	-0.10699184
234	0x3e8aa1cb	0.27076563
235	0xbcb02a30	-0.021504492
236	0xbd945068	-0.07241899
237	0xbe21e8e2	-0.15811494
238	0x3eeeafc0	0.46618462
239	0x3e2a905d	0.16656633
240	0x3ec947cf	0.39312598
241	0x3c0e0891	0.008669035
242	0xbd7e165f	-0.062033053
243	0xbcc514f2	-0.024057839
244	0x3c9afe90	0.018920213
245	0xbed7cd49	-0.42148808
246	0xbe2d427e	-0.16919896
247	0xbc210fed	-0.009830457
248	0x3e07f8ae	0.13278458
249	0x3ed6f61e	0.41984648
250	0x3de129ae	0.10994278
251	0x3de82938	0.11335987
252	0xbdbab980	-0.091174126
253	0x3da8165c	0.0820739
254	0xbd1d1124	-0.038346425
255	0xbcd74323	-0.02627713

o2o.bias f4 [27]
0	0xbe78d8c6	-0.24301443
1	0x3e04e2da	0.12977162
2	0xbe805916	-0.25067967
3	0xbd9a892f	-0.07545697
4	0xbe0d0f3a	-0.1377534
5	0x3d7cfb9c	0.06176339
6	0xbe7fdd9c	-0.24986881
7	0xbde1e244	-0.11029485
8	0xbe4be7b1	-0.19912602
9	0x3dc418ac	0.09575018
10	0xbe843410	-0.2582097
11	0xbdd1106a	-0.10208209
12	0xbd92c216	-0.07165925
13	0xbd008134	-0.031373218
14	0xbd981580	-0.07425976
15	0xbd72f44a	-0.059315003
16	0xbd6888ca	-0.056771077
17	0xbe5aaa27	-0.2135397
18	0x3d8e36e3	0.069440626
19	0xbd375650	-0.04476005
20	0x3d2e195c	0.042504653
21	0x3e11498b	0.1418821
22	0xbe3dcbcf	-0.18534778
23	0xbe19496e	-0.14969417
24	0xbe999385	-0.2999536
25	0xbdc828fd	-0.09773443
26	0xbe991d4e	-0.2990517
