char_rnns/models/Dino_Names_RNN.pth (torch_old, 31816 bytes, 6 tensors)

rnn.weight_ih_l0 f4 [64, 27]
00000000: 5acb 1840 df41 4ebe edb3 aabe 8836 393f
00000010: 721e 34be 00fc 2c3e de6d 89be 8913 e5be
00000020: 3d03 8dbe 4f21 57be 872e 96bd d6fe d8be
00000030: dc2b 1a3e 5343 d3be c051 61bc 0f3b 62be
00000040: e538 9fbd e0ff 5abd bdfd 36bd 2b70 063f
00000050: 3e51 a7bd 34bf 6e3f 4a8c 7abe c50e cdbe
00000060: 06d8 0b3e 7bfe 37bd 2564 83bc 9ae8 4bc0
00000070: a915 ac3e 8a33 083e 29c7 813d 121b 34be
00000080: b4d3 9dbd c463 26be 3f9f 363d b27a b1bd
00000090: e103 4f3e db7f 93be 57bf 0cbe 9b5d 7c3d
000000a0: 6e52 e2be 65b9 0c3f a84d 003e 2f24 e4be
000000b0: 931a 73be eef1 8f3e 5730 0ebf 6510 3ebf
000000c0: 452e 8f3e fe4d 403e a7b2 41be 2ec5 9abe
000000d0: da9d 97be 0125 31bf 8bcb 70c0 a3d7 893d
000000e0: 9290 9d3e 6089 5c3e ca04 8ebe adab f83d
000000f0: 245d d43e c63e 7abe dec8 30be 2a38 963e
00000100: a78a 8b3e fc90 933e 2f22 b03d 04dd 0bbe
00000110: dbdc 513e 0cdd 3dbf d50b e83e 995e 48bc
00000120: 1bf2 e7be 7244 413e 2132 8e3b 4f66 ab3e
00000130: 1fa6 093e 7278 d03e efe0 77be 589d 943e
00000140: 0b3c a73c 004e 0740 7632 9fbe e85a b53c
00000150: 878e 183f 161b d03e 7444 eb3b ba37 283e
00000160: 3a8a 62be b1c4 693e e417 02bf c081 7ebe
00000170: 4179 7c3e ce58 5cbe 9336 08be a812 c9be
00000180: e362 4cbf eda8 0b3e 840b 03bf 685f 263e
00000190: 3bfc 083f 5aef c73e 2576 f4be 0788 ec3d
000001a0: 1d06 00be de67 8dbe a7fd 263e eff1 b5bd
000001b0: df1b 3bc0 ebc7 a6be 1177 9c3d 94fb cc3e
000001c0: 120e 1c3e db36 c4bd 3479 1abe 903c 0fbe
000001d0: dca4 313e 0c5d 4f3e 7cc3 ea3c 6b1a 983d
000001e0: bbd7 d2bd 3a37 e63d e245 aa3e ea0e c33e
000001f0: a855 8cbd 4f2c e1bd d2ff 53be de8d e7bd
00000200: dbab 8d3f dfb3 c13f 551b 603c b96a fe3d
00000210: 9911 3bbf 0fac 0d3f 904a ae3e 104a 8ebf
00000220: 821e b1be 3f38 413e 1968 4bbe 7631 0e3e
00000230: 2aac 1cbe d8a0 2abd e1c5 92bd c69c 563b
00000240: 1f29 d8be a2f3 21bf d48a 98be 28ee 95be
00000250: 44cf 263e c83d cc3e ff1c 49be 07c7 8ebd
00000260: d754 abbe 1344 423e 399f 103f 8b21 d53e
00000270: 0a2b 98be 839f 99be e0b7 9fbe 07ee 64be
00000280: 8184 cd3c 50c8 ad3e daff fc3f 6558 fbbb
00000290: 0ebf b3be afdd c2bd 9911 02bf 9dc5 5c3e
000002a0: 889c d73d bf5e 833e 17e3 0ebf 9878 aa3e
000002b0: 84f4 fdbd 66b7 d6be fc0d 19bf f12f 7cbe
000002c0: 8f9d 0cbe 0511 113f bc06 0cbf 0bc7 96be
000002d0: 6319 02bf 444f ccbe 4365 eabe 4614 c43e
000002e0: e3c9 8f3e 89ee 6bbe e2ea 473e 8b0c 103e
000002f0: 5b4d 4b3e 5aca 5cbe d5a4 d73e 0b55 d7be
00000300: 4ff6 85be 1f3c cbbe bc62 4d3b 5c77 5abe
00000310: a5d6 c1bc 1cb2 09bf 86f7 fb3e 6419 983e
00000320: 779d 62be ef78 ffbc 815a 82bf 2c57 183f
00000330: ea7f 9abe 767d 9cbe f574 b1be 65e6 e1bd
00000340: eaaf bfbe cccd fabc abe0 acbe e5da b5bf
00000350: a44c abbe 9e4f c23e 19d8 df3e c192 8fbd
00000360: 163f 39c0 90c7 08be 886a e7be 1795 1b3e
00000370: d4e6 3cbf be9c 20bd f461 0dbf 9482 923b
00000380: 7fd3 efbe 3687 863f f3c3 e7be 7a2e 91be
00000390: f78f 13be 3fd1 a5bd 2ce1 dd3e 1dd0 ae3e
000003a0: 4bc5 90bd b172 22bf e182 713e 00ba c13e
000003b0: e9fe abbe 4e5c 23bf 3da4 15bf 5b79 29bc
000003c0: 004f 04bf f89c 743e f648 69bd 7986 8e40
000003d0: 3a93 8ebd 669b 75bd c6dc 9f3e a73a 1b3f
000003e0: 19d0 05bf 7e62 203e 3866 debd 350c 863e
000003f0: 911c 843e c67d 44be 455d 163e aa75 c83d
2.3874116 -0.20142315 -0.33340397 0.72348833 -0.17589739 0.16893005 -0.26841635 -0.44741467
-0.27541533 -0.210088 -0.07333093 -0.42381924 0.15055794 -0.41262302 -0.013752401 -0.22092842
-0.07774524 -0.053466678 -0.044675577 0.52514905 -0.081697926 0.932605 -0.24467579 -0.4005033
0.13656625 -0.044920426 -0.016038964 -3.1860719 0.33610275 0.1330091 0.06336815 -0.17588452
-0.07706395 -0.16248995 0.044585463 -0.086659804 0.20216323 -0.28808483 -0.13744865 0.061612707
-0.44203514 0.5497039 0.12529624 -0.44558856 -0.23740606 0.28114265 -0.5554251 -0.74243766
0.27964988 0.18779752 -0.18915807 -0.3022856 -0.2961262 -0.6919709 -3.7624233 0.067305826
0.3077436 0.2153678 -0.2773803 0.121421196 0.4147731 -0.24438009 -0.17264125 0.29339725
0.2725422 0.28821552 0.0860027 -0.1365853 0.20494406 -0.74165416 0.45321527 -0.012229585
-0.453019 0.18873766 0.004339472 0.33476493 0.13442276 0.40716892 -0.24206899 0.29026294
0.020414373 2.1141357 -0.31093186 0.022138074 0.5959248 0.40645665 0.007179791 0.16427508
-0.22123042 0.22828938 -0.50817704 -0.24854183 0.2465563 -0.21518251 -0.13302068 -0.39272046
-0.7983839 0.13638659 -0.51189446 0.16247332 0.53509873 0.39049798 -0.47746387 0.11549383
-0.12502332 -0.27618307 0.16307698 -0.08884036 -2.923576 -0.325744 0.076398976 0.4003569
0.15239742 -0.09580775 -0.15085298 -0.13987947 0.17348045 0.20250338 0.028657667 0.07426914
-0.102950536 0.112410024 0.3325644 0.38097316 -0.06852275 -0.10994779 -0.20703056 -0.11306356
1.1068071 1.5133017 0.013678391 0.124226995 -0.73073727 0.55340666 0.34041262 -1.1116352
-0.34593588 0.18869112 -0.19863929 0.13886055 -0.1530005 -0.0416573 -0.07166649 0.0032747253
-0.42218873 -0.6326238 -0.29793417 -0.2928326 0.16290003 0.39890885 -0.19639967 -0.06971555
-0.33463165 0.18971281 0.56492954 0.41627154 -0.29720336 -0.3000451 -0.31194973 -0.22356425
0.025087597 0.3394189 1.976558 -0.0076704496 -0.351067 -0.09514939 -0.508081 0.21559758
0.10527903 0.25658223 -0.5581526 0.3329513 -0.12400153 -0.41936797 -0.59786963 -0.24627663
-0.13731979 0.56666595 -0.54697776 -0.29448733 -0.5081999 -0.39904225 -0.45780382 0.38296717
0.28083715 -0.23040213 0.19523194 0.14067285 0.19853728 -0.21561566 0.42117944 -0.4205707
-0.2616448 -0.39694306 0.0031339368 -0.21334594 -0.02366192 -0.537874 0.49212283 0.29706872
-0.2213038 -0.031185595 -1.018387 0.59508014 -0.30175716 -0.3056447 -0.34659544 -0.110302724
-0.374389 -0.03061571 -0.33765158 -1.4207426 -0.3345691 0.37951368 0.43719557 -0.07010413
-2.8944755 -0.13357377 -0.45198464 0.15193592 -0.73789716 -0.03921198 -0.5522759 0.0044711325
-0.46841046 1.0510013 -0.45266685 -0.2835577 -0.14410387 -0.08096551 0.43335855 0.34143153
-0.07068881 -0.63456255 0.23585083 0.3783722 -0.3359292 -0.6381272 -0.5845373 -0.010343875
-0.51683044 0.23888004 -0.056954347 4.453915 -0.06961675 -0.059962653 0.31223124 0.6063637
-0.52270657 0.15662572 -0.108593404 0.26181188 0.25803044 -0.19188604 0.14684017 0.09788068

rnn.weight_hh_l0 f4 [64, 64]
00000000: d341 84be 773b 86be 7ec1 ccbe d7b6 80bd
00000010: 0383 dabc 1d92 c33d 71b0 94bc 770f 83be
00000020: 1008 083d b595 57bd 454a a13c 96dd 583e
00000030: be26 5fbd 7c7d ec3d cdff 11be 94cc d9bd
00000040: 32e0 3abd 6e30 c0bd 59ad 3cbd 050d 6a3d
00000050: 03b5 1f3d 999d 8d3c 1a5d 57bd 5736 10be
00000060: be1c 333e f0e2 ee3c 5be2 213d 8c78 e63c
00000070: 30d9 363d 4202 273d b597 5f3e ad14 c4bd
00000080: a363 3a3e 125b fabd bd6c 043e 619d 43be
00000090: 09f9 003e 93bd 3abb 2765 ae3d e4dc 3a3b
000000a0: a694 07bb f697 89bc a134 ffbd 72b6 cb3d
000000b0: 4642 5e3e b352 683e 892d f23d 5ea7 663d
000000c0: bce0 8cbe 060d df3d 7279 123e ef3d 28be
000000d0: 55e2 b03c 0c45 eabd 33e8 96bd 7d05 39bd
000000e0: e246 a1bb d63d 923e 4ea8 7fbc c57f a6be
000000f0: d1a9 2bbe 0924 a4bd 46b8 b6bd e165 d0bd
00000100: 7ecf a1bd 2ded 0fbe 78fd b8bd cb4e 30be
00000110: 15a6 ae3c 4654 263d 224c 1b3e b2b7 89ba
00000120: ed74 0b3b bc10 1d3e 10a7 da3d ec1d ebbc
00000130: c84d c7bd 0761 f1bd db76 cd3b f4e7 af3d
00000140: 5001 10be 3ee3 25bd ef96 99be 9e2f ecbd
00000150: a0f0 343d 9524 1fbe 70a8 c93d e3d9 8fbe
00000160: 56d2 33be 4c49 7bbd 3f6f f23d 0904 573e
00000170: 0a7d 7d3c 2025 233e 40ae efbc 0ce3 84bd
00000180: 12ff a1bd a0dd fdbd d109 4e3d 4cbe 233d
00000190: 48a0 2bbe a71f 4fbe fad4 b73d 7bb8 843e
000001a0: 72ae 9f3d f0e6 35bd e230 463d f305 f9bc
000001b0: a1fb 943d fce5 d9bd 8649 b03c 1ebc 0dbe
000001c0: a191 2a3d ce14 04be c7dc e5ba e57c c8bc
000001d0: 2d4b fbbb 8e08 493c bdef 04be cf51 ad3d
000001e0: a73d 883c b286 883e ffed f8bc 720e 433e
000001f0: 1118 78bd 05ef 373e 6997 02be 8bb9 15be
00000200: 7741 05bd b656 113e a671 fb3c 1211 693e
00000210: 1112 ea3d 257c b1bd d4bd e63d 5625 c3bd
00000220: 246d e5bd 3def 853d 4102 4e3c 4fa3 a4bd
00000230: f3f8 1bbe d5bb f9bd 060b c3bd 741b 323e
00000240: e581 473d 0de6 84bc 1b82 27be 803a 363e
00000250: 681b ebbd 55c4 0a3e bba9 9b3d 789c 473d
00000260: 242d e1bc 3158 4f3c 4644 80be d710 49bc
00000270: e080 d3bd 0a0f a2bd dd3a 203e 4a62 efbd
00000280: d18f ca3d 4bf9 d7bd 1c37 18bc 7916 003e
00000290: e18f 1abe 4b9b d7ba a7cc 063e 80ce 143c
000002a0: 09cd cd3d 2b1f 96bd e157 e7bc 5834 883e
000002b0: 5600 ad3d 87ec 963b b7ae 1e3e fd10 e33d
000002c0: 9c65 99be 2af8 5e3c c0f6 bf3c f2e8 2bbd
000002d0: a75a 63be 0754 6f3e 2c85 5fbd 11ec 2d3e
000002e0: 846d a03c a7f7 b5ba de78 9fbe 4993 08be
000002f0: cafa 50bc 7d05 713d a620 afbd 0156 97be
00000300: 7a7e 773d d663 07bd 2299 01be 87c0 f8bd
00000310: 8f17 25be abb6 383d b607 b53d da04 063e
00000320: b1ed 5c3e 73f2 47bd 7860 4abe ee13 b3bd
00000330: 7c45 703e b2af 9a3d ddd8 12be 7f4f 9bbd
00000340: 5b75 8d3e ed4e 43be 290d 1cbe 88f2 043e
00000350: 06a4 ba3d f332 1c3e 4dda 68be 4217 593d
00000360: c0d3 543e efd4 0b3e 6840 283e a022 81bd
00000370: 1184 e2bd 82f5 abbc 2f86 863e 5669 0bbe
00000380: 3991 9b3d 3a06 c93d 7258 503e a3e3 9f3d
00000390: f52c b1bc 558f c5bd aac1 153e 958a 1dbe
000003a0: f627 1bbd 6b36 19bd 7343 543e 709e 253e
000003b0: 7178 cfbc 618d 27bd 2d7f 393e 1ea2 07be
000003c0: 31a8 1fbe 4f97 35bc 729a 7dbe b8e2 e5bd
000003d0: 08f7 debd 56bd fc3e 4f79 76be 0afa 5f3d
000003e0: 1a5a 82bc 085a 4cbd 5290 743e 0dca ae3d
000003f0: 6aae 4d3e 8363 6ebc 03eb 11be 48b1 7a3d
-0.2583147 -0.26217243 -0.39991373 -0.06284874 -0.0266738 0.09549353 -0.01815054 -0.25597736
0.033210814 -0.052633006 0.019688735 0.21178278 -0.054480307 0.11547372 -0.14257737 -0.10634723
-0.045623966 -0.09384237 -0.046063755 0.057141323 0.038990986 0.017287062 -0.052579023 -0.14083229
0.17491433 0.029160947 0.03952251 0.028133653 0.04464072 0.040773638 0.21835215 -0.09574256
0.18202071 -0.122244015 0.12932105 -0.19103004 0.12595 -0.0028494343 0.08515387 0.0028513009
-0.0020687967 -0.016796093 -0.1246121 0.09946908 0.21704969 0.22687797 0.118250914 0.056311958
-0.2751521 0.10891156 0.1430414 -0.16429876 0.021592299 -0.11438951 -0.07368507 -0.04517125
-0.00492178 0.28562802 -0.015604092 -0.32519355 -0.16763999 -0.08014686 -0.08921866 -0.10175682
-0.07900904 -0.14055319 -0.0903272 -0.17217557 0.021319428 0.040607713 0.15165761 -0.0010507016
0.002127941 0.15338415 0.10676396 -0.028700791 -0.097316325 -0.117860846 0.006270272 0.085891634
-0.14063 -0.04049992 -0.29997966 -0.1153252 0.04417479 -0.15541299 0.0984658 -0.28095922
-0.17560706 -0.0613492 0.11837625 0.20997633 0.015471706 0.15932131 -0.029257894 -0.06488618
-0.07909979 -0.12395787 0.05030233 0.039976403 -0.16760361 -0.20226918 0.08976169 0.25921997
0.07796945 -0.044409692 0.048386462 -0.030398345 0.07274557 -0.10639569 0.021519434 -0.13841292
0.04164279 -0.12898561 -0.001753711 -0.024473617 -0.0076688738 0.012270106 -0.12982078 0.084628694
0.01663096 0.26665264 -0.030386923 0.19048479 -0.060569827 0.17962272 -0.12753071 -0.1462156
-0.032533135 0.14193234 0.03069384 0.22760418 0.11429227 -0.08666257 0.112666756 -0.09528606
-0.112024575 0.06539772 0.01257378 -0.08038961 -0.15231685 -0.12194029 -0.09523587 0.17393285
0.04870786 -0.016222978 -0.16358225 0.17795753 -0.11479837 0.13551457 0.07600733 0.048733205
-0.027487345 0.012655304 -0.25052088 -0.012272081 -0.10327315 -0.07913025 0.15647455 -0.11688669
0.09890712 -0.10545596 -0.009290483 0.12508573 -0.15093948 -0.0016449479 0.13164006 0.009082437
0.10048873 -0.073301636 -0.028240146 0.26602435 0.0844733 0.004605833 0.15496336 0.11087225
-0.29960334 0.013608972 0.02343309 -0.0419702 -0.2220255 0.23371898 -0.054570362 0.16984583
0.019583471 -0.001388301 -0.31146902 -0.13337435 -0.012755105 0.058843125 -0.08551149 -0.29557803
0.06042335 -0.033054195 -0.12656072 -0.12146097 -0.16122268 0.04509608 0.08839361 0.13087788
0.21575047 -0.048815202 -0.19763362 -0.08744036 0.23464006 0.075530425 -0.1434054 -0.07583522
0.27628598 -0.19073077 -0.15239395 0.12983143 0.09113316 0.1525381 -0.22739525 0.053000696
0.20783901 0.13655446 0.16430819 -0.06305432 -0.11060346 -0.02099109 0.2627425 -0.13614401
0.075960584 0.09815641 0.20346239 0.0780709 -0.021627882 -0.09646479 0.14624658 -0.15384896
-0.037879907 -0.037405413 0.20728855 0.1617372 -0.025325986 -0.040906314 0.1811492 -0.13245437
-0.15591504 -0.011083438 -0.24765947 -0.11224884 -0.10886961 0.49363202 -0.24069713 0.054681815
-0.015912104 -0.049890548 0.23883179 0.08534632 0.20086065 -0.014550093 -0.14249806 0.061204225

rnn.bias_ih_l0 f4 [64]
00000000: 0bd4 21be ec00 f7bd 4d86 973d b321 92be
00000010: 5fef 783e c2fd a5bd 8d82 69be 7f5d 64be
00000020: d3e4 85be 0dc9 ec3d cb85 343d 4ce3 2c3e
00000030: 6cb7 20be e8b8 fe3d 7664 943e b1ef a43c
00000040: 38fb 093e d858 7f3e d2f9 4b3d 64c9 b8be
00000050: 818c 163e 4bb7 5c3e f67e ffbd b9b2 0ebe
00000060: 91f1 d6bd 6bbd 95be 4b5b dc3c 5c0f b03d
00000070: a6d9 263e e21f 1cbd 3e5d a6be 54f5 9a3c
00000080: 7c90 0ebd c7d6 50be 55eb adbd 67ff abbd
00000090: a321 033d bf29 57bd 05c7 d4be 55ca cd3d
000000a0: eb09 a2bd 26b9 843d 1d17 33be 6907 643c
000000b0: 76dd 103e 96ad 6f3d 02f1 a43d f71a 66bd
000000c0: 4f57 463d baa5 0fbd d835 b53d 8d3e 4bbe
000000d0: 3293 debc f558 91be d423 a93e 9e18 443d
000000e0: c3d5 e3bb d490 373e 187c 00be d1f2 2239
000000f0: daf9 8fbd c9ec 9bbd b56f dc3d f9ee 09bd
-0.15803544 -0.12060723 0.07398663 -0.28541335 0.24310063 -0.08105041 -0.22803707 -0.22301291
-0.26151142 0.11561785 0.044072907 0.16883582 -0.1569497 0.12437612 0.28982896 0.020133825
0.13474739 0.24936235 0.049798794 -0.3609115 0.14702035 0.21554296 -0.12475388 -0.13935365
-0.10495294 -0.29246077 0.026899 0.085966796 0.16293964 -0.038116343 -0.32493013 0.01891581
-0.03480576 -0.20394431 -0.08492152 -0.083983235 0.0320145 -0.052530047 -0.4155809 0.100483574
-0.07912048 0.06480627 -0.17489286 0.013917782 0.1414698 0.058515154 0.08053781 -0.05617806
0.048423108 -0.03507016 0.088481605 -0.1984808 -0.027169798 -0.2838818 0.33035147 0.04787504
-0.0069529726 0.17926341 -0.12547338 0.0001553998 -0.07030077 -0.076135226 0.10763494 -0.033675168

rnn.bias_hh_l0 f4 [64]
00000000: fb20 03be 86a2 6abd 71c2 083d d57a 9ebe
00000010: 99c3 7f3e 9ca9 c5bd b4a9 89be 142a 51be
00000020: f096 8cbe 0199 ff3d b2d8 47bd 00c3 f43d
00000030: c88e 92bd 9de6 0d3a 5b7e 823e 9603 8dbd
00000040: dee3 14bc 241f 503e 1734 d83d f760 80be
00000050: e896 6e3d 7812 8f3e 0ee6 93bd b1e1 fdbd
00000060: ddf2 893d cb65 71be d8b1 b53d 668d 363d
00000070: 5d53 883d 6502 023d f1a8 37be a721 de3d
00000080: d4fd af3c 600d 36be 1a03 19bd 4a31 a8bd
00000090: 3fdd 80bd dcef 6a3d ec4b c2be fa68 f3bc
000000a0: 8274 ad3d 8528 ab3d 530d 85be c987 df3c
000000b0: ab42 133e 381a 9fbd 3930 8b3d e22c 273d
000000c0: 89ac f8bd 4b19 acbd c0cf 353e 2945 53be
000000d0: c282 ce3d dee0 85be 073e 443e 6ef2 f4bc
000000e0: 7c3a cf3d 2648 673e f613 c6bd 357e 35bd
000000f0: e890 aa3d 368c dbbd 333b 22bb d349 0c3e
-0.1280555 -0.0572839 0.03338856 -0.30953088 0.24976958 -0.09651491 -0.26887286 -0.20426208
-0.27458906 0.12480355 -0.04879064 0.11951256 -0.071561396 0.0005413087 0.25487027 -0.068854496
-0.009087531 0.20324379 0.1055681 -0.25073978 0.058249384 0.27943778 -0.07221614 -0.12396563
0.067357756 -0.23573987 0.08871812 0.04456844 0.06656525 0.031740565 -0.1793554 0.108462624
0.02148334 -0.1777854 -0.037356474 -0.08212526 -0.06292199 0.057357654 -0.3794855 -0.029713143
0.08469488 0.08357338 -0.25986728 0.027286427 0.143809 -0.07768673 0.06796307 0.040814288
-0.121422835 -0.08403262 0.17755032 -0.20631851 0.10083534 -0.26148123 0.19164287 -0.029900756
0.10118577 0.22586116 -0.09671776 -0.044309814 0.0832842 -0.107201025 -0.0024754524 0.13700037

fc.weight f4 [27, 64]
00000000: fe27 883e 71d7 983e bde0 32bf 7fca ad3e
00000010: dff4 09bf 9ab7 983e aa72 543f 7577 823f
00000020: 33b8 f43d c42e ac3d 7f0f 0ebe 9d17 b7be
00000030: 1e0b 113f eac6 19be 6cb4 37bf bc04 b53d
00000040: 1ec1 2a3e 8d08 843e 4a6c 793e 29de 233f
00000050: 34cd 5d3f 53b6 26bf f552 ec3d 998e cbbd
00000060: c2f0 efbc 2b01 cbbe d026 16be e73a 4ebe
00000070: 2ace 243e f1d0 e13e c767 2a3d 5f61 f8bd
00000080: 40cb bc3e 5c6d 9d3d 6aa0 43be 4e08 2f3d
00000090: 6ac6 ec3d 91b3 433d 69de 46bd 3475 71be
000000a0: e0a5 5dbe 1481 c4bd 465e b33e c360 073f
000000b0: 806c 903e bca6 573d daef 0a3e 54e8 d0be
000000c0: 9e51 8e3e d5ce 9bbd 2baa e9bc cc91 4a3f
000000d0: 4f9a f8bd a8d1 583f 7273 18bf e5b7 c63c
000000e0: bd7f a2be 70a9 863c 5213 923d 01bd 5bbd
000000f0: 438b e0bd 156b ff3c b60e 903d d8fd d93d
00000100: d506 82be 335f 97bd 9117 b83e 2f47 463e
00000110: f932 5b3e eeab 00bb 2353 aebd ce3f 533b
00000120: 40e0 283e 6b9d c5bc 047b 853e 10d8 fdbe
00000130: 636a 693d 7804 04bf 2903 cfbe 7824 333e
00000140: 8e81 f63d 9add 1f3e 6dcc edbd bcdb 1f3e
00000150: 5ca8 103e f7e5 a23e 34bf 513d 69ba dabe
00000160: 49f9 883e f79d f43e c504 3b3e 9f14 d83d
00000170: 93b1 f7bd acf1 0ebe 0368 48bf 7d1f 8f3e
00000180: a5ac 21bd c0f9 4c3e d59e efbd 6b2b 403e
00000190: 3702 6bbc b73a 27bd 9c03 0ebf e58e 593e
000001a0: 4f1e c9bc 9296 64be fd4e 7dbe bc6b 47be
000001b0: 1922 13be 914d b73e 97f2 cf3e ca7c c03e
000001c0: f115 d9bc 98a0 c5bc 9c54 b8bd 8eab 5ebd
000001d0: 822c bf3d 27f1 afbc 19ef d73e 7bd0 35be
000001e0: 3c18 0c3f d3fd 9bbe a375 aabd 45b0 313e
000001f0: db9d 37be 66c8 89be 67b4 c43e 15c6 87be
00000200: 52d4 a8bd f9f3 4c3e cd9d 2dbe b57f 3abd
00000210: 7822 64be 4724 5abe 2992 f83d 0ac4 19be
00000220: 48c6 eb3e be1c da3c c0bd ca3e 3c3b 153e
00000230: 4a00 cdbd e4ef c0be ac03 85be 19e7 af3e
00000240: 5626 78be 9cd3 e03c 0f33 5abd 835c ae3c
00000250: 20b4 963c aaa5 8dbe 5f6f d83e ee03 6fbe
00000260: 809d aebe 7484 b23e d279 7bbd 7703 ecbe
00000270: 153d 2bbd 534b 63be a738 0c3e 1eab 6c3d
00000280: 583b 65be ca91 143e 5847 053f a8ce 213d
00000290: e1bd 72bd 05c8 89be e14a e2bd 2b19 4b3e
000002a0: 6409 b3be e583 ffbc 8677 aa3e 5d71 1e3d
000002b0: 1cb4 21be edcd 2fbe bd17 a3bd 4aa0 133d
000002c0: 4754 20be e94c 11be ea0a 8d3e 0d9c d83d
000002d0: 3572 8cbe d76e 123d 72a7 bcbe 6ec4 a73e
000002e0: f54b 0c3e 2874 44bc 1e7e fdbd de37 be3d
000002f0: 5259 1fbe 46c3 143e 2989 99be 5214 b6be
00000300: 4a5c 9e3e c273 5a3e 7d88 bf3d d12b d3bd
00000310: 1fa7 dabd 9a4d 033e e1c7 1fbc be94 d73e
00000320: 5837 cc3e 26b8 323c f6e4 453d 910b b93e
00000330: 370d 82bc 84ac 59bd 12c9 afbd e017 a13d
00000340: 7c34 67be 8201 3fbe b20e 943e 67cb 0ebd
00000350: 7c7b a7bd 90dd 043e 0f48 1f3d 65c1 da3d
00000360: 00b4 36be 665a ff3e dab2 09be 3dd2 a1be
00000370: 02aa d43d b502 87be 3a00 023e f0eb fb3c
00000380: 1a7b 623e f6a7 873d e309 e13e a220 a33e
00000390: 7a4e 903e 63a3 6ebe ca7b 9bbd 153d 76bd
000003a0: e6f8 7c3e 6ead adbe e604 ab3d 4bf9 55be
000003b0: 48c6 393e 6fcb 7fbe dfaa 403d c2cd 4dbd
000003c0: 59fa 60be d473 30be 64f7 363e af24 6abd
000003d0: 97ec 99be 078e da3d 9219 e6be b278 9b3e
000003e0: a47f 39bd 7245 a13d 8562 313d 198d 623d
000003f0: dd7f 73be 0e24 643e 3923 80bd 6f78 d93d
0.26593012 0.2985187 -0.69874173 0.33943555 -0.5388927 0.29827577 0.82987463 1.0192705
0.11949196 0.08407357 -0.13873099 -0.35760203 0.5665759 -0.15017286 -0.71759677 0.08838794
0.16675231 0.25787774 0.24357715 0.64010864 0.8664124 -0.65121955 0.1153926 -0.09939308
-0.029289607 -0.3964933 -0.14663243 -0.20139657 0.1609427 0.44104722 0.041602876 -0.12127947
0.36873817 0.07686874 -0.19104162 0.04273253 0.11561282 0.04777867 -0.04855195 -0.23579866
-0.21645308 -0.09594932 0.35032862 0.5288202 0.2820778 0.052649245 0.13568059 -0.40802252
0.27796644 -0.076078095 -0.028523525 0.7912872 -0.12138807 0.8469491 -0.59551156 0.02425761
-0.31738082 0.016438216 0.07132591 -0.053647045 -0.10964062 0.03117899 0.07034056 0.1064412
-0.25395837 -0.07391205 0.3595548 0.19363092 0.21406163 -0.0019633728 -0.08511951 0.0032234075
0.16491795 -0.024122914 0.26070416 -0.49578905 0.056986224 -0.5156932 -0.40432099 0.1749438
0.12036429 0.15611878 -0.11611257 0.15611166 0.14126724 0.31816074 0.051207736 -0.42720345
0.2675269 0.47776768 0.18263538 0.10550808 -0.120944165 -0.13959378 -0.7828371 0.2795371
-0.039471287 0.20017147 -0.11700217 0.18766563 -0.01434379 -0.04082748 -0.5547426 0.21245916
-0.024550585 -0.22323063 -0.24737163 -0.19474691 -0.14368476 0.35801366 0.4061477 0.37595206
-0.02649972 -0.024124429 -0.09000513 -0.054362826 0.09334661 -0.021477295 0.42174605 -0.1775531
0.5472448 -0.3046709 -0.08323219 0.17352398 -0.17931311 -0.26910704 0.38418886 -0.26518312
-0.08243622 0.20014943 -0.16954727 -0.045531947 -0.22278774 -0.21302901 0.12137253 -0.15016189
0.46049714 0.026625033 0.39597893 0.14573377 -0.10009821 -0.37683022 -0.25979364 0.34356
-0.24233374 0.027444653 -0.05327135 0.021284347 0.018396437 -0.27665454 0.4227247 -0.23341343
-0.34104538 0.3486668 -0.061395474 -0.46096393 -0.0418063 -0.22196703 0.13693486 0.057780378
-0.22385919 0.14508739 0.52061987 0.039503723 -0.059263114 -0.26910415 -0.11049438 0.1983382
-0.34968102 -0.031190822 0.33294314 0.03868233 -0.15791363 -0.17168398 -0.07963512 0.036041535
-0.1565715 -0.14189495 0.2754739 0.10576639 -0.27430883 0.035750236 -0.368465 0.3276705
0.1370085 -0.011990584 -0.123775706 0.092879996 -0.15561417 0.14527616 -0.29987457 -0.35562378
0.30929786 0.2133322 0.09352205 -0.10311092 -0.10676407 0.12822571 -0.009752245 0.4210567
0.39885974 0.010908162 0.048314057 0.36141637 -0.015875442 -0.05314304 -0.08583273 0.07865882
-0.22578615 -0.18652919 0.28917462 -0.03486195 -0.0817785 0.12975144 0.03888708 0.10681418
-0.17842102 0.49873656 -0.13447133 -0.31605712 0.10383989 -0.26369253 0.12695399 0.030752152
0.22117272 0.06623833 0.43952855 0.31860834 0.28184873 -0.23304515 -0.0759197 -0.060116846
0.24704322 -0.3392138 0.08350544 -0.20895879 0.18142045 -0.24979948 0.047037955 -0.050245054
-0.219705 -0.17231685 0.1786781 -0.05716389 -0.30063316 0.10671621 -0.44941384 0.3036552
-0.045287743 0.07874574 0.043306846 0.055310342 -0.23779245 0.22279379 -0.06256718 0.10618674

fc.bias f4 [27]
00000000: 90e0 01be cdda 07be 5bcf 7dbe 045f 94bd
00000010: 8452 76be 75cd ef3c 410d b2be 308d 1abe
00000020: 37e9 a0bd f09e b13b 8259 bbbe 527e 82be
00000030: f97e 28bd 6426 49be 89e0 01be 182b f7bd
00000040: aa7c 34be da69 56be d3a0 bfbd be38 d5bd
00000050: 8400 05be 7d61 503d adf5 90be 40c3 1dbe
00000060: ca96 02be 94da 28be f552 78be
-0.1268332 -0.1326706 -0.24786131 -0.07244685 -0.24054915 0.029272774 -0.34775737 -0.15092921
-0.07856982 0.005420558 -0.36591727 -0.25487 -0.041136716 -0.19643551 -0.1268331 -0.12068766
-0.1762568 -0.20938817 -0.09356847 -0.10411213 -0.12988478 0.050874222 -0.28312436 -0.15406513
-0.12752834 -0.16489631 -0.24250396
