char_rnns/models/Dino_Names_GRU.pth (torch_old, 79434 bytes, 6 tensors)

gru.weight_ih_l0 f4 [192, 27]
0	0xbdb463b7	-0.088080816
1	0x3e4af92f	0.19821618
2	0xbe2dfa67	-0.16990052
3	0xbf50c191	-0.8154536
4	0xbfecb3ea	-1.8492405
5	0xbf125af5	-0.5717004
6	0xbe914a7b	-0.28377137
7	0xbe5d4c37	-0.21611105
8	0xbec33c9a	-0.38132173
9	0x3f5cc379	0.8623577
10	0xbdbd2692	-0.09235872
11	0xbf513673	-0.8172371
12	0xbf02ce97	-0.5109648
13	0x3f368427	0.712954
14	0x3f2b4247	0.66898006
15	0x3f025d05	0.50923187
16	0xbf8832e7	-1.0640534
17	0xbeaebf83	-0.34130487
18	0x3f3cca71	0.737464
19	0x3ff01f9c	1.8759646
20	0x3ec5a77e	0.3860435
21	0x3f3df402	0.7420045
22	0xbf09e667	-0.5386719
23	0xbb7b9951	-0.0038390944
24	0x3dc2ecb0	0.09517801
25	0xbf247331	-0.6423827
26	0x3e2e93ed	0.17048617
27	0x3d8594ef	0.065225475
28	0xbce923e9	-0.028459506
29	0x3e428183	0.18994717
30	0xbef8638a	-0.48513442
31	0xbe5b99c6	-0.21445379
32	0x3e3ab3f1	0.18232705
33	0xbeaab75f	-0.33343026
34	0xbf8659dc	-1.0496173
35	0x3ec4095b	0.38288388
36	0x3e4229bc	0.18961233
37	0xbea57ee8	-0.32323384
38	0x3ef26c41	0.47348216
39	0xbf9b6a4d	-1.2141815
40	0xbf17f5d4	-0.5935948
41	0xbd0baad9	-0.03409848
42	0xbf26ff17	-0.65232986
43	0x3f133c31	0.5751372
44	0xbe6b7a12	-0.22995785
45	0xbe5af530	-0.21382594
46	0x3fe1e341	1.7647477
47	0xbed92e58	-0.4241817
48	0x3fc72c0b	1.5560316
49	0xbcfec6eb	-0.03110071
50	0x3e504975	0.20340522
51	0x3ee63043	0.44958696
52	0x3eab65f4	0.33476222
53	0x3e8feceb	0.28110442
54	0xbd64c4cf	-0.055851754
55	0x3ea09ed8	0.31371188
56	0xbf4c6356	-0.79839075
57	0xbf19cfa0	-0.60082436
58	0xbf157831	-0.5838652
59	0xbe09aa17	-0.1344379
60	0xbeca4689	-0.3950694
61	0x3da57f24	0.08080891
62	0x3e995fe6	0.29955977
63	0x3e36a017	0.17834507
64	0xbed29486	-0.4112894
65	0xbe133618	-0.14376104
66	0xbd8fd26e	-0.07022558
67	0xbed57cc7	-0.4169676
68	0xbe20c4fd	-0.15700145
69	0x3e4cc68f	0.19997619
70	0x3f2dfb88	0.6796193
71	0xbe90a84c	-0.282534
72	0x3f0330ef	0.5124654
73	0x3f9b91b6	1.2153842
74	0xbf3b82a6	-0.7324623
75	0x3f15635c	0.58354735
76	0xbe1655ce	-0.1468117
77	0x3e677c9b	0.22606127
78	0xbd9edbf8	-0.077567995
79	0x3ef72bb9	0.48275545
80	0xbecc27f0	-0.3987422
81	0xbccdfb90	-0.025144368
82	0xbe17d36b	-0.14826743
83	0x3e4da552	0.20082596
84	0x3d21917a	0.039445378
85	0x3e8a048a	0.26956588
86	0x3e5c4c77	0.21513544
87	0xbeed3811	-0.46331838
88	0x3aeee7fa	0.0018227093
89	0x3e309b6f	0.17246793
90	0x3ec11411	0.37710622
91	0x3e57f6a7	0.21090184
92	0xbebe4b41	-0.3716679
93	0xbdc5ca00	-0.09657669
94	0x3e1812c9	0.14850916
95	0xbd48a2f9	-0.048983548
96	0xbf1d9051	-0.61548334
97	0x3e0c672f	0.13711236
98	0x3ed8ecc1	0.4236813
99	0x3e2dd162	0.16974404
100	0x3a81c102	0.000989944
101	0x3ebf7096	0.37390584
102	0x3d3580cf	0.044312295
103	0x3f077272	0.52909005
104	0x3e29d48a	0.16584983
105	0x3efacdf4	0.48985255
106	0x3f7b517a	0.981712
107	0x3ed87769	0.42278603
108	0xba6861a1	-0.00088646455
109	0xbf1b2456	-0.6060232
110	0x3e43eb72	0.19132784
111	0x3df66e28	0.120327294
112	0x3f46195c	0.77382445
113	0x3f94c8db	1.1623796
114	0xbe733d5b	-0.23753874
115	0xbf923f1b	-1.1425508
116	0x3e04b1c8	0.12958443
117	0x3f2f361b	0.68441933
118	0xbea3d96b	-0.32001814
119	0x3be2de44	0.006923469
120	0xbf1a4f41	-0.6027718
121	0xbefae75c	-0.49004638
122	0xbe72d1d8	-0.23712862
123	0xbf5c10c1	-0.85963064
124	0x3ed1650c	0.40897405
125	0xbeaf736e	-0.34267753
126	0x3e3cb475	0.18428214
127	0x3fcc218f	1.5947741
128	0x3f4b8038	0.7949252
129	0x3eb2e475	0.34939924
130	0x3f296e6b	0.6618411
131	0x3d767997	0.06017455
132	0x3e737d24	0.23778206
133	0xbecdada0	-0.40171528
134	0xbe5ebcfb	-0.21751778
135	0xbcfe4393	-0.031038081
136	0x3f80752c	1.0035758
137	0xbf172887	-0.59046215
138	0xbee0407c	-0.43799198
139	0xbe399d33	-0.18126373
140	0x3eb1c683	0.34721765
141	0xbefa9a45	-0.48945823
142	0xbe6661fa	-0.22498313
143	0xbf2c60a9	-0.6733499
144	0x3daefb55	0.085440315
145	0xbe53e55b	-0.20692961
146	0xbe4b1abc	-0.19834417
147	0xbeb4a5b7	-0.3528268
148	0xbf6a36e9	-0.91490036
149	0xbf9b845d	-1.2149769
150	0x3f3e4c13	0.7433483
151	0xbf0f3e6b	-0.5595462
152	0x3be79d3c	0.0070683043
153	0xbf8045cc	-1.00213
154	0xbfa2b2c2	-1.2710803
155	0xbe11d366	-0.14240798
156	0x3f3f61ee	0.74758804
157	0xbecfa65a	-0.40556604
158	0xbdde27d7	-0.108474426
159	0x3d0eb126	0.03483691
160	0x3fd1d371	1.6392652
161	0xbde54ee4	-0.11196688
162	0x3c80e7ce	0.015735533
163	0x3eb21ec7	0.34789106
164	0xbda53b9e	-0.08068012
165	0x3e1734e7	0.14766274
166	0x3f592df9	0.84835774
167	0xbf934a45	-1.150704
168	0xbd655e68	-0.055998236
169	0xbdffe0e4	-0.12494066
170	0x3e397829	0.18112244
171	0x3e1c1d39	0.15245523
172	0x3f442ca5	0.7663062
173	0xbd5bdf1f	-0.05367958
174	0x3c4d60b8	0.012535267
175	0x3f0a5a6f	0.5404424
176	0x3e9f7462	0.3114348
177	0xbf67a712	-0.90489304
178	0xbe8d8976	-0.27643937
179	0xbedda496	-0.43289632
180	0x3ef7eae5	0.48421398
181	0x3f929aea	1.1453526
182	0x3fac46aa	1.3459065
183	0xbf77db5d	-0.96819097
184	0xbe71bacb	-0.23606412
185	0x3e0b18a3	0.13583617
186	0x3eca3b53	0.39498386
187	0xbf531ef3	-0.824691
188	0xbe576a30	-0.21036601
189	0xbb10897f	-0.002205461
190	0x3ecf83ef	0.40530345
191	0x3dd87c1e	0.105705485
192	0xbe87c500	-0.26517487
193	0xbf3e1c85	-0.7426227
194	0x3f673644	0.9031718
195	0x3de02a19	0.109455295
196	0x3f392264	0.723181
197	0xbf25575f	-0.6458644
198	0xbf8126bf	-1.0089949
199	0xbde62977	-0.112383775
200	0x3eeef204	0.46669018
201	0xbf6992b0	-0.9123945
202	0xbe93389c	-0.28754127
203	0x3ea452b5	0.3209435
204	0x3f019814	0.5062268
205	0xbdbb787e	-0.091538414
206	0xbde0d4b3	-0.10978069
207	0xbe46217c	-0.19348711
208	0xbf182bf3	-0.5944206
209	0x3e58b5ef	0.21163152
210	0xbebcc613	-0.3686987
211	0xbf798538	-0.974689
212	0x3b15abbf	0.0022837964
213	0xbd8870af	-0.06662118
214	0x3fc324c4	1.5245595
215	0x3e7f7002	0.24945071
216	0xbd60f1d1	-0.054918114
217	0x3e308f22	0.17242101
218	0x3eb32589	0.34989575
219	0xbe94b226	-0.29042166
220	0x3ebfb062	0.37439257
221	0xbf087c92	-0.5331508
222	0x3eff8d4f	0.49912497
223	0x3e559c3b	0.20860378
224	0x3eb3a958	0.35090137
225	0xbefc0943	-0.49225816
226	0x3f026b46	0.50944936
227	0x3e8a2139	0.26978472
228	0xbeb1e8c9	-0.34747913
229	0xbec13189	-0.37733105
230	0x3e33b15c	0.17548126
231	0x3e92b9cf	0.28657386
232	0x3ece8192	0.4033323
233	0x3f176e26	0.5915245
234	0x3eebcc62	0.4605437
235	0xbf6186c1	-0.88096243
236	0x3f54b646	0.8309063
237	0xbe267344	-0.16254908
238	0x3e10e94d	0.14151497
239	0x3f01a2bc	0.5063894
240	0x3f8026c8	1.0011835
241	0x3eda7bdc	0.42672622
242	0xbe24536b	-0.16047446
243	0x3da9834c	0.08276996
244	0xbd24022e	-0.04004114
245	0xbd317245	-0.043321867
246	0x3e27bbb5	0.16380198
247	0xbec6e885	-0.38849273
248	0x3ed46ef3	0.41490898
249	0x3e6630af	0.22479509
250	0xbe1e1596	-0.15437922
251	0xbd6e4a9e	-0.05817663
252	0x3e890aa9	0.26765946
253	0xbd8322de	-0.06403135
254	0x3e80b728	0.25139737
255	0x3f160b93	0.5861141

gru.weight_hh_l0 f4 [192, 64]
0	0x3e4a525e	0.19757983
1	0x3ef71487	0.4825785
2	0x3d85aa09	0.06526572
3	0x3e128508	0.1430856
4	0xbd770103	-0.0603037
5	0x3dca9a67	0.09892731
6	0x3e4e5c28	0.20152342
7	0x3ce87009	0.028373735
8	0xbe1fe467	-0.15614472
9	0xbb8e1c3c	-0.004336862
10	0x3d7f4979	0.06232593
11	0xbe55c907	-0.20877467
12	0x3ec92b33	0.3929077
13	0xbe93e809	-0.28887966
14	0xbeb0d980	-0.3454094
15	0xbd040c01	-0.03223801
16	0xbd17b5c0	-0.037038565
17	0xbdc03f71	-0.093871005
18	0x3e2a76e4	0.16646916
19	0x3c9c94a6	0.01911385
20	0x3dbfe685	0.0937014
21	0xbe9479ec	-0.2899927
22	0x3ce0ed2c	0.027456842
23	0x3db0f442	0.086403385
24	0x3e4f5e68	0.20250857
25	0x3c412cd3	0.011790472
26	0x3eb156b4	0.34636462
27	0xbc939588	-0.018015638
28	0xbe822982	-0.25422293
29	0xbe7af981	-0.2450924
30	0x3e4d008d	0.20019741
31	0x3ea8c7d4	0.32964957
32	0xbc73cbe9	-0.014880159
33	0xbef07d6a	-0.46970683
34	0xbdb10685	-0.086438216
35	0xbe132f9e	-0.14373633
36	0x3ea12acf	0.31477973
37	0xbcc47d21	-0.023985447
38	0xbe9c6863	-0.3054839
39	0x3e4158a3	0.18881468
40	0x3d522270	0.051302373
41	0xbd72e0c3	-0.05929638
42	0xbe397f39	-0.18114938
43	0xbead9e9d	-0.33910075
44	0x3e7c7dec	0.2465741
45	0xbb50bc98	-0.0031850692
46	0x3c504d90	0.012713805
47	0xbe87db64	-0.2653457
48	0xbd838b66	-0.064230725
49	0xbe3013ed	-0.17195101
50	0xbeb469fe	-0.35237116
51	0x3e38b673	0.18038349
52	0x3d4838c9	0.04888228
53	0x3dfde503	0.12397196
54	0x3d1c52a2	0.038164742
55	0xbb9e12a0	-0.0048239976
56	0x3c3905f3	0.011292922
57	0x3d11e630	0.035619915
58	0x3dcc2b52	0.099692
59	0x3de9b096	0.11410634
60	0xbf09e426	-0.5386375
61	0xbe34253d	-0.1759233
62	0xbda4771a	-0.08030529
63	0x3cb5375c	0.022121124
64	0xbed6c187	-0.41944525
65	0xbd75a25a	-0.059969284
66	0x3e26c989	0.16287817
67	0xbe0b8684	-0.13625532
68	0x3e5f35c8	0.2179786
69	0x3dd31088	0.103058875
70	0x3eb215d7	0.34782287
71	0xbd84f36c	-0.064917415
72	0x3d25722f	0.040392097
73	0xbdd39d38	-0.103327215
74	0x3e86a20d	0.2629551
75	0xbd9b7611	-0.07590879
76	0xbd11493f	-0.035470244
77	0xbe37068d	-0.17873593
78	0xbe1966d1	-0.14980628
79	0x3d2c7a53	0.042108845
80	0x3e50f532	0.20406035
81	0x3c009921	0.007849009
82	0xbe83cc60	-0.25741863
83	0x3dfabb10	0.122427106
84	0x3cc5063b	0.024050822
85	0xbec2d60d	-0.38053933
86	0xbe7a7d65	-0.24461897
87	0x3cbc4e95	0.02298669
88	0x3e9b0814	0.302796
89	0x3f0be32b	0.54643506
90	0x3e48b1f3	0.19599132
91	0xbc029ecf	-0.007972433
92	0x3e99a7bf	0.30010793
93	0xbcb33272	-0.02187464
94	0xbee5c4e1	-0.4487677
95	0x3d31e404	0.043430343
96	0xbed2b807	-0.41156027
97	0xbebc361d	-0.36760035
98	0x3e9c547f	0.30533215
99	0x3cb04ce8	0.021521047
100	0x3da098c7	0.0784164
101	0x3d28afb7	0.0411832
102	0xbcdb8b18	-0.026799724
103	0xbd46587d	-0.048424233
104	0x3e27a514	0.16371566
105	0x3e5581d3	0.20850305
106	0xbd5c2450	-0.053745568
107	0xbd94d555	-0.07267252
108	0x3e0ead67	0.13933335
109	0x3f1a345c	0.60236144
110	0x3dfd4fde	0.12368749
111	0x3d7d4c21	0.06184018
112	0x3ec00780	0.37505722
113	0x3dadabe5	0.08480052
114	0xbd5db441	-0.05412698
115	0xbdac75ca	-0.08420904
116	0x3e3c9c1a	0.18418923
117	0xbe9e8049	-0.3095725
118	0x3b0dfda7	0.002166608
119	0xbd94738f	-0.072486036
120	0xbe3bda35	-0.18344958
121	0xbd8946ca	-0.06702955
122	0x3e276451	0.16346861
123	0xbdfff0bc	-0.12497088
124	0xbe239191	-0.15973498
125	0xbe27bcf2	-0.1638067
126	0xbbed4f85	-0.0072421455
127	0xbd9ebb44	-0.07750562
128	0x3d6a98c0	0.05727458
129	0x3e8539de	0.26020712
130	0x3e90abc6	0.28256053
131	0xbe88841c	-0.2666329
132	0xbead0c0c	-0.33798254
133	0xbdf652f8	-0.12027544
134	0x3d1c4b47	0.038157728
135	0xbea98a7b	-0.33113465
136	0xbc10360a	-0.008801946
137	0x3e04f569	0.12984242
138	0x3e1ddd49	0.15416445
139	0xbe07efdb	-0.13275091
140	0x3d58a102	0.052887924
141	0x3d1a188e	0.037621073
142	0xbe5a1524	-0.21297127
143	0x3d42da07	0.04757121
144	0xbe1c9b0d	-0.15293522
145	0x3d78f741	0.060782675
146	0x3cd197e9	0.025585132
147	0xbd7156d0	-0.05892068
148	0x3c661ccf	0.014044954
149	0xbdb905ac	-0.09034285
150	0xbde9f321	-0.11423326
151	0xbd17fadf	-0.037104484
152	0x3daa9aeb	0.083303295
153	0x3c354dff	0.011065959
154	0xbe5279b9	-0.20554246
155	0x3dbde860	0.09272838
156	0x3e6de7d4	0.23232967
157	0xbd594c1c	-0.0530511
158	0x3e0d0594	0.13771659
159	0xbd2eb1f1	-0.042650167
160	0xbd41b21e	-0.047289006
161	0x3e38b0aa	0.18036142
162	0x3e08cc39	0.13359155
163	0xbcb28beb	-0.021795234
164	0xbe6b341d	-0.22969098
165	0xbd303139	-0.043015692
166	0xbeaf5325	-0.34243122
167	0x3e2e1c8b	0.17003076
168	0xbe9dee34	-0.30845797
169	0xbe602f67	-0.21893083
170	0xbbdae576	-0.006680186
171	0x3df6e294	0.12054935
172	0x3d4a3727	0.049369004
173	0x3e46719a	0.19379273
174	0x3e24f593	0.16109304
175	0xbe28d315	-0.16486771
176	0x3dad139e	0.08451007
177	0xbdedff07	-0.11620908
178	0xbdd8434f	-0.10559713
179	0x3dd89b0e	0.10576449
180	0xbe210662	-0.15725091
181	0x3f0b092f	0.5431089
182	0x3de6dc36	0.11272471
183	0x3e329e07	0.17443095
184	0x3edc7529	0.43058136
185	0x3d9de836	0.07710306
186	0xbd4b58cd	-0.049645234
187	0xbe83525a	-0.25648767
188	0xbeacdfae	-0.33764404
189	0xbd14c282	-0.03631831
190	0x3e492f5c	0.19646972
191	0x3e5a8366	0.21339187
192	0x3e56efa0	0.20989847
193	0x3c971a04	0.018445022
194	0x3c8bb251	0.017052801
195	0xbe1bcbe9	-0.15214504
196	0x3d8995c9	0.067180224
197	0x3e427631	0.18990399
198	0xbe990ee1	-0.29894164
199	0x3f0558b3	0.5208847
200	0xbee2f650	-0.44328547
201	0x3e0431ce	0.12909624
202	0x3cea4b75	0.028600434
203	0x3ebb6466	0.36600035
204	0x3e23a1ff	0.15979765
205	0x3e2866b1	0.16445424
206	0x3dc7cdea	0.09756072
207	0x3dee563e	0.11637543
208	0x3c881ca6	0.016615223
209	0x3ddd6416	0.108101055
210	0xbcc41913	-0.023937738
211	0x3ca29f0a	0.019851226
212	0xbd394579	-0.04523227
213	0xbe646ff6	-0.22308335
214	0x3dc0a4f3	0.094064616
215	0xbd86bca9	-0.06578953
216	0xbea4c159	-0.32178763
217	0xbe721a21	-0.2364278
218	0x3d867b59	0.065664954
219	0xbe4cad0c	-0.19987887
220	0xbc181568	-0.009282447
221	0x3ebad90f	0.36493728
222	0x3df8179d	0.12113879
223	0x3d807752	0.062727585
224	0xbca8965f	-0.020579515
225	0xbd86d87a	-0.065842584
226	0x3d23a889	0.03995565
227	0xbe57c29c	-0.21070331
228	0xbe6a6290	-0.22889161
229	0x3e936f73	0.28795967
230	0xbebb28e2	-0.3655463
231	0xbd9be5f4	-0.076122195
232	0xbea8c50d	-0.32962838
233	0x3eb06d4c	0.34458387
234	0x3ed35574	0.41276133
235	0xbe861481	-0.26187518
236	0xbe5c5eb7	-0.21520506
237	0xbe48297c	-0.19547075
238	0xbec5ddd5	-0.38645807
239	0xbaeee0a0	-0.0018224902
240	0xbebd2359	-0.3694103
241	0x3ca4dd15	0.020124951
242	0x3e122f04	0.14275748
243	0xbe0ca104	-0.13733298
244	0xbebc2d6b	-0.367534
245	0x3e7c8196	0.24658808
246	0x3dc1fc3e	0.094719395
247	0xbe6f04d6	-0.23341689
248	0x3ddf3fa9	0.10900814
249	0x3eb54fb1	0.35412362
250	0x3e8ab65c	0.27092254
251	0x3c64cfa5	0.013965522
252	0x3deeb5b5	0.116557516
253	0x3d5ec1ac	0.05438392
254	0x3e9fc5cc	0.31205595
255	0xbcc43c17	-0.023954434

gru.bias_ih_l0 f4 [192]
0	0xbe1424dd	-0.14467187
1	0xbd8ef00c	-0.06979379
2	0x3e66053f	0.22462939
3	0x3e3c3cb7	0.18382536
4	0xbbd6f697	-0.0065601575
5	0x3c394a1a	0.011309171
6	0x3cb77604	0.022395141
7	0xbdce2589	-0.10065753
8	0x3e3ed080	0.18634224
9	0xbd2fa6c3	-0.042883646
10	0xbbd749d8	-0.006570082
11	0x3e1063d7	0.14100586
12	0x3e197a20	0.14987993
13	0x3e052f93	0.1300643
14	0x3e19d9c9	0.15024485
15	0x3dedd15e	0.11612199
16	0x3df62aaf	0.1201986
17	0x3d4dcf5d	0.050246585
18	0xbe0ecb8e	-0.13944837
19	0x3d77d367	0.060504343
20	0xbe31c206	-0.1735917
21	0xbe3775c7	-0.17916022
22	0x3d6c308b	0.05766348
23	0x3ca6ffc5	0.020385632
24	0xbe0134b4	-0.12617761
25	0x3e34febf	0.17675303
26	0xbe104c74	-0.14091665
27	0xbcc7fcd4	-0.02441255
28	0x3e0eccb3	0.13945274
29	0x3d68ca79	0.056833718
30	0x3dfe72f4	0.12424269
31	0x3e7b62fb	0.24549477
32	0x3e1122c8	0.14173424
33	0xbd99f3de	-0.07517217
34	0xbd1932d8	-0.037402004
35	0x3e0c9a17	0.13730656
36	0x3e255fad	0.16149779
37	0x3d9e4d36	0.077295706
38	0x3bc8b126	0.0061246334
39	0x3cd50bdb	0.02600663
40	0x3e939f4b	0.28832468
41	0x3d472b06	0.048625015
42	0x3d0ae824	0.033912793
43	0x3d131974	0.035912946
44	0x3c1401ae	0.009033604
45	0xbd87a775	-0.06623737
46	0x3cfef59e	0.031122979
47	0x3b8070e4	0.0039197076
48	0xbdbd527f	-0.092442505
49	0x3bbfe522	0.005856172
50	0x3d5909cb	0.052987855
51	0x3e045d81	0.12926294
52	0x3d5b5a21	0.05355275
53	0x3e0b3581	0.13594629
54	0x3d36a254	0.044588402
55	0x3e52b16d	0.20575495
56	0x3c4758df	0.012167185
57	0x3c149cf2	0.009070622
58	0x3d3857d8	0.04500565
59	0x3ccd5ddd	0.025069172
60	0x3e3781ea	0.17920652
61	0x3da128b3	0.07869091
62	0xbe1e979a	-0.15487519
63	0xbd5241b6	-0.051332198
64	0x3e9a53da	0.301421
65	0x3dd69a88	0.10478693
66	0xbf0ff2a7	-0.56229633
67	0xbd0e6870	-0.034767568
68	0xbf5738aa	-0.8407084
69	0xbf3b8c89	-0.73261315
70	0xbea23bc5	-0.31686226
71	0xbe069e49	-0.13146318
72	0xbedf9e26	-0.43675345
73	0xbd87d496	-0.066323444
74	0xbe50c4e9	-0.20387615
75	0xbe439b1e	-0.19102141
76	0xbee8ed41	-0.4549351
77	0xbe909704	-0.28240216
78	0xbe034c5c	-0.12822098
79	0xbdcd10fb	-0.100130044
80	0xbe70ab0b	-0.23502748
81	0xbf38e0bf	-0.72217935
82	0x3e590db8	0.2119664
83	0x3db14e09	0.08657462
84	0x3e15cc36	0.14628682
85	0xbe235b49	-0.15952791
86	0xbcaea801	-0.021320345
87	0xbe9973ed	-0.29971257
88	0xbead12f7	-0.33803532
89	0xbe6014d4	-0.21882945
90	0xbe26c335	-0.16285403
91	0x3d8ff067	0.07028275
92	0xbd82a5bb	-0.06379267
93	0xbe22794a	-0.1586658
94	0xbe9019aa	-0.2814458
95	0xbf22550b	-0.63411015
96	0xbede752c	-0.4344877
97	0xbee5e1d4	-0.44898856
98	0x3d590544	0.052983537
99	0xbdbaf15c	-0.09128067
100	0xbef1c298	-0.47218776
101	0xbe2b153c	-0.16707319
102	0x3c39ed25	0.011348044
103	0xbeb7bcf4	-0.35886347
104	0x3ada6589	0.001666234
105	0xbe4345f4	-0.19069654
106	0x3e03a155	0.12854512
107	0xbca8daa7	-0.020612074
108	0x3dad6a8a	0.08467586
109	0x3e0f3e24	0.13988549
110	0xbeff5167	-0.49866793
111	0xbd124018	-0.035705656
112	0xbe9f9259	-0.31166342
113	0x3d195cf8	0.037442178
114	0xbee1b0e0	-0.44080257
115	0xbf0f8b99	-0.56072384
116	0x3e4b388f	0.19845794
117	0xbef1f5b8	-0.4725778
118	0xbc9347a9	-0.017978506
119	0xbf894f06	-1.0727241
120	0xbe38f692	-0.18062809
121	0xbed27310	-0.4110341
122	0xbe92c642	-0.28666884
123	0xbe2e0480	-0.16993904
124	0xbdf4fa1c	-0.11961767
125	0xbe9b47d0	-0.30328226
126	0xbf3f2ebe	-0.746807
127	0xbecb041a	-0.39651567
128	0x3da4b4d1	0.080423005
129	0x3d3c587f	0.045982834
130	0x3e05b11b	0.13055842
131	0xbd9d0c61	-0.07668377
132	0xbcf6a639	-0.030108558
133	0xbec96335	-0.393335
134	0xbe8686f6	-0.26274842
135	0x3d97da62	0.074147
136	0xbe691260	-0.22760916
137	0x3d58ea24	0.05295767
138	0x3d56673e	0.052344553
139	0x3ca2df21	0.019881787
140	0x3e8d7d95	0.27634874
141	0x3c549972	0.012976037
142	0x3cf53fe6	0.029937696
143	0x3d205d7a	0.039151646
144	0xbe8fe1fe	-0.28102106
145	0xbe8ce284	-0.27516568
146	0xbdbde09e	-0.09271358
147	0x3cb9830b	0.022645494
148	0xbddeeb8f	-0.10884773
149	0xbdd22311	-0.10260595
150	0x3d29cd6b	0.041455667
151	0xbc5765a4	-0.013146792
152	0x3e92a8c7	0.28644392
153	0xbe06cbd2	-0.13163689
154	0xbdbc45ce	-0.09193002
155	0xbdd1564c	-0.10221538
156	0x3e86b5d1	0.2631059
157	0xbd0e19be	-0.03469252
158	0xbcfdb0da	-0.030968118
159	0x3dac663c	0.08417937
160	0xbe40cd9e	-0.18828437
161	0xbe51defa	-0.20495215
162	0xbe9842f1	-0.29738572
163	0xbe19fa2f	-0.15036844
164	0xbb8ef761	-0.004362986
165	0x3a274738	0.0006381157
166	0xbec066d9	-0.37578467
167	0x3e16cbb0	0.14726138
168	0xbdc44e72	-0.09585275
169	0x3ccc7558	0.024958298
170	0x3d12ca3e	0.035837404
171	0x3d93530e	0.07193576
172	0xbce76162	-0.028244678
173	0xbcd73364	-0.026269622
174	0x3d6c01bc	0.05761884
175	0xbd8b8e6e	-0.06814276
176	0xbe14b014	-0.14520293
177	0xbc37d724	-0.011220727
178	0xbdd69255	-0.10477129
179	0x3e67da4c	0.22641867
180	0xbe88945a	-0.26675683
181	0x3ea77637	0.32707378
182	0xbd12eb70	-0.035869062
183	0xbdc720f2	-0.09723081
184	0x3e823da9	0.25437668
185	0xbc2f5b36	-0.010702899
186	0x3e08c9dc	0.13358253
187	0xbdf26722	-0.11836077
188	0xbe44b9e6	-0.1921154
189	0x3ca1faeb	0.019772967
190	0xbdd2b747	-0.10288864
191	0xbe6f1e5f	-0.2335143

gru.bias_hh_l0 f4 [192]
0	0xbd745190	-0.059648097
1	0xbd81dd81	-0.06341077
2	0x3e13acc1	0.14421369
3	0x3e04f981	0.12985803
4	0xbd35aa0e	-0.04435163
5	0xbddcef2a	-0.107878044
6	0xbd91e6b9	-0.07124085
7	0xbd65a5f4	-0.05606647
8	0x3e31d0ae	0.17364761
9	0x3d540740	0.051764727
10	0xbe3e2ada	-0.18571034
11	0x3e1d8971	0.15384461
12	0x3e1966b1	0.1498058
13	0x3e12869c	0.14309162
14	0x3d8cb407	0.06870275
15	0x3d684b20	0.05671227
16	0x3babad76	0.005239184
17	0x3e59d9a9	0.21274437
18	0xbe0ca564	-0.13734967
19	0x3daa2af6	0.083089754
20	0xbd70cb9d	-0.05878793
21	0xbde792c9	-0.11307294
22	0x3d9ad8e7	0.07560902
23	0x3d5f6ec6	0.054549
24	0xbdc3a764	-0.095534116
25	0x3d251131	0.040299598
26	0xbd75eef1	-0.060042325
27	0x3cd7b866	0.026333045
28	0x3d94cd94	0.072657734
29	0x3e3ac3ed	0.18238802
30	0x3d00b411	0.031421725
31	0x3df15bc1	0.11785079
32	0x3dc4a805	0.0960236
33	0xbd71ac24	-0.059002057
34	0xbd499cca	-0.04922179
35	0x3da8d24a	0.082432345
36	0x3dfac803	0.122451805
37	0x3c5232e2	0.012829514
38	0xbd53db9a	-0.0517231
39	0x3d888d63	0.066675924
40	0x3e586e18	0.21135747
41	0x3dfc265f	0.12312006
42	0xbd918688	-0.07105738
43	0x3cdcadf5	0.026938418
44	0xbcba03ee	-0.022706952
45	0x3cbe672d	0.023242557
46	0x3d01d814	0.03170021
47	0x3d3a7db1	0.045530025
48	0x3d4d5c58	0.050136894
49	0xbd970a56	-0.07375018
50	0x3cb1182a	0.021617968
51	0x3dbd26ec	0.092359394
52	0xbdae9e86	-0.0852633
53	0x3e20b7de	0.1569514
54	0x3e1af285	0.15131576
55	0x3c5ec9b8	0.013597898
56	0x3d912c49	0.07088525
57	0xbd502879	-0.050819848
58	0x3d92885b	0.07154914
59	0x3d549215	0.051897127
60	0x3df23824	0.11827114
61	0x3e5703ca	0.20997539
62	0xbe009a5c	-0.12558883
63	0x3c2c8d35	0.010531713
64	0x3e6cb6b7	0.23116575
65	0x3ddded9f	0.10836338
66	0xbf0c502b	-0.54809827
67	0xbe34480a	-0.17605606
68	0xbf3e55f3	-0.743499
69	0xbf394d0b	-0.72383183
70	0xbe8987dd	-0.26861468
71	0xbdcdbdfa	-0.10046001
72	0xbef4883b	-0.47760186
73	0x3d59d6b3	0.05318327
74	0xbe9d09ca	-0.3067153
75	0xbe6a0e3d	-0.22856994
76	0xbeefce43	-0.46837053
77	0xbe9cb977	-0.30610248
78	0xbe0196a5	-0.12655123
79	0xbda8b806	-0.08238225
80	0xbdf051c4	-0.117343456
81	0xbf41d1af	-0.75710577
82	0x3d87c0ac	0.06628546
83	0xbce2f799	-0.027705954
84	0x3e329e35	0.17443164
85	0xbe58d5b1	-0.21175267
86	0xbe2c4f7e	-0.16827199
87	0xbeaad49f	-0.33365342
88	0xbeccd37a	-0.40005094
89	0xbe35fae2	-0.17771485
90	0xbe1aa36b	-0.15101402
91	0x3d99bd02	0.075067535
92	0xbd43c7b6	-0.04779788
93	0xbe025dde	-0.1273112
94	0xbe5ca750	-0.215482
95	0xbf131154	-0.57448316
96	0xbed28d80	-0.4112358
97	0xbed5ef76	-0.41784257
98	0x3e172ede	0.14763972
99	0x3d9c0e07	0.07619863
100	0xbee5f79a	-0.44915468
101	0xbe1ac2d9	-0.15113391
102	0xbd0b04ba	-0.033940054
103	0xbecbb284	-0.39784634
104	0x3d56143f	0.052265402
105	0xbe0bd481	-0.13655283
106	0xbc397aac	-0.011320751
107	0xbdfd9890	-0.123826146
108	0xbd5354e7	-0.05159464
109	0x3e8eb184	0.2786981
110	0xbf069d2b	-0.5258357
111	0xbe330174	-0.17481023
112	0xbe5440db	-0.20727865
113	0xbd20493a	-0.039132334
114	0xbec64e0f	-0.3873143
115	0xbf2a36ef	-0.6649007
116	0x3d72e83c	0.059303507
117	0xbed4219e	-0.41431898
118	0xbde463fd	-0.11151884
119	0xbf90c8c7	-1.1311272
120	0xbe0537c8	-0.1300956
121	0xbedd631d	-0.4323968
122	0xbeb79641	-0.35856822
123	0xbe2adb3e	-0.16685197
124	0xbe693d62	-0.22777322
125	0xbe423787	-0.18966495
126	0xbf44285a	-0.7662407
127	0xbea8d632	-0.32975918
128	0xbc1427cd	-0.009042692
129	0xbc78622a	-0.015160123
130	0x3e3bf4f3	0.1835516
131	0xbe5be2e7	-0.21473275
132	0x3c44a159	0.012001359
133	0xbcde9323	-0.02716977
134	0x3dbc9aae	0.0920919
135	0x3e809a90	0.25117922
136	0xbe76a9a2	-0.24088147
137	0x3d9535fd	0.07285688
138	0x3dd49a0d	0.10380945
139	0x3ded5ce8	0.11589986
140	0xbd0a8a6d	-0.03382342
141	0xbdba7a34	-0.0910534
142	0xbc2e581d	-0.010641125
143	0x3e1d6553	0.15370683
144	0xbc288b85	-0.01028717
145	0xbe966f22	-0.29381663
146	0x3c39eb41	0.011347593
147	0x3c84f93b	0.016232124
148	0xbd2cf494	-0.042225435
149	0xbceb0ea4	-0.028693505
150	0x3dba930f	0.091100805
151	0xbde3ce2b	-0.11123308
152	0x3ae03761	0.0017106348
153	0xbe7695a9	-0.24080528
154	0xbe0da849	-0.13833727
155	0xbdc9ad77	-0.09847539
156	0x3e3eb2da	0.18622914
157	0xbd78729e	-0.060656182
158	0xbd40503e	-0.046951525
159	0x3ea435ad	0.320722
160	0xbdd71af5	-0.105031885
161	0x3e367228	0.17816985
162	0xbdcdcb43	-0.10048535
163	0xbe5479f6	-0.2074965
164	0xbe2b0af2	-0.16703394
165	0xbd4c3948	-0.049859315
166	0xbde65b1a	-0.11247845
167	0xbdcc6be8	-0.09981519
168	0xbe9c7ca6	-0.3056385
169	0xbd46d01d	-0.048538316
170	0x3e1ba90c	0.15201205
171	0xbd56bf62	-0.05242861
172	0xbd8c0f5a	-0.068388656
173	0xbdef7ade	-0.11693357
174	0x3c6df399	0.01452341
175	0xbdbeb4f2	-0.09311856
176	0x3c210878	0.009828679
177	0xbe0ace90	-0.1355536
178	0xbe5b2105	-0.21399315
179	0x3e3674ba	0.17817965
180	0xbe85f38d	-0.26162377
181	0x3e5dd1b5	0.21662028
182	0xbde3a2e3	-0.111150526
183	0xbec43d10	-0.38327837
184	0x3cb52b6b	0.02211543
185	0x3c357fb0	0.011077806
186	0x3db72497	0.08942526
187	0xbdc8e221	-0.09808756
188	0xbea73397	-0.32656547
189	0x3dbfb827	0.09361296
190	0x3d307a92	0.043085642
191	0xbd39606b	-0.045257967

fc.weight f4 [27, 64]
0	0x3f01fbc1	0.5077477
1	0xba6786f4	-0.000883206
2	0x3e59f327	0.21284162
3	0x3ec30977	0.3809316
4	0xbdecf1d4	-0.115695626
5	0x3e069e19	0.13146247
6	0x3e201dc9	0.15636362
7	0xbecb7863	-0.39740285
8	0x3ef72039	0.4826677
9	0xbdcd7de4	-0.10033777
10	0xbe90fe7b	-0.28319153
11	0xbe932d5f	-0.28745553
12	0xbf1feba7	-0.6246895
13	0x3d347a65	0.044062037
14	0x3deaf7fe	0.11473082
15	0xbe4da6b3	-0.20083122
16	0x3d968f1c	0.07351515
17	0x3db9ce0a	0.09072502
18	0xbe30453f	-0.17213915
19	0xbe33a81f	-0.17544602
20	0x3da3ab30	0.07991636
21	0x3e139837	0.14413534
22	0xbee6d22e	-0.4508223
23	0x3da5f693	0.08103671
24	0xbf2c6925	-0.6734794
25	0xbe2b6973	-0.16739444
26	0x3eb9ad97	0.3626525
27	0xbdb71b52	-0.08940758
28	0x3dc3ae4d	0.095547296
29	0x3e2a936a	0.16657797
30	0x3dc47559	0.09592695
31	0xbef1e8a4	-0.47247803
32	0x3d9eb9eb	0.07750305
33	0xbe1a5e26	-0.15074977
34	0x3f168998	0.588037
35	0x3f1a7890	0.60340214
36	0x3ec2a68b	0.38017687
37	0x3dda9933	0.10673752
38	0x3f4ffa01	0.8124085
39	0xbf5448a5	-0.82923347
40	0x3fa6f735	1.3044192
41	0xbddbabe0	-0.10726142
42	0xbdbca759	-0.092116065
43	0xbd2be8a0	-0.041969895
44	0x3bd30d8e	0.006440825
45	0x3f25705f	0.6462459
46	0x3d3896fe	0.045065872
47	0xbdc97025	-0.09835843
48	0xbdaf6a68	-0.08565217
49	0x3e9fdbd7	0.31222412
50	0x3e248b53	0.16068773
51	0xbde2ed10	-0.11080372
52	0x3f05ed5f	0.52315325
53	0xbf742d52	-0.95381653
54	0xbe0433ba	-0.12910357
55	0x3f0a95e0	0.5413494
56	0xbf140697	-0.57822555
57	0xbdc4a453	-0.09601655
58	0xbf4b1ba0	-0.7933903
59	0x3de3f468	0.11130601
60	0x3ef7825a	0.48341638
61	0x3db8f14d	0.090303995
62	0x3e77572c	0.24154347
63	0x3f126776	0.5718912
64	0xbea0a2c3	-0.31374177
65	0xbed95688	-0.4244883
66	0x3da1b2ca	0.078954294
67	0x3e49fe39	0.19725884
68	0x3ea3d7c7	0.32000563
69	0xbea4fda3	-0.3222476
70	0x3ed6773b	0.4188784
71	0xbe88907d	-0.26672736
72	0xbec9ad68	-0.3939011
73	0xbd267e44	-0.04064776
74	0xbe93f89c	-0.2890061
75	0x3d1f2deb	0.03886215
76	0x3e904bd6	0.28182858
77	0xbe18fafb	-0.14939491
78	0xbde80237	-0.113285474
79	0xbe699c83	-0.2281361
80	0x3d3ab841	0.045585874
81	0xbd8a8bb3	-0.06764927
82	0xbf58edab	-0.8473765
83	0xbe33b738	-0.17550361
84	0xbc8b059f	-0.016970454
85	0xbe900b27	-0.2813351
86	0x3b7115b8	0.0036786627
87	0xbde0f518	-0.10984248
88	0x3f3a78c6	0.72840536
89	0x3df8291b	0.12117215
90	0x3f0ee853	0.5582325
91	0xbf04ac90	-0.5182581
92	0x3f1808c8	0.593884
93	0xbe651540	-0.22371387
94	0xbe874646	-0.26420802
95	0x3eed6602	0.46366888
96	0xbec70f00	-0.38878632
97	0x3eacf2a7	0.3377888
98	0xbed55ced	-0.4167246
99	0xbcaf9525	-0.021433422
100	0xbe53a7f0	-0.20669532
101	0xba489db8	-0.00076528965
102	0x3ec48e17	0.38389656
103	0x3e8ba751	0.2727609
104	0xbe73a1bb	-0.23792164
105	0xbe20bc4f	-0.15696834
106	0xbefc7168	-0.49305272
107	0xbc4e02bd	-0.012573895
108	0x3f3e05d3	0.7422764
109	0x3ec9e0c6	0.394293
110	0x3ecebcf4	0.40378535
111	0x3dde0ca0	0.10842252
112	0xbd259962	-0.04042948
113	0xbdc03a30	-0.093860984
114	0xbeb016f8	-0.34392524
115	0x3ea662ff	0.32497403
116	0x3e71ef89	0.23626532
117	0xbdedd229	-0.116123505
118	0xbe4f9736	-0.20272526
119	0xbebbb5e5	-0.36662212
120	0xbd4e1cc3	-0.050320398
121	0xbc9380d1	-0.01800576
122	0xbef6f2eb	-0.48232207
123	0x3e138c14	0.14408904
124	0xbeb5f769	-0.3554032
125	0x3d60c195	0.054872114
126	0xbec0be10	-0.37645006
127	0xbeff4cbc	-0.4986323
128	0xbc967f1e	-0.018371161
129	0x3e9d3125	0.30701557
130	0xbebc91dd	-0.36830035
131	0x3f04e900	0.5191803
132	0xbedd68ed	-0.43244115
133	0x3e22cb6b	0.1589791
134	0x3dc3a87b	0.095536195
135	0xbdf8f35d	-0.12155793
136	0xbdc3fbf1	-0.095695384
137	0xbe896669	-0.26835945
138	0xbefeee92	-0.4979139
139	0xbde2fd4b	-0.11083468
140	0xbc9dbdc2	-0.019255523
141	0x3e96957c	0.29410923
142	0xbc73e388	-0.014885791
143	0xbd038e3b	-0.032118063
144	0xbe86541e	-0.2623605
145	0x3dc7aa5a	0.09749289
146	0xbcc9337c	-0.024560682
147	0xbec30bef	-0.38095042
148	0xbdbc3375	-0.09189502
149	0x3e2e169e	0.17000815
150	0x3eb841d8	0.35987735
151	0x3e828615	0.2549292
152	0xbd9f63dc	-0.077827185
153	0x3e87e45d	0.26541415
154	0xbdf6a5f7	-0.12043374
155	0xbc8a9777	-0.016917927
156	0x3dae7114	0.08517662
157	0xbd810142	-0.06299068
158	0xbcc09f46	-0.023513447
159	0xbdb38154	-0.08764902
160	0x3eec6809	0.46173123
161	0x3eff356e	0.4984545
162	0x3dabe90e	0.08394061
163	0xbe10a687	-0.14126025
164	0x3d9d224e	0.07672559
165	0xbe9c06a4	-0.30473816
166	0xbd59b247	-0.053148534
167	0x3edf7db7	0.436506
168	0x3e3da0b4	0.18518335
169	0x3eb22785	0.34795776
170	0x3d1697d0	0.036765873
171	0x3f4b6b35	0.7946046
172	0x3e3ef34a	0.18647495
173	0x3ea397b6	0.31951684
174	0x3e69df0e	0.22838995
175	0x3cf4c7c8	0.02988042
176	0xbe9e05e7	-0.30863878
177	0x3f06d2d5	0.52665454
178	0x3e64c801	0.2234192
179	0xbe57a836	-0.21060261
180	0xbdb46c6e	-0.08809744
181	0xbeb956f0	-0.3619914
182	0xbbf0892a	-0.00734057
183	0x3d956050	0.07293761
184	0x3ccb6b4d	0.024831438
185	0xbf0ef0ce	-0.5583619
186	0xbe70c83e	-0.23513886
187	0x3eb8a206	0.36061114
188	0x3e3476ca	0.1762344
189	0xbe9e77c0	-0.30950737
190	0x3d5eb09a	0.05436764
191	0x3e86c951	0.26325467
192	0xbef320d8	-0.47485995
193	0xbced0dd4	-0.028937258
194	0xbed7cd8d	-0.4214901
195	0x3d2976c4	0.04137303
196	0xbeedfbde	-0.46481222
197	0x3ebd08dd	0.36920825
198	0xbe8ea4ef	-0.2786021
199	0xbd68cee4	-0.05683793
200	0x3e1d6075	0.15368827
201	0xbe8db04d	-0.2767357
202	0xbdc80941	-0.0976739
203	0xbe097e37	-0.13427053
204	0xbca09981	-0.019604446
205	0x3e0b7f55	0.13622792
206	0x3e7b082c	0.24514836
207	0xbe6fd03b	-0.23419277
208	0x3e984d18	0.29746318
209	0x3ecb2faa	0.39684802
210	0xbe860f2a	-0.26183444
211	0x3de3e18c	0.11127004
212	0xbed53ac2	-0.4164639
213	0xbedadb70	-0.42745543
214	0xbe95174c	-0.29119337
215	0x3f04bddf	0.5185222
216	0x3ee5cbdb	0.44882092
217	0xbe1cce8e	-0.1531317
218	0xbe51a08b	-0.20471399
219	0xbec2749c	-0.3797959
220	0xbef5d009	-0.4801028
221	0x3ce772be	0.028252956
222	0xbea71dd8	-0.32639956
223	0xbde492d7	-0.1116082
224	0x3e1544df	0.14577053
225	0x3e49a716	0.19692644
226	0x3eb8202b	0.35962042
227	0xbe1fd1ef	-0.15607427
228	0xbe147918	-0.14499319
229	0xbec363b6	-0.3816201
230	0x3e541f69	0.20715107
231	0xbdc8a70f	-0.09797489
232	0xbb746347	-0.003729062
233	0x3da2fb25	0.07958058
234	0xbed9f365	-0.42568508
235	0x3d5a8e2e	0.05335825
236	0xbd82bf7b	-0.06384178
237	0x3d3bc5fb	0.045843106
238	0x3df95bf1	0.121757396
239	0x3eb924ba	0.36160833
240	0xbe5b150b	-0.21394746
241	0xbd41404f	-0.04718047
242	0x3ee4b116	0.44666356
243	0xbe50283e	-0.20327851
244	0xbef85cf8	-0.4850843
245	0xbf2cd4b0	-0.67512035
246	0xbde1cf8e	-0.11025916
247	0x3eebb0db	0.46033368
248	0x3d306997	0.04306945
249	0xbd31815d	-0.04333626
250	0x3dd11419	0.102089114
251	0x3d2628f4	0.0405664
252	0x3e208cb9	0.15678681
253	0xbb260f64	-0.0025338763
254	0x3e1b2a0d	0.1515276
255	0x3e990f33	0.2989441

fc.bias f4 [27]
0	0xbe61d953	-0.22055559
1	0x3da97ab9	0.082753606
2	0xbeba5a14	-0.3639685
3	0xbd99b571	-0.0750531
4	0xbe6e5293	-0.23273687
5	0xbda05be0	-0.07830024
6	0xbf0571ec	-0.52126956
7	0xbdd8972d	-0.105757095
8	0xbdf72c8e	-0.12069045
9	0x3c823175	0.015892724
10	0xbebb440a	-0.36575347
11	0xbe516903	-0.20450215
12	0xbe18ca9a	-0.14921036
13	0xbe786dde	-0.24260661
14	0xbe43c64c	-0.19118613
15	0xbdf43048	-0.119232714
16	0xbe443111	-0.19159342
17	0xbec90d0e	-0.39267772
18	0xbccc34d6	-0.024927538
19	0xbe767c25	-0.24070795
20	0xbd23b6b7	-0.039969172
21	0x3d6e59d0	0.05819112
22	0xbe9fa8fb	-0.3118361
23	0xbece4784	-0.40288937
24	0xbe9850ab	-0.29749045
25	0xbdff2852	-0.12458862
26	0xbea7e6d1	-0.32793286
