models/char_rnn/Dino_Names_GRU.pth (torch_old, 79432 bytes, 6 tensors)

gru.weight_ih_l0 f4 [192, 27]
-0.28578514 -0.14597175 0.10404538 0.118519366 -0.68586254 0.09641053 -0.10172334 0.38752136
-0.24898732 -0.23674043 0.073423125 -0.21517347 0.90773624 0.0806895 -0.5507855 0.0076876553
0.11414138 0.0059166523 -0.21008179 0.3817905 -0.620993 0.5693702 0.3826274 -0.25121668
0.84774786 0.20221213 -0.07942802 1.7584585 0.12273454 -0.2369565 -0.43029484 1.1983505
-0.08683637 -0.20399784 0.34684145 -0.8182976 0.2660284 -0.04230099 -0.61013144 -0.058315724
-0.3969823 0.23519704 0.16902483 -0.10586653 0.00085216644 -0.02575955 -0.78970164 0.4745806
0.18465261 0.021088645 0.16779171 0.520718 -0.4148247 -0.5406546 1.919357 0.69706726
0.024866564 0.013839821 -0.9724235 -0.44529095 0.088797435 0.42879224 0.36166152 -0.7122133
0.20181356 -0.6473426 0.7568917 -0.140886 -0.26213074 -0.85710716 0.66201496 -0.09742038
0.04875735 -0.32871836 -0.46096516 2.2696052 0.20413662 0.43962508 1.311421 -0.033601943
0.0242188 3.2883844 0.16852197 -0.21534343 0.18719494 0.020721352 0.3780055 0.33090788
0.2636705 -0.40002477 0.3535068 0.14841962 -0.26464403 -0.39036825 -0.15276882 -0.26116621
0.15574294 -0.8324669 -0.08394296 -0.016311105 -0.2021545 -0.025031278 0.29100838 0.7688653
0.044374663 0.65607524 -0.49516672 -0.00495419 1.265362 0.11533346 0.036523946 1.187012
-1.3415556 0.46918046 -0.14463119 -0.914014 0.3165985 0.05363921 -0.095445596 0.4493362
-0.8773261 -0.16545135 -0.98526776 -0.5866863 0.1668152 0.33909512 -0.4879986 0.98589605
-0.049873285 0.12464942 0.4079516 0.08914613 0.013703058 1.0710557 -0.31639147 -0.4898511
0.9692865 0.14032191 0.81175935 0.5480936 -0.7510197 0.58880144 0.5122305 0.1538147
-0.26465946 0.32070425 0.0054697413 -0.41508391 -0.20198698 -0.19167781 0.10828664 -0.6706625
-0.16499323 0.33249366 0.030745337 0.17906001 -0.51882815 0.48575124 0.27029002 0.27033895
-0.33043778 0.06822898 1.4905887 0.7197628 -0.21479793 -0.4549484 0.25544974 0.088576585
-0.11204364 -0.07634644 -0.5826754 -0.20214187 -0.31787172 -0.05896943 -0.3363011 -0.27560645
-0.57101715 0.14237933 0.2565254 -0.03374526 0.016076002 0.050949857 0.18839878 -0.22500817
0.41780442 -0.34633595 -0.053874616 0.20818953 0.276619 -1.7366409 1.7964556 -0.18421727
0.091014855 -0.27017918 -0.6603687 0.16129994 0.3200917 -0.13210413 -0.6394844 -0.60447305
0.21353693 0.09669099 0.24525563 -0.07176139 -0.22230929 -0.49911 -0.43250608 0.1963182
-0.07948474 -0.06117959 0.6860094 -0.36295462 -0.091945745 -0.16417661 -0.092484884 -0.44526133
-1.2244734 0.55299 0.3502907 0.2834168 -0.25492245 0.96668315 0.09728852 0.08015295
0.1706541 -0.6600848 -0.13208559 -0.028811162 0.6769436 0.17004046 -0.39916936 0.46836346
0.97249717 0.50429714 0.07522821 -1.0767951 -0.7939489 1.1064237 0.91497326 -0.020287124
-0.67464256 -0.47424737 -0.3669204 2.8419325 0.60770315 -0.14193508 0.9156306 0.98721623
0.14196087 -0.05741539 -0.3970687 -0.30476674 -0.05260979 -0.36811057 -0.23826885 0.3334102
00000000: 6e52 92be 9e79 15be bf15 d53d 48ba f23d
00000010: b094 2fbf e272 c53d 5454 d0bd 3369 c63e
00000020: 88f6 7ebe 156c 72be dd5e 963d 6f56 5cbe
00000030: 6761 683f 8940 a53d 4700 0dbf bae8 fb3b
00000040: f5c2 e93d 7ae0 c13b ae1f 57be 0b7a c33e
00000050: 66f9 1ebf 3fc2 113f bde7 c33e 799f 80be
00000060: 0106 593f b210 4f3e 28ab a2bd 2b15 e13f
00000070: 3f5c fb3d baa4 72be 9b4f dcbe 8d63 993f
00000080: 44d7 b1bd cfe4 50be 3495 b13e f47b 51bf
00000090: e034 883e ce43 2dbd 9331 1cbf 78dc 6ebd
000000a0: 4441 cbbe 7ed7 703e d814 2d3e 8dd0 d8bd
000000b0: ec63 5f3a b105 d3bc e329 4abf 3afc f23e
000000c0: 9315 3d3e 18c2 ac3c 97d1 2b3e c64d 053f
000000d0: e763 d4be 5768 0abf 7dad f53f 0073 323f
000000e0: f7b4 cb3c 6bc0 623c bff0 78bf 2dfd e3be
000000f0: 6edb b53d a88a db3e b32b b93e 9c53 36bf
00000100: 37a8 4e3e 3fb8 25bf a8c3 413f 6b44 10be
00000110: 0036 86be 606b 5bbf d079 293f 5684 c7bd
00000120: c9b5 473d c64d a8be a003 ecbe 3641 1140
00000130: 3109 513e 8a16 e13e a5dc a73f 31a2 09bd
00000140: 8166 c63c e474 5240 0691 2c3e fd82 5cbe
00000150: 08b0 3f3e d3bf a93c f089 c13e c26c a93e
00000160: d2ff 863e 0cd0 ccbe d8fe b43e 50fb 173e
00000170: 6c7f 87be 59de c7be 6e6f 1cbe 94b7 85be
00000180: 147b 1f3e 8d1c 55bf 49ea abbd de9e 85bc
00000190: 9701 4fbe 650e cdbc 0dff 943e 5bd4 443f
000001a0: 35c2 353d 8cf4 273f 7e86 fdbe c256 a2bb
000001b0: 62f7 a13f f333 ec3d 229a 153d 02f0 973f
000001c0: 18b8 abbf 6c38 f03e 331a 14be d2fc 69bf
000001d0: 3319 a23e cab4 5b3d fb78 c3bd 650f e63e
000001e0: 7198 60bf 146c 29be 823a 7cbf 1331 16bf
000001f0: 9bd1 2a3e e09d ad3e f4da f9be af63 7c3f
00000200: ee47 4cbd 3248 ff3d 08df d03e 3f92 b63d
00000210: ca82 603c 5a18 893f 10fe a1be c3cd fabe
00000220: 2923 783f 8cb0 0f3e 76cf 4f3f dd4f 0c3f
00000230: d442 40bf b1bb 163f 8a21 033f 9a81 1d3e
00000240: 7281 87be 5933 a43e 843b b33b e185 d4be
00000250: add5 4ebe 3047 44be 63c5 dd3d 8ab0 2bbf
00000260: fcf3 28be 9c3c aa3e a5dd fb3c 825b 373e
00000270: ecd1 04bf 63b4 f83e 7463 8a3e de69 8a3e
00000280: 242f a9be a3bb 8b3d 9ccb be3f 6042 383f
00000290: fdf3 5bbe ffee e8be 4fca 823e a467 b53d
000002a0: 2377 e5bd 865b 9cbd 372a 15bf 47fe 4ebe
000002b0: 15c0 a2be ee89 71bd a82f acbe 4a1c 8dbe
000002c0: 2e2e 12bf e3cb 113e 4c57 833e 7838 0abd
000002d0: d2b1 833c ccb0 503d 9ceb 403e 8b68 66be
000002e0: 76ea d53e f252 b1be a1ab 5cbd a32f 553e
000002f0: 01a1 8d3e 404a debf 42f2 e53f 74a3 3cbe
00000300: ff65 ba3d ed54 8abe ec0d 29bf d02b 253e
00000310: 0fe3 a33e 4e46 07be 40b5 23bf bfbe 1abf
00000320: 6da9 5a3e ed05 c63d 4b24 7b3e a3f7 92bd
00000330: 0ca5 63be 598b ffbe 7071 ddbe a307 493e
00000340: e5c8 a2bd 7397 7abd 509e 2f3f 30d5 b9be
00000350: 0d4e bcbd ea1d 28be b768 bdbd 4bf9 e3be
00000360: 8bbb 9cbf c190 0d3f 4d59 b33e 021c 913e
00000370: 3285 82be 8c78 773f 343f c73d 3b27 a43d
00000380: f3bf 2e3e 51fb 28bf 7241 07be 6305 ecbc
00000390: 2d4c 2d3f 161f 2e3e ed5f ccbe 56cd ef3e
000003a0: 93f5 783f 9e19 013f 3f11 9a3d 6cd4 89bf
000003b0: 3c40 4bbf 4b9f 8d3f b03b 6a3f 2f31 a6bc
000003c0: 60b5 2cbf 8dd0 f2be fedc bbbe 39e2 3540
000003d0: 6f92 1b3f 6e57 11be c466 6a3f 34ba 7c3f
000003e0: 315e 113e 662c 6bbd 974c cbbe 630a 9cbe
000003f0: 5d7d 57bd fd78 bcbe c0fc 73be beb4 aa3e

gru.weight_hh_l0 f4 [192, 64]
-0.19641556 0.16856171 0.13029596 0.16430327 -0.31639516 0.13245271 -0.093577474 0.4967935
0.25074616 0.10924939 -0.07481867 -0.112629734 -0.032220557 0.27027383 -0.37473604 -0.19874658
-0.07936647 0.09519312 -0.031843025 0.22069496 0.20517984 0.14320947 0.045247775 -0.37035295
-0.14997548 0.26775038 -0.09411332 -0.2071953 0.029619625 -0.097018175 0.30467886 -0.0248236
-0.33920917 -0.26114112 0.03790567 -0.12659563 -0.034678902 0.2596647 -0.1327418 0.18373643
-0.11509122 0.21882242 0.32598042 0.17442724 -0.3190868 -0.010014437 -0.06928914 0.099399336
0.31091115 0.09232878 -0.04687537 -0.5463033 -0.035457574 -0.023520282 -0.11141508 -0.14380664
-0.033043094 0.09047971 -0.14836018 0.69645584 0.12136943 -0.27337846 -0.18368416 0.47895402
0.04007006 -0.14149705 0.14839736 -0.016959779 0.16172549 0.020756353 -0.008732762 0.0571333
-0.17960466 0.20956534 0.113350116 -0.08447127 0.04885599 0.110649325 -0.3027763 0.18401092
0.33068737 0.040457357 0.09987447 -0.20402676 0.21057624 -0.2938985 0.09408304 -0.047884718
-0.05717753 -0.23227377 0.02399024 -0.2722889 0.4027149 0.19081439 0.40082416 0.033900805
-0.12593244 0.029851547 -0.06700437 0.08467864 -0.042921115 0.2724267 0.1218788 -0.26418516
-0.0094101755 0.17687944 0.24898706 -0.04529123 0.35582742 0.36714408 -0.27011997 0.17024247
0.42096484 0.03078629 0.0566218 0.14930876 -0.08304915 0.067480795 0.0043004723 0.047561828
0.12000302 -0.0056993174 0.011074377 0.19323672 0.18948556 0.050597444 -0.16169517 0.06884512
0.25006324 -0.052212983 0.045502774 0.10662619 -0.13507462 -0.15415062 0.14520444 -0.23150678
0.1462232 -0.067513175 0.087471135 -0.33894497 -0.034108993 -0.08687683 -0.19646397 -0.45864335
-0.1647083 0.13734466 -0.12588976 0.19005123 -0.0134324515 -0.2890278 0.1326878 -0.021346606
-0.02673803 0.1929467 -0.22744876 -0.10734671 -0.06865464 -0.043540515 0.26661405 0.16200495
-0.23043332 -0.085075006 0.10969912 0.19266348 0.1670409 -0.007805085 -0.19615188 0.09744567
-0.025752712 -0.06452946 0.20286727 0.30943558 0.25978118 0.14147127 -0.08173302 -0.0057173893
0.22631343 -0.025338897 0.13617629 0.30914164 -0.015501634 0.076677665 0.014471374 0.2825794
-0.03803457 0.21835566 -0.2929915 -0.07256365 0.24811126 -0.029728306 0.13016573 -0.10462346
0.0127419885 -0.037820175 0.19401336 0.025319606 -0.33777192 -0.12154186 0.045083884 -0.24776556
0.10190932 0.05257438 0.04536798 0.06894071 0.026748676 -0.18603343 -0.03556387 -0.31371692
-0.1385154 0.2305842 -0.061507978 0.28213775 -0.0990555 -0.11678074 -0.15480214 0.01291266
0.060642302 -0.06796429 -0.24910186 -0.08459535 0.50873846 -0.045173466 -0.32005078 -0.29959792
0.23011173 0.14974919 -0.029281039 0.2261669 -0.045076348 -0.18305604 -0.04931306 0.09603577
0.031411935 0.10116011 0.15017135 0.052354097 0.046524715 0.07749105 0.09672 0.20064972
-0.07206835 -0.16802998 0.09963377 0.3027839 -0.24643044 -0.27935672 0.10663654 -0.07175276
-0.079558305 0.09441273 -0.007219979 -0.027618818 -0.11549473 0.120129585 0.41538763 -0.44637188
00000000: 2921 49be 719b 2c3e 4e6c 053e 1e3f 283e
00000010: 8cfe a1be afa1 073e 8ca5 bfbd b85b fe3e
00000020: cd61 803e 25be df3d 883a 99bd 6baa e6bd
00000030: b4f9 03bd 5561 8a3e 67dd bfbe 3984 4bbe
00000040: e38a a2bd 9cf4 c23d d56d 02bd dcfd 613e
00000050: aa1a 523e 81a5 123e bb55 393d e79e bdbe
00000060: 2c93 19be 9416 893e 7cbe c0bd 012b 54be
00000070: dba4 f23c 77b1 c6bd defe 9b3e dd5a cbbc
00000080: d3ac adbe 4ab4 85be fa42 1b3d 49a2 01be
00000090: 770b 0ebd c6f2 843e 77ed 07be 6725 3c3e
000000a0: f2b4 ebbd fc12 603e e8e6 a63e 0e9d 323e
000000b0: 585f a3be 9813 24bc 77e7 8dbd e191 cb3d
000000c0: bf2f 9f3e df16 bd3d 6300 40bd 88da 0bbf
000000d0: f63b 11bd 9bad c0bc 972d e4bd 0c42 13be
000000e0: 3258 07bd 6d4d b93d bbeb 17be ee4a 323f
000000f0: 8990 f83d 43f8 8bbe b317 3cbe 7639 f53e
00000100: 8120 243d 9ae4 10be 7af5 173e 3cef 8abc
00000110: 5e9b 253e 3a09 aa3c dc13 0fbc 9b04 6a3d
00000120: 49ea 37be 4c98 563e 1b24 e83d 46ff acbd
00000130: 381d 483d 1d9c e23d 7f05 9bbe 5c6d 3c3e
00000140: db4f a93e 9db6 253d fc8a cc3d 64ec 50be
00000150: 4ca1 573e dd79 96be 9cae c03d c422 44bd
00000160: fc32 6abd 2dd9 6dbe 2e87 c43c 7369 8bbe
00000170: a630 ce3e d964 433e d338 cd3e 92db 0a3d
00000180: 6ff4 00be 3b8b f43c 9639 89bd ff6b ad3d
00000190: 0dce 2fbd 837b 8b3e 989b f93d 4743 87be
000001a0: 232d 1abc e21f 353e 77f6 7e3e 4c83 39bd
000001b0: 032f b63e 4ffa bb3e 2a4d 8abe 0b54 2e3e
000001c0: b488 d73e 8833 fc3c 43ec 673d 65e4 183e
000001d0: ac15 aabd 5f33 8a3d faea 8c3b 31d0 423d
000001e0: 25c4 f53d 57c1 babb 4e71 353c d9df 453e
000001f0: 8108 423e 443f 4f3d 6b93 25be acfe 8c3d
00000200: 4a08 803e 48dd 55bd 1e61 3a3d d55e da3d
00000210: 0051 0abe a9d9 1dbe 79b0 143e 1d10 6dbe
00000220: 89bb 153e 5944 8abd 1124 b33d 328a adbe
00000230: dfb5 0bbd 7bec b1bd da2d 49be 4dd3 eabe
00000240: 4ba9 28be 14a4 0c3e 3fe9 00be ca9c 423e
00000250: c913 5cbc 74fb 93be 50df 073e 14df aebc
00000260: b709 dbbc d293 453e 54e8 68be 98d8 dbbd
00000270: ce9a 8cbd 8a57 32bd a381 883e a0e4 253e
00000280: b6f6 6bbe ce3b aebd efa9 e03d 9349 453e
00000290: c50c 2b3e ccc1 ffbb 0adc 48be 9891 c73d
000002a0: 5af7 d2bc 0628 84bd 70bc 4f3e 576e 9e3e
000002b0: 0a02 853e d8dd 103e a463 a7bd f058 bbbb
000002c0: b5be 673e 8593 cfbc cc71 0b3e d047 9e3e
000002d0: 91fa 7dbc 2e09 9d3d 5819 6d3c 3fae 903e
000002e0: 23ca 1bbd a098 5f3e fb02 96be 409c 94bd
000002f0: e110 7e3e c788 f3bc 2a4a 053e d344 d6bd
00000300: c6c3 503c 54e9 1abd 70ab 463e 106b cf3c
00000310: 71f0 acbe f0ea f8bd e1a9 383d 41b6 7dbe
00000320: d5b5 d03d 3c58 573d c6d3 393d c930 8d3d
00000330: 0a20 db3c 8c7f 3ebe 6cab 11bd 819f a0be
00000340: fbd6 0dbe 441e 6c3e caef 7bbd 5c74 903e
00000350: 9cdd cabd be2a efbd 7484 1ebe 9f8f 533c
00000360: 1064 783d dd30 8bbd 8f14 7fbe 5440 adbd
00000370: af3c 023f d007 39bd b2dd a3be e664 99be
00000380: 69a2 6b3e da57 193e cade efbc 4c98 673e
00000390: faa1 38bd 0b73 3bbe 7efc 49bd 67ae c43d
000003a0: cda9 003d 082d cf3d 85c6 193e 4071 563d
000003b0: b390 3e3d a1b3 9e3d 2315 c63d 1f77 4d3e
000003c0: 9298 93bd 0d10 2cbe ca0c cc3d 7e06 9b3e
000003d0: 4358 7cbe d807 8fbe 4264 da3d 1cf3 92bd
000003e0: 77ef a2bd 765b c13d 9395 ecbb dc40 e2bc
000003f0: 8088 ecbd 8006 f63d b0ad d43e db8a e4be

gru.bias_ih_l0 f4 [192]
-0.0678146 -0.12384812 0.080915034 0.008012442 -0.18815227 0.17337611 0.029838266 0.15641145
0.06924998 0.09347246 0.10874018 0.035690024 0.116259195 0.11108944 0.056223124 0.029216483
0.10855114 0.09053372 0.2238533 -0.0822492 -0.107883334 -0.0494249 0.11045856 -0.008288443
-0.06309698 -0.25017458 0.061949547 0.0067887325 0.08205637 0.1275299 0.0045323195 0.11258181
0.071086586 0.04471224 0.24198093 0.028110487 -0.14443086 -0.0013510651 -0.04339718 0.1288942
0.03821391 -0.0123773515 0.12367235 -0.09140109 0.08210594 0.23180097 0.028776431 -0.059317447
0.00554035 0.049663104 -0.15308858 0.073482156 0.0645488 0.21643168 0.09704131 0.11987146
0.020887317 0.15655364 0.06740128 0.101883136 0.19188245 0.0037522446 -0.0017111851 -0.13070779
-0.70671463 0.057677135 -0.31153637 -0.14507626 -0.40227017 -0.6645709 -0.32729703 -0.06871336
0.1630234 -0.6262837 -0.0056360345 -0.2177523 0.111921445 0.38162088 -0.643424 -0.18352917
-0.15828124 -0.5243242 -0.025905982 -0.18111357 0.07895354 -0.08345869 -0.20565532 -0.32708746
-0.042743813 -0.108004585 0.18885118 0.23123245 0.01831564 -0.16352962 -0.03855363 -0.29544854
-0.6680461 -0.35107517 -0.13193436 0.20269491 -0.38236392 -0.11679378 -0.4509873 -0.3359284
0.2580188 -0.2519711 -0.33493787 0.07899309 -0.18179943 -0.71022975 -0.041138854 0.09370634
-0.1812649 -0.30092356 -0.41934252 0.15105751 -0.2970871 -0.3517624 0.19695933 -0.13082735
-0.4082668 -0.07593602 -0.44664618 0.03273009 -0.75252724 -0.16838455 -0.16996129 -0.11474523
0.12035813 -0.011290215 -0.13618505 0.022489266 0.03592847 0.08512855 -0.11150712 -0.012827763
-0.186756 -0.06499094 -0.073959135 0.06344703 0.010826563 -0.076276824 -0.345136 0.24806324
-0.18151176 0.08227456 0.014997938 -0.017235223 -0.05126083 -0.13086696 -0.044248644 0.21644701
-0.06905595 -0.19110438 -0.037121274 -0.14444134 0.1247776 -0.0733095 -0.35538143 -0.18710788
0.10644506 0.054477725 -0.13572939 -0.021993618 0.11959047 -0.033487264 -0.019118957 0.39664596
-0.18665624 0.23531435 -0.1445179 0.099493906 -0.028324338 0.20693652 -0.011325944 0.0019319189
-0.14134349 -0.14546134 -0.057220854 0.05567122 -0.13376987 -0.08348917 -0.10173884 0.024097962
-0.09463746 -0.09079189 -0.048262205 -0.14063713 -0.3805602 -0.19180998 -0.19466098 -0.0005390008
00000000: 62e2 8abd 15a4 fdbd c8b6 a53d 9e46 033c
00000010: fdaa 40be 8289 313e 616f f43c 532a 203e
00000020: efd2 8d3d 7d6e bf3d 2cb3 de3d b42f 123d
00000030: 4d19 ee3d dc82 e33d 384a 663d 6857 ef3c
00000040: 0f50 de3d be69 b93d cd39 653e 4572 a8bd
00000050: f0f1 dcbd c471 4abd 1938 e23d 40cc 07bc
00000060: fd38 81bd e216 80be cfbe 7d3d 0474 de3b
00000070: 2c0d a83d 3397 023e da83 943b 4b91 e63d
00000080: d895 913d 2f24 373d d9c9 773e f747 e63c
00000090: afe5 13be 3916 b1ba 3ec1 31bd d7fc 033e
000000a0: 3086 1c3d 60ca 4abc ee47 fd3d 7f30 bbbd
000000b0: 2927 a83d 3c5d 6d3e 8dbc eb3c daf6 72bd
000000c0: d38b b53b 8a6b 4b3d 41c3 1cbe d07d 963d
000000d0: 2932 843d 44a0 5d3e 98bd c63d 2b7f f53d
000000e0: e11b ab3c 994f 203e af09 8a3d 1ba8 d03d
000000f0: d57c 443e 38e8 753b d849 e0ba 43d8 05be
00000100: 40eb 34bf dc3e 6c3d b281 9fbe df8e 14be
00000110: 5bf6 cdbe 5221 2abf 7a93 a7be 97b9 8cbd
00000120: 9bef 263e 2154 20bf 7cae b8bb 75fa 5ebe
00000130: 1237 e53d d063 c33e 6fb7 24bf 12ef 3bbe
00000140: 7a14 22be 1c3a 06bf c838 d4bc d675 39be
00000150: 65b2 a13d 64ec aabd 4f97 52be 0278 a7be
00000160: 2314 2fbd 8231 ddbd 3462 413e 33c8 6c3e
00000170: ae0a 963c 4f74 27be 69ea 1dbd 0845 97be
00000180: 1205 2bbf 20c0 b3be cd19 07be 418f 4f3e
00000190: 34c5 c3be 9431 efbd cfe7 e6be cffe abbe
000001a0: 0a1b 843e 5b02 81be fa7c abbe 21c7 a13d
000001b0: a129 3abe 9ed1 35bf 3781 28bd 1ce9 bf3d
000001c0: 829d 39be a712 9abe 10b4 d6be d2ae 1a3e
000001d0: cd1b 98be 341a b4be b5af 493e 9bf7 05be
000001e0: 5908 d1be 5884 9bbd cfae e4be fd0f 063d
000001f0: a0a5 40bf 006d 2cbe 550a 2ebe 8cff eabd
00000200: 537e f63d 98fa 38bc 1874 0bbe 693b b83c
00000210: bb29 133d e157 ae3d d85d e4bd 8a2b 52bc
00000220: f73c 3fbe f819 85bd e377 97bd 84f0 813d
00000230: e661 313c 0637 9cbd aab5 b0be 4a04 7e3e
00000240: 38de 39be 917f a83d e9b9 753c e230 8dbc
00000250: e0f6 51bd fd01 06be 113e 35bd 49a4 5d3e
00000260: 356d 8dbd deb0 43be 7a0c 18bd 6ee8 13be
00000270: 668b ff3d 4b23 96bd 8ef4 b5be 3599 3fbe
00000280: deff d93d 0924 5f3d a5fc 0abe f62b b4bc
00000290: d9eb f43d f129 09bd 5c9f 9cbc 2e15 cb3e
000002a0: d022 3fbe 3ff6 703e 80fc 13be 76c3 cb3d
000002b0: 7108 e8bc 2be7 533e 7490 39bc 7138 fd3a
000002c0: 59bc 10be d1f3 14be 6a60 6abd 8107 643d
000002d0: f8fa 08be 5ffc aabd 745c d0bd 1769 c53c
000002e0: 49d1 c1bd 19f1 b9bd 97ae 45bd 2e03 10be
000002f0: c9d8 c2be d669 44be 3555 47be bb4b 0dba

gru.bias_hh_l0 f4 [192]
0.0721811 -0.00089554524 -0.03235566 -0.100574575 -0.06349076 0.025506007 -0.111478 0.12582453
-0.0070502805 0.08603938 0.0029560938 0.10239813 -0.022688484 -0.025575606 0.057812218 0.14545134
0.10388213 0.0070587164 0.20456243 -0.014050834 -0.032453626 -0.036537204 0.11914513 -0.09059461
0.014197523 -0.20250835 0.0718547 -0.11756323 0.05152611 0.008617109 -0.08439743 0.19665654
-0.012162511 0.078209095 0.22522737 0.04243452 -0.005952079 -0.088874586 0.0653076 0.081859864
0.044777658 0.042664807 0.12319168 -0.09385248 0.07521636 0.16988368 -0.020459205 -0.0005817378
0.050061192 -0.08027864 -0.031156221 0.09047901 -0.0068550464 0.089825645 0.052627537 0.16928375
0.1750767 0.1814497 -0.0047169942 -0.0056676045 0.25575626 -0.10410959 0.0076405867 -0.061977215
-0.6889507 0.11072526 -0.35319018 -0.15898445 -0.33066967 -0.6573885 -0.23980628 -0.24236587
0.23243196 -0.73083365 -0.00033373892 -0.13384242 0.06459886 0.39709926 -0.75662184 -0.19805142
-0.14638232 -0.6619828 -0.16062766 -0.28449515 0.11603606 -0.15522712 -0.17803106 -0.43243113
-0.07971974 -0.21226262 0.1716441 0.24054419 0.1802966 -0.13252732 -0.07418286 -0.20789
-0.77990943 -0.3042468 -0.15672068 0.22285655 -0.35054544 -0.12601674 -0.36609972 -0.3751591
0.09879601 -0.3204394 -0.21233833 0.12816688 -0.22393903 -0.7500711 0.06274469 0.110242575
-0.1876885 -0.23965316 -0.5302317 0.021234479 -0.15507533 -0.3595723 0.2729569 -0.25000155
-0.5390592 -0.22694902 -0.31377482 -0.015399516 -0.7847619 -0.27126026 -0.25245315 0.01692451
-0.11230431 0.13792162 -0.23006365 -0.11059779 0.02643137 0.14446197 -0.12534682 -0.15936857
-0.0073845754 0.0008375088 -0.006988647 0.16608882 0.11166337 0.14187083 -0.18697117 0.16602702
0.05141838 -0.012442273 0.080620475 0.071391545 -0.13956882 -0.009538882 -0.10784167 0.13221441
0.010265143 0.21483114 -0.09058892 -0.08102615 0.19354908 0.05349124 -0.073299736 -0.1576675
0.16000247 -0.04870255 -0.06843044 0.03474058 0.14124824 -0.09764138 0.0076211356 0.29193687
0.045899376 0.066385254 -0.042452388 0.03070228 -0.160282 0.3547576 -0.141031 0.09475346
-0.21613231 -0.2582092 -0.0034765713 0.02468699 0.23550153 -0.103939585 0.34438035 -0.12056688
0.096516095 -0.14709505 0.16573776 -0.2214042 -0.45305386 -0.17732438 -0.021608643 0.028168164
00000000: afd3 933d 06c3 6aba 5e87 04bd 0bfa cdbd
00000010: 7207 82bd f9f1 d03c 944e e4bd 25d8 003e
00000020: 0a06 e7bb 6a35 b03d 06bb 413b 1cb6 d13d
00000030: 33dd b9bc ef83 d1bc 81cc 6c3d 32f1 143e
00000040: 27c0 d43d ce4c e73b d078 513e 7835 66bc
00000050: 18ee 04bd 09a8 15bd 5d02 f43d ab89 b9bd
00000060: ba9c 683c 595e 4fbe 8f28 933d fec4 f0bd
00000070: 0b0d 533d c62e 0d3c 8fd8 acbd 5560 493e
00000080: 4545 47bc 172c a03d 01a2 663e d2cf 2d3d
00000090: a809 c3bb e103 b6bd febf 853d 25a6 a73d
000000a0: c768 373d 4bc1 2e3d eb4b fc3d bb35 c0bd
000000b0: 090b 9a3d fdf5 2d3e 109a a7bc c37f 18ba
000000c0: f70c 4d3d 2169 a4bd 553b ffbc 0f4d b93d
000000d0: 4ca0 e0bb 82f6 b73d f98f 573d b858 2d3e
000000e0: 4e47 333e f3cd 393e 0491 9abb 50b7 b9bb
000000f0: 7cf2 823e 6937 d5bd e35d fa3b d2db 7dbd
00000100: 135f 30bf edc3 e23d 58d5 b4be d2cc 22be
00000110: 894d a9be 9d4a 28bf c78f 75be c22e 78be
00000120: a502 6e3e ea17 3bbf aef9 aeb9 fd0d 09be
00000130: 684c 843d 9850 cb3e f8b1 41bf fecd 4abe
00000140: 3fe5 15be b477 29bf 947b 24be 59a9 91be
00000150: 50a4 ed3d dcf3 1ebe c64d 36be 9d67 ddbe
00000160: 1a44 a3bd 5f5b 59be 79c3 2f3e 3751 763e
00000170: ac9f 383e 3eb5 07be 2fed 97bd 1ee1 54be
00000180: 25a8 47bf 3dc6 9bbe 637b 20be 8234 643e
00000190: b17a b3be 880a 01be 6c71 bbbe db14 c0be
000001a0: 9055 ca3d a210 a4be 386f 59be 2e3e 033e
000001b0: 4650 65be a904 40bf 4a80 803d dcc6 e13d
000001c0: 6a31 40be a367 75be 44bd 07bf eef3 ad3c
000001d0: 11cc 1ebe dc19 b8be 02c1 8b3e 3400 80be
000001e0: c9ff 09bf 5365 68be 18a7 a0be 404e 7cbc
000001f0: 28e6 48bf a0e2 8abe 8a41 81be 45a5 8a3c
00000200: cdff e5bd 533b 0d3e ce95 6bbe 1881 e2bd
00000210: 9a86 d83c d7ed 133e eb5a 00be 8431 23be
00000220: 4ffa f1bb 448c 5b3a 0501 e5bb 3013 2a3e
00000230: c4af e43d 9646 113e 5f75 3fbe fd02 2a3e
00000240: 149c 523d adda 4bbc 591c a53d bb35 923d
00000250: 21eb 0ebe f948 1cbc 18dc dcbd 3763 073e
00000260: 212f 283c b2fc 5b3e af86 b9bd 0af1 a5bd
00000270: bb31 463e a119 5b3d 2c1e 96bd 9773 21be
00000280: b0d7 233e 537c 47bd 4225 8cbd 234c 0e3d
00000290: 61a3 103e 34f8 c7bd b8ba f93b c078 953e
000002a0: fc00 3c3d fef4 873d 8ee2 2dbd 5983 fb3c
000002b0: f720 24be caa2 b53e 6e6a 10be 1a0e c23d
000002c0: ca51 5dbe ff33 84be 30d7 63bb 5f3c ca3c
000002d0: 5027 713e 47de d4bd 9f52 b03e c5eb f6bd
000002e0: 3baa c53d 16a0 16be 29b7 293e c8b7 62be
000002f0: adf6 e7be 8694 35be 9c04 b1bc ecc0 e63c

fc.weight f4 [27, 64]
-0.26791385 -0.09886531 0.13920552 -0.1843619 0.23511074 -0.34216937 -0.027373642 0.3044109
-0.38595128 0.18108325 0.02828973 0.26299635 0.0040434077 0.00015032952 0.6685138 -0.21703404
-0.15301569 -0.08502079 -0.0077951625 -0.98149383 0.13537155 0.300768 0.14278944 -0.7432632
-0.04839395 -0.23718388 -0.37256694 -0.34447464 -0.2445304 0.19597965 0.12910055 0.3788627
-0.21402527 0.17139596 0.025797287 -0.30757356 -0.37906736 -0.023068335 0.32780388 -0.99897534
-1.1467537 0.059757315 0.6241143 -0.21672104 -0.17335172 -1.113014 0.08741853 -0.02764787
0.30967897 0.46288955 -0.090955935 -0.1436145 -0.13670827 0.41811088 -0.56997794 0.0287992
-0.09107407 0.100027405 -0.6112094 -0.10133793 0.75785446 0.3672521 -0.11351971 0.23408896
0.47765604 0.43773365 -0.65427744 -0.10819338 0.05288361 0.12217631 0.288373 -0.15372935
-0.94908905 0.0038341593 -0.37238175 0.0596951 -0.12809499 0.47906125 -0.28127703 0.0135687515
0.100874364 -0.084432304 -0.034561366 -0.26671073 0.4724679 -0.11459971 0.12058055 0.53383136
-0.0047779614 0.016940938 0.2177742 -0.010692775 -0.38913795 -0.05812839 0.48348114 -0.1467876
0.27754107 0.18634301 0.08401119 -0.5209586 0.6713295 -0.11061275 0.39764154 0.3256509
-0.11506674 -0.2652521 -0.19663222 0.032885797 -0.19120848 0.6391134 0.20269492 -0.20754936
-0.31601754 0.06795626 -0.3375325 -0.095856614 0.4074507 0.24719371 -0.107330605 0.12518485
0.45222428 -0.10704646 0.085718326 0.1175354 -0.16162774 -0.29210103 -0.10935554 -0.041367427
0.06480483 0.21118687 0.024429362 0.15742826 -0.30309492 -0.28769326 0.5818239 -0.08368049
-0.08352018 -0.33370215 -0.4993627 -0.38636476 -0.18578705 0.12366394 -0.09533943 -0.21157885
-0.4377739 0.17970353 -0.15339471 0.11877204 0.17148754 -0.06924914 -0.31291455 -0.5510956
-0.13111295 0.19998188 -0.0474102 0.111152 -0.30281433 -0.26397294 -0.27380723 0.4614168
0.23834036 0.46717557 0.18887728 -0.04072435 -0.14077511 -0.22430448 -0.04566719 -0.16559392
-0.08789015 -0.41298312 -0.25097647 0.25127357 0.04292633 0.08674031 0.11606326 -0.027439557
-0.13461092 0.19050406 -0.028157283 -0.09983584 0.08797777 0.21423393 -0.49432337 0.15674743
0.023769883 0.51636386 -0.10512249 0.29016632 0.5306778 0.39847344 0.08821363 0.46578518
-0.26426163 0.20725963 0.3946596 0.39972073 -0.40894303 0.00084205036 0.2565667 0.21744102
-0.20603874 -0.46837494 -0.06228757 -0.33579564 -0.09004612 -0.42633194 0.07968921 -0.463921
0.22982787 -0.030533945 0.067597464 -0.02838198 0.066256434 -0.20083933 -0.13231061 -0.39173692
0.02315173 0.12765585 0.11483925 0.0065881237 -0.26415643 -0.17374797 0.24025196 0.66741955
-0.21619307 0.015308761 0.2720268 0.082926735 0.054008376 -0.08798046 -0.26441967 0.08674651
-0.22971918 -0.5298577 -0.23263186 -0.06884135 0.015124198 -0.4337183 -0.23230532 0.11138045
-0.17534088 -0.47594815 0.01850977 0.16975899 0.09351906 0.06912796 -0.033317994 0.32924628
-0.2876323 0.23978937 -0.23367448 -0.31357402 0.31777236 0.041048557 0.33406144 0.13016881
00000000: 012c 89be e579 cabd e48b 0e3e 5ec9 3cbe
00000010: dfc0 703e d330 afbe b03e e0bc bfdb 9b3e
00000020: 689b c5be e36d 393e ddbf e73c 75a7 863e
00000030: 907e 843b c6a1 1d39 b823 2b3f 2c3e 5ebe
00000040: 25b0 1cbe 611f aebd 906e ffbb 2e43 7bbf
00000050: d79e 0a3e 43fe 993e 6537 123e 7f46 3ebf
00000060: bc38 46bd 55e0 72be 18c1 bebe fb5e b0be
00000070: 2d66 7abe e4ae 483e ef32 043e 4bfa c13e
00000080: 7129 5bbe 6c82 2f3e d554 d33c 487a 9dbe
00000090: 1e15 c2be cef9 bcbc e9d5 a73e d9bc 7fbf
000000a0: d3c8 92bf 16c4 743d f4c5 1f3f 1fec 5dbe
000000b0: 1d83 31be 3e77 8ebf 7c08 b33d c97d e2bc
000000c0: 3e8e 9e3e dcff ec3e 1b47 babd ae0f 13be
000000d0: 41fd 0bbe a112 d63e 13ea 11bf 4dec eb3c
000000e0: 0b85 babd 2bdb cc3d 3878 1cbf 438a cfbd
000000f0: c002 423f 7808 bc3e 067d e8bd 04b5 6f3e
00000100: 558f f43e a01e e03e ba7e 27bf 7e94 ddbd
00000110: 7c9c 583d 9337 fa3d a0a5 933e 3a6b 1dbe
00000120: 80f7 72bf 8546 7b3b d2a8 bebe d982 743d
00000130: 552b 03be 8447 f53e 8b03 90be 784f 5e3c
00000140: 3897 ce3d d8ea acbd 3890 0dbd 4f8e 88be
00000150: 50e7 f13e 41b3 eabd eff2 f63d 2ca9 083f
00000160: 7290 9cbb b9c7 8a3c 3300 5f3e c030 2fbc
00000170: 173d c7be 0918 6ebd d78a f73e 7d4f 16be
00000180: dd19 8e3e b4d0 3e3e 0f0e ac3d 8b5d 05bf
00000190: 40dc 2b3f f088 e2bd ac97 cb3e b7bb a63e
000001a0: 1ca8 ebbd 20cf 87be f559 49be 42b3 063d
000001b0: 28cc 43be f09c 233f 428f 4f3e d287 54be
000001c0: 0dcd a1be a72c 8b3d 0fd1 acbe 7950 c4bd
000001d0: 619d d03e 5920 7d3e 26d0 dbbd 7530 003e
000001e0: f189 e73e 2d3b dbbd 178d af3d 66b6 f03d
000001f0: be81 25be 448e 95be ccf5 dfbd e470 29bd
00000200: 65b8 843d 5f41 583e 1620 c83c e034 213e
00000210: 422f 9bbe 884c 93be 69f2 143f ad60 abbd
00000220: a10c abbd 02db aabe 78ac ffbe 9ad1 c5be
00000230: f63e 3ebe 8543 fd3d 5241 c3bd 20a8 58be
00000240: e723 e0be 3404 383e 8113 1dbe c13e f33d
00000250: 6e9a 2f3e 7ed2 8dbd 5636 a0be 9a14 0dbf
00000260: 7942 06be 0dc8 4c3e 3331 42bd a9a3 e33d
00000270: 7b0a 9bbe 7627 87be 7630 8cbe d33e ec3e
00000280: 7f0f 743e a331 ef3e 0c69 413e 93ce 26bd
00000290: 5a27 10be 13b0 65be 850d 3bbd 7491 29be
000002a0: c0ff b3bd 8672 d3be fd7f 80be eea6 803e
000002b0: 85d3 2f3d e7a4 b13d 93b2 ed3d ecc8 e0bc
000002c0: 72d7 09be 7f13 433e 1aaa e6bc bc76 ccbd
000002d0: b02d b43d 2460 5b3e f417 fdbe 6682 203e
000002e0: 0fb9 c23c 6c30 043f 764a d7bd ae90 943e
000002f0: 80da 073f b604 cc3e 59a9 b43d 657b ee3e
00000300: 4d4d 87be de3b 543e d310 ca3e 32a8 cc3e
00000310: fb60 d1be 0bbd 5c3a b65c 833e dca8 5e3e
00000320: d2fb 52be d7ce efbe 4021 7fbd 68ed abbe
00000330: 1a6a b8bd 2e48 dabe 1934 a33d 0e87 edbe
00000340: ff57 6b3e 5322 fabc 8a70 8a3d 5381 e8bc
00000350: 74b1 873d d3a8 4dbe 6f7c 07be be91 c8be
00000360: b2a8 bd3c 37b8 023e d730 eb3d 30e1 d73b
00000370: 833f 87be fdea 31be 9c04 763e 02dc 2a3f
00000380: b761 5dbe 99d1 7a3c 1947 8b3e 7ed5 a93d
00000390: e337 5d3d 192f b4bd 0462 87be 27a8 b13d
000003a0: 813b 6bbe c1a4 07bf 0c37 6ebe b2fc 8cbd
000003b0: 7ccb 773c 5310 debe 72e1 6dbe 6f1b e43d
000003c0: 8f8c 33be 7aaf f3be cda1 973c 4dd5 2d3e
000003d0: ec86 bf3d f692 8d3d 7378 08bd f892 a83e
000003e0: 8a44 93be 588b 753e 5d48 6fbe c68c a0be
000003f0: 0fb3 a23e 8822 283d 1a0a ab3e f94a 053e

fc.bias f4 [27]
-0.13762206 -0.008939114 -0.3848352 -0.082295045 -0.33395684 0.05917798 -0.45234594 -0.23800473
-0.14545579 0.03766477 -0.39847705 -0.22281143 -0.14582172 -0.2861808 -0.15370572 0.034115877
-0.16530079 -0.28504178 -0.03419015 -0.099341296 -0.055528518 0.10045902 -0.31748417 -0.30121288
-0.42470697 -0.1470335 -0.47986186
00000000: ccec 0cbe 5d75 12bc 1f09 c5be 4e8a a8bd
00000010: 64fc aabe 9c64 723d e399 e7be 83b7 73be
00000020: 5df2 14be 6046 1a3d 2f05 ccbe ae28 64be
00000030: 4a52 15be 4a86 92be 0865 1dbe 17bd 0b3d
00000040: 9c44 29be fff0 91be f90a 0cbd 7373 cbbd
00000050: df71 63bd 75bd cd3d 498d a2be 9338 9abe
00000060: 3173 d9be f38f 16be 74b0 f5be
