models/char_rnn/Dino_Names_Scratch.pth (torch_old, 44459 bytes, 6 tensors)

i2h.weight f4 [64, 91]
0	0x4079e35b	3.9045017
1	0xbe4da1ac	-0.20081204
2	0x3d4a1744	0.049338594
3	0xbdcabc67	-0.09899216
4	0xbebfa5fc	-0.37431324
5	0xbda91eec	-0.08257851
6	0xbeae02fb	-0.3398665
7	0x3e89c330	0.2690673
8	0x3db3e712	0.087843075
9	0x3dd8b721	0.10581804
10	0x3d27493b	0.040841322
11	0xbe0641cd	-0.13111039
12	0xbd3f8beb	-0.046764296
13	0x3e058267	0.13038026
14	0x3d41e0c9	0.047333512
15	0x3e32e85e	0.17471454
16	0xbcdac83b	-0.026706805
17	0x3ee4fa9b	0.44722447
18	0x3e85d1bf	0.26136586
19	0x3cf97236	0.030449968
20	0xbe89dd4c	-0.2692665
21	0x3e0c33d2	0.13691643
22	0x3d995bbd	0.07488201
23	0x3ea4b5ec	0.32170045
24	0x3f0047d2	0.5010959
25	0xbdd0192d	-0.10161052
26	0x3d268a4d	0.040659238
27	0xbe010083	-0.12597851
28	0x3e8ab8b3	0.2709404
29	0xbc45ba01	-0.012068273
30	0xbc9429b7	-0.018086297
31	0xbd7582d7	-0.05993923
32	0x3d999719	0.07499523
33	0x3da4dd4d	0.08050022
34	0xbc861103	-0.016365534
35	0xbd1a96af	-0.03774136
36	0x3dfd90bc	0.123811215
37	0xbdafe20c	-0.08588037
38	0x3b14e1b8	0.0022717547
39	0xbce4a8fe	-0.027912613
40	0xbd111671	-0.035421792
41	0x3d835ba9	0.06413967
42	0xbdf2f43c	-0.1186299
43	0xbe475ec7	-0.19469748
44	0x3d5df9be	0.05419325
45	0x3d85d604	0.06534961
46	0xbda9d6dc	-0.08292934
47	0x3e16be56	0.14721045
48	0xbd74acf8	-0.05973527
49	0x3ce77d18	0.028257892
50	0xbda02179	-0.078188844
51	0x3dd15243	0.10220768
52	0xbda06708	-0.07832152
53	0xbde62ca3	-0.112389825
54	0x3da36aec	0.07979378
55	0xbd637a17	-0.055536356
56	0x3c87a756	0.016559284
57	0xbc3aa0d0	-0.01139088
58	0x3d79c0b8	0.060974807
59	0xbe0c9cbe	-0.13731667
60	0xbd04ce3b	-0.03242324
61	0x3d00d8c0	0.03145671
62	0x3dbb3136	0.091402456
63	0x3e2624e1	0.16225006
64	0xbcaebf41	-0.021331431
65	0xbe3ac0b5	-0.18237574
66	0x3cb6bf48	0.022308007
67	0x3e04f5ce	0.12984392
68	0x3cecdaaa	0.02891286
69	0x3dc0e968	0.09419519
70	0xbe14640e	-0.14491293
71	0xbc5753e2	-0.013142558
72	0xbd6bbcd0	-0.057553113
73	0x3e1fde37	0.15612112
74	0xbcc91f4c	-0.024551056
75	0x3d68c9f2	0.056833215
76	0xbdc263e2	-0.094917074
77	0xbc687482	-0.014187934
78	0x3e1269c6	0.14298162
79	0x3dd2acc7	0.10286861
80	0xbd74c326	-0.05975642
81	0xbd8edf03	-0.0697613
82	0x3dbe46a1	0.09290815
83	0x3e2e61e9	0.17029537
84	0xbceed010	-0.029151946
85	0xbdbcdded	-0.092220165
86	0xbc349ed5	-0.011024197
87	0x3d3ec25f	0.046572085
88	0x3ddf8e61	0.109158285
89	0x3dc2502a	0.09487946
90	0x3c23e1a5	0.010002528
91	0x3f7a8e72	0.97873604
92	0x3e2a2371	0.16615082
93	0xbd94ada1	-0.072596796
94	0xbeab2d2d	-0.33432904
95	0xbe9eb16a	-0.3099473
96	0x3d169a38	0.03676817
97	0xbbc4481f	-0.005990043
98	0xbebad6ab	-0.36491904
99	0xbe7291c5	-0.23688419
100	0x3e12846d	0.14308329
101	0xbd5ee0c0	-0.054413557
102	0xbd267606	-0.0406399
103	0x3cbc44e3	0.022982066
104	0xbebdbfb0	-0.37060308
105	0xbe19d198	-0.1502136
106	0x3ec98771	0.39361146
107	0x3db956cb	0.090497576
108	0xbe1e911d	-0.15485044
109	0x3d838816	0.06422441
110	0xbec1bc78	-0.37839103
111	0x3e1cbb23	0.15305762
112	0x3ea06ce1	0.31333068
113	0x3c81e83c	0.015857808
114	0x3e13bb38	0.14426887
115	0xbe59cb03	-0.21268849
116	0x3e8a1304	0.26967633
117	0x3d35f485	0.044422645
118	0xbc7ed14d	-0.015552831
119	0xbd2a45c3	-0.041570436
120	0xbdb9c5ff	-0.09070968
121	0x3d0e968c	0.03481154
122	0xbd24056f	-0.040044244
123	0x3cad0802	0.021121982
124	0xbca6cc84	-0.020361193
125	0xbd91cf10	-0.07119572
126	0xbde2f534	-0.11081925
127	0x3c6f373b	0.01460057
128	0xbbb64c2d	-0.00556328
129	0xbcdbcda4	-0.026831456
130	0xbe04bb7f	-0.12962149
131	0x3cea6a8d	0.02861526
132	0xbdc33362	-0.09531285
133	0xbcc16505	-0.02360774
134	0x3d97a8de	0.07405256
135	0xbd004a49	-0.031320844
136	0xbda9d7e2	-0.082931295
137	0x3d4be4e0	0.04977882
138	0xbdc0e0b2	-0.09417857
139	0x3d901c6c	0.07036671
140	0xbc6aea60	-0.014338106
141	0xbd8c5ec9	-0.06854016
142	0xbe08f3d7	-0.13374268
143	0x3d842805	0.064529456
144	0x3d80ea0e	0.062946424
145	0x3e01f14c	0.12689704
146	0x3d96d732	0.07365264
147	0x3d1dcf01	0.038527492
148	0x3da8c52d	0.08240733
149	0x3d4fba0f	0.05071455
150	0x3d970884	0.07374671
151	0x3d5c7621	0.053823594
152	0xbdaed571	-0.085368045
153	0xbdc79f0f	-0.09747135
154	0xbe3f5cad	-0.18687697
155	0xbdb83c4b	-0.08995875
156	0xbdaa61e4	-0.083194524
157	0x3d8f3889	0.06993205
158	0xbc719cf0	-0.0147468895
159	0xbcfe9873	-0.031078553
160	0xbe01a8cb	-0.12662046
161	0x3d24a4b6	0.040196143
162	0x3d44849c	0.04797803
163	0x3d06e3b9	0.032932017
164	0x3dce49c0	0.100726604
165	0x3ae26357	0.0017272037
166	0xbcb4b8f6	-0.022060852
167	0x3da3cf14	0.079984814
168	0x3d535ec2	0.05160404
169	0xbbb626e7	-0.0055588367
170	0x3dd414a5	0.103555
171	0xbdae0e34	-0.08498803
172	0xbe00efbf	-0.12591456
173	0xbdd6c1fa	-0.10486217
174	0xbd96041b	-0.07325002
175	0xbe0b86f8	-0.13625705
176	0xbdadec84	-0.084923774
177	0x3daaf9bb	0.083484136
178	0x3db1ed2d	0.08687816
179	0xbddb01f4	-0.10693732
180	0xbe5bed0d	-0.21477146
181	0x3d35bc56	0.044369064
182	0x405a3457	3.4094446
183	0x3ce0b1be	0.027428504
184	0x3e0d2779	0.13784589
185	0x3e52ba19	0.20578803
186	0x3e48d8f8	0.19614017
187	0xbe3f92f3	-0.187084
188	0x3e2e94af	0.17048906
189	0x3d3150d3	0.04328997
190	0xbdc210d8	-0.09475869
191	0x3ccfc005	0.025360117
192	0xbd5b8522	-0.053593762
193	0x3e1203c8	0.14259255
194	0xbe01b31b	-0.1266598
195	0x3e02be0e	0.12767813
196	0x3bff16fd	0.007784723
197	0x3d2ffaa3	0.042963635
198	0xbd8ff741	-0.07029582
199	0xbe563b1c	-0.20920986
200	0xbe8ab8b1	-0.27094033
201	0xbdc20170	-0.094729304
202	0x3dcd9b7d	0.10039423
203	0xbc1eedba	-0.009700233
204	0x3e5b5f0c	0.21422976
205	0xbf0bbcbe	-0.5458487
206	0xbed77c22	-0.42086893
207	0xbe9ed966	-0.31025237
208	0xbe28ff9b	-0.16503756
209	0xbd65fb6f	-0.05614799
210	0x3cf8a5ab	0.030352434
211	0xbd78d40f	-0.06074911
212	0xbcb863b8	-0.022508487
213	0x3d1ec6e1	0.038763884
214	0x3cde08b5	0.027103761
215	0xbd2019e1	-0.03908718
216	0x3c85b0dd	0.016319687
217	0xbdc0f82d	-0.09422336
218	0xbc26b114	-0.010174055
219	0xbd1062d2	-0.035250492
220	0x3dd6c40a	0.1048661
221	0x3c124805	0.008928304
222	0xbdb7ed04	-0.08980754
223	0xbc66a36d	-0.01407705
224	0xbd255b0c	-0.040370032
225	0x3c9d01bd	0.019165868
226	0xbcf262a0	-0.029588044
227	0xbdf105e3	-0.11768701
228	0x3d8501dc	0.06494495
229	0x3af7ecc2	0.0018915164
230	0xbc5627e1	-0.013071031
231	0x3d21f617	0.03954133
232	0xbd8924b0	-0.06696451
233	0x3d40ae10	0.047041
234	0x3dd12839	0.1021275
235	0xbd6f9b70	-0.058497846
236	0x3bc09cc1	0.0058780615
237	0xbd5a0f14	-0.053237036
238	0xbc66878d	-0.014070404
239	0xbd9a898f	-0.075457685
240	0xbb6e32de	-0.0036346237
241	0x3c2d4230	0.010574862
242	0xbdb48735	-0.08814851
243	0xbbc979e3	-0.006148563
244	0x3c989a02	0.018628124
245	0x3ccabeb0	0.02474913
246	0x3db1058f	0.08643638
247	0x3c6255a9	0.013814368
248	0x3d6c4c31	0.05768985
249	0xbdea6741	-0.11445475
250	0x3aa90e5c	0.0012897956
251	0xbdff9650	-0.12479842
252	0x3dcfa2d7	0.10138481
253	0x3d0696a3	0.032858502
254	0x3e209576	0.15682015
255	0xbd7af7ef	-0.061271604

i2h.bias f4 [64]
0	0xbd80f940	-0.06297541
1	0x3c015435	0.007893612
2	0x3beb34d1	0.007177927
3	0x3e00f978	0.12595165
4	0x3e4bf203	0.19916539
5	0xbd878eab	-0.06619009
6	0x3dccc0f1	0.09997738
7	0x3d9eec5b	0.07759925
8	0xbd4974ef	-0.049183782
9	0x3dbcc356	0.09216945
10	0xbbf70a44	-0.0075390656
11	0x3de702ac	0.112798065
12	0xbdeafcd1	-0.11474002
13	0xbb3b3e41	-0.0028571042
14	0x3ca5be5d	0.020232374
15	0xbcbfde34	-0.023421384
16	0xbe0e2efb	-0.13885109
17	0x3e46149d	0.19343801
18	0x3c3228f6	0.010874024
19	0x3d8c010a	0.06836136
20	0x3cc642c6	0.024201762
21	0xbbdc57a2	-0.006724314
22	0xbdd88f3f	-0.10574197
23	0x3d664bf1	0.056224767
24	0x3dbd4fc0	0.09243727
25	0xbbc8af98	-0.006124448
26	0xbe00d4c0	-0.12581158
27	0xbe01ea03	-0.12686925
28	0x3d2780c5	0.04089429
29	0x3d812cbe	0.06307362
30	0xbdab2d47	-0.08358245
31	0x3d8d906f	0.06912314
32	0x3df58937	0.11989062
33	0xbdbb83de	-0.09156011
34	0xbdc8c320	-0.09802842
35	0x3caba0df	0.020950733
36	0xbd1a9075	-0.03773542
37	0xbc5378fd	-0.012907264
38	0xbd66b8fd	-0.056328762
39	0x3c545f6d	0.012962204
40	0x3d3de9cb	0.04636554
41	0xbd72f2b5	-0.059313495
42	0x3e77b9ed	0.24192019
43	0x3dd2ad16	0.1028692
44	0x3e061bcb	0.1309654
45	0xbc4df3d0	-0.012570336
46	0xbd0296ea	-0.031882204
47	0xbdf709b7	-0.120624
48	0x3d5b9e97	0.05361804
49	0x3d8c9bd9	0.06865663
50	0xbd81f466	-0.063454434
51	0x3caf26fb	0.021380892
52	0x3c9edfb1	0.019393774
53	0xbbc5d689	-0.0060375375
54	0x3d90dfd1	0.070739396
55	0x3cc7d088	0.024391428
56	0x3d555800	0.052085876
57	0xbe2de535	-0.16981967
58	0xbd882965	-0.066485204
59	0xbe5382a9	-0.20655312
60	0x3d58de78	0.052946538
61	0xbb82081c	-0.003968252
62	0x3d4c5678	0.04988715
63	0xbdb435fa	-0.08799358

i2o.weight f4 [27, 91]
0	0xbf6c1e39	-0.92233616
1	0x3f183d17	0.59468216
2	0xbf088ba0	-0.5333805
3	0xbea6b77f	-0.3256187
4	0xbefbc357	-0.4917247
5	0x3ec81ef6	0.3908612
6	0xbe9a8b6b	-0.30184492
7	0xbe221f79	-0.15832318
8	0xbf131b13	-0.57463187
9	0x3e8bdb53	0.2731577
10	0xbf055e69	-0.52097183
11	0xbf2624cd	-0.64899904
12	0xbd5d6630	-0.05405253
13	0xbe689e91	-0.22716738
14	0x3dba09a6	0.090838715
15	0x3ec2a908	0.38019586
16	0xbdd59e69	-0.10430605
17	0xbef7883a	-0.4834612
18	0xbee31e65	-0.44359127
19	0xbe97c108	-0.2963946
20	0xbf4b6a5d	-0.7945917
21	0x3cc051d1	0.023476513
22	0xbf0f9609	-0.5608831
23	0xbea0f69d	-0.3143815
24	0xbea46b31	-0.3211303
25	0x3e8ff237	0.28114483
26	0xbf1a5203	-0.6028139
27	0xbe4f0ce5	-0.20219763
28	0x3d345365	0.044024844
29	0xbdd7c549	-0.10535676
30	0xbc8a0327	-0.016847206
31	0x3eb501e2	0.35353
32	0xbe3378f9	-0.17526616
33	0xbce3d5da	-0.027811933
34	0x3d6266ac	0.055273697
35	0x3e1db93c	0.15402693
36	0x3da50d93	0.0805923
37	0xbdec89d1	-0.11549724
38	0x3d575b73	0.052577447
39	0xbdd4808d	-0.103760816
40	0x3dfefb83	0.12450316
41	0xbd4ca86d	-0.04996531
42	0xbdc3fd39	-0.09569783
43	0x3c42062f	0.011842295
44	0xbd879a25	-0.066211976
45	0x3d93b640	0.07212496
46	0x3bcad4f1	0.0061899354
47	0x3cb74e01	0.022376062
48	0xbcf573cc	-0.029962443
49	0xbdcb5b10	-0.09929478
50	0xbd29b1d4	-0.041429356
51	0x3dbe7b36	0.09300844
52	0xbd88f8f0	-0.06688106
53	0xbd84b6c7	-0.064801745
54	0xbe40dcf6	-0.1883429
55	0xbc009578	-0.007848136
56	0x3d9ae1fa	0.07562633
57	0x3de8d240	0.11368227
58	0x3c76d061	0.01506433
59	0xbd5a15e9	-0.05324355
60	0xbda40631	-0.080089934
61	0x3db70f04	0.08938411
62	0xbde4505e	-0.11148141
63	0xbc861f23	-0.016372269
64	0x3d4d871a	0.05017767
65	0x3db9963f	0.0906186
66	0xbd7ddefd	-0.061980236
67	0xbde10fa8	-0.10989314
68	0x3d6663bb	0.056247454
69	0x3e5cc337	0.21558844
70	0x3e0e2d4c	0.13884467
71	0x3d8eebcd	0.06978569
72	0xbe06291d	-0.13101621
73	0x3c8c8e61	0.017157735
74	0x3d45effb	0.048324566
75	0xbd58c0cf	-0.05291825
76	0x3d17ace0	0.0370301
77	0x3be39092	0.0069447244
78	0xbbc054a2	-0.005869464
79	0xbd754142	-0.059876688
80	0x3d109f8b	0.035308402
81	0xbe1715b5	-0.14754374
82	0x3d96bf8c	0.073607534
83	0xbbdb2622	-0.0066878954
84	0xbdecd8f7	-0.1156482
85	0x3cbcafca	0.023033042
86	0x3dbc6dbe	0.09200619
87	0x3d619ff8	0.0550842
88	0x3d452eb1	0.04814023
89	0xbd494dbd	-0.049146403
90	0x3db241b8	0.08703941
91	0xc02672e7	-2.600763
92	0x3d1aa5ac	0.037755653
93	0x3c848079	0.016174542
94	0x3e5d2d9b	0.21599428
95	0x3eba39d4	0.36372244
96	0x3e0d199d	0.13779302
97	0x3ece9d6b	0.40354475
98	0xbe9bf693	-0.3046156
99	0x3bc633d2	0.006048658
100	0xbe837320	-0.2567377
101	0x3c70ac95	0.014689584
102	0x3e2ededc	0.17077202
103	0x3ecac96b	0.39606795
104	0xbecb46e9	-0.39702538
105	0x3de8f58a	0.11374958
106	0xbe259412	-0.16169766
107	0x3e137664	0.14400631
108	0x3e4fc276	0.20289025
109	0xbe42d713	-0.19027357
110	0xbe5c4cb1	-0.2151363
111	0x3dbc10fe	0.091829285
112	0x3d9b0a4e	0.07570325
113	0xba819058	-0.0009884937
114	0xbeaa4611	-0.3325658
115	0xbf1580e9	-0.58399826
116	0xbe0c55e9	-0.13704647
117	0xbd73af7f	-0.059493538
118	0xbec863e1	-0.39138702
119	0xbd35c453	-0.044376682
120	0xba0e2c13	-0.00054234377
121	0x3ddd3e37	0.10802882
122	0xbd15ad43	-0.03654219
123	0xbe104407	-0.1408845
124	0xbe97d4c1	-0.29654506
125	0xbe6c079c	-0.23049778
126	0x3d3b18ca	0.045677938
127	0x3e29d53e	0.16585252
128	0xbde2355c	-0.11045334
129	0xbd306cbe	-0.043072455
130	0xbc9f5306	-0.019448768
131	0x3d724ac4	0.059153333
132	0x3dfb771f	0.1227858
133	0xbdf409e9	-0.11915953
134	0xbd6044d4	-0.05475314
135	0xbdb67a37	-0.089100294
136	0x3db8e622	0.09028269
137	0x3e04e6ce	0.1297867
138	0xbe1feb86	-0.15617189
139	0x3c1622dd	0.0091635855
140	0x3af9b57d	0.001905128
141	0x3e16c1ac	0.14722317
142	0x3d2e40f1	0.0425424
143	0xbce7fc9a	-0.028318692
144	0x3dad17a7	0.08451777
145	0xbe2245be	-0.15846917
146	0xbd727f06	-0.05920317
147	0xbc595224	-0.013264213
148	0x3bd98d9f	0.006639197
149	0xbe0fbe01	-0.14037324
150	0xbe07c455	-0.13258488
151	0x3cf6cd82	0.03012729
152	0xbd9a9dbb	-0.07549616
153	0xbe1e35eb	-0.15450256
154	0x3e0e5bea	0.1390225
155	0xbe06254d	-0.13100167
156	0x39003b7e	0.00012229194
157	0xbc79301a	-0.015209222
158	0xbe19127e	-0.1494846
159	0xbe066ff0	-0.13128638
160	0x3d6c6b25	0.05771937
161	0xbdc4d502	-0.096109405
162	0x3e21f236	0.15815052
163	0x3dba113e	0.0908532
164	0xbd8969cb	-0.067096315
165	0x3e80b246	0.25136012
166	0xbda1d082	-0.07901098
167	0xbd1f85ec	-0.038946077
168	0x3de1e0e7	0.11029225
169	0x3d8a1a23	0.067432664
170	0xbddf9449	-0.10916955
171	0xbd3f41cc	-0.04669361
172	0xbe18aa14	-0.1490863
173	0x3dbf86c9	0.0935188
174	0xbd5e3e3b	-0.054258566
175	0xbdaa78c7	-0.08323818
176	0xbe603c53	-0.21898012
177	0x3dc13f1e	0.09435867
178	0x3d935d94	0.07195583
179	0xbde17bbb	-0.11009928
180	0x3d771075	0.06031843
181	0x3dbac207	0.09119039
182	0xc083aba7	-4.1147037
183	0x3e88149a	0.26578218
184	0xbb45300a	-0.0030088448
185	0xbedbaf2f	-0.42907092
186	0xbe6807f9	-0.22659291
187	0x3ef52b22	0.4788447
188	0x3d0cf7a7	0.034415867
189	0x3e095540	0.13411427
190	0xbd4d9651	-0.05019218
191	0x3d6e8de1	0.058240775
192	0xbe8a9706	-0.27068347
193	0xbda14dd6	-0.07876174
194	0x3cd0f60c	0.02550795
195	0xbe86b58e	-0.2631039
196	0xbf006326	-0.5015129
197	0x3da47913	0.080309056
198	0x3c89ce07	0.016821874
199	0x3e85ad89	0.2610896
200	0xbebd0be0	-0.36923122
201	0xbf141807	-0.5784916
202	0xbee9a3c7	-0.45632765
203	0xbcc7fa2f	-0.024411289
204	0xbebe1357	-0.3712413
205	0xbe58abff	-0.21159361
206	0xbf2c3e3f	-0.6728248
207	0x3eca7f71	0.39550355
208	0xbe3d3792	-0.1847823
209	0xbd42135c	-0.047381744
210	0xbe5d6849	-0.21621813
211	0xbdffee76	-0.12496655
212	0x3c8f9de3	0.017531341
213	0x3d3c16de	0.045920245
214	0x3e248252	0.16065338
215	0xbd5771ea	-0.05259887
216	0xbb672266	-0.0035268306
217	0x3d51836d	0.051150728
218	0xbdd6b9b4	-0.10484639
219	0xbe4f2a3e	-0.20230958
220	0xbd913a5d	-0.0709121
221	0x3c701675	0.014653792
222	0xbca88e27	-0.020575596
223	0xbb2c8e3a	-0.002632989
224	0xbd093262	-0.033495314
225	0x3da34d0e	0.079736814
226	0xbe15f6f1	-0.14644982
227	0xbe5a9dce	-0.2134926
228	0xbe835a3f	-0.2565479
229	0xbb039d8b	-0.0020082917
230	0xbe2a6707	-0.16640864
231	0xbd200f7b	-0.039077263
232	0x3dee40f4	0.116334826
233	0xbe04c555	-0.12965901
234	0xbd944ded	-0.07241426
235	0x3e424c9f	0.18974541
236	0x3d25d46e	0.04048579
237	0x3d8ae052	0.06781067
238	0x3d88ebe3	0.06685617
239	0x3c0af030	0.008480117
240	0xbc9315ad	-0.017954672
241	0xbdc2cd88	-0.09511858
242	0xbd3a62e6	-0.045504473
243	0x3c40f86a	0.0117779765
244	0x3bd1c50b	0.006401663
245	0x3cdadd7d	0.026716942
246	0x3d825ac0	0.063649654
247	0x3d9ba3ea	0.075996235
248	0x3d752cd2	0.059857197
249	0x3dfa66ca	0.12226637
250	0xbdda74c3	-0.10666802
251	0xbe1d45e3	-0.15358691
252	0xbbac409f	-0.005256727
253	0x3d3584c0	0.044316053
254	0x3b1e0405	0.0024111283
255	0xbe731c99	-0.23741378

i2o.bias f4 [27]
0	0xbea4351a	-0.32071763
1	0xbdad7ac9	-0.08470685
2	0xbde60a6c	-0.112324566
3	0x3e4e30e3	0.20135836
4	0xbe59c76e	-0.21267483
5	0xbdcf2139	-0.101137586
6	0x3e88a6b7	0.26689693
7	0xbebc1a17	-0.36738655
8	0x3e0c8067	0.13720857
9	0xbe296604	-0.16542822
10	0x3e37b94c	0.17941779
11	0xbe0f08b4	-0.13968164
12	0xbd815b0c	-0.06316194
13	0x3e569db4	0.20958596
14	0xbe8ac7a7	-0.27105448
15	0x3c83fb4b	0.016111037
16	0x3db46a34	0.08809319
17	0xbe63a434	-0.22230607
18	0xbe2f05b4	-0.1709202
19	0x3e84f7cf	0.25970313
20	0x3e2b8e32	0.16753462
21	0x3d094fbf	0.033523317
22	0xbea96dca	-0.33091575
23	0xbe9a9a29	-0.3019574
24	0x3e967bed	0.29391423
25	0x3ea04cf7	0.3130872
26	0xbdd6738a	-0.10471256

o2o.weight f4 [27, 91]
0	0x3dc00919	0.09376735
1	0xbea86d9c	-0.32896125
2	0xbd0b138d	-0.033954192
3	0xbe627ab5	-0.22117122
4	0xbdea32a9	-0.11435444
5	0x3eade4cf	0.3396363
6	0xbdc993a2	-0.09842612
7	0xbe0274aa	-0.12739816
8	0x3cebb458	0.028772518
9	0x3cc7a262	0.024369422
10	0xbe81a722	-0.25322825
11	0xbe919cb2	-0.28439862
12	0x3ee93183	0.45545587
13	0x3ed52e27	0.41636774
14	0xbe07bd93	-0.1325591
15	0x3e374800	0.1789856
16	0x3ec1005a	0.3769558
17	0xbf293045	-0.6608928
18	0xbdbfd504	-0.093668014
19	0xbed6bf4a	-0.41942817
20	0xbe166608	-0.1468736
21	0xbdc6a511	-0.09699453
22	0x3d99d341	0.075109966
23	0xbe90fadd	-0.28316393
24	0x3e15c438	0.14625633
25	0x3cba282b	0.022724232
26	0x3f207ad2	0.6268741
27	0x3dad466d	0.08460698
28	0x3dce6bba	0.10079141
29	0x3ece62e7	0.40309832
30	0x3e26a8e0	0.16275358
31	0x3dc1ec37	0.094688825
32	0x3de10b34	0.10988465
33	0x3f0d4d04	0.5519564
34	0x3e9dfd62	0.30857378
35	0xbe0ede22	-0.13951924
36	0xbe0e6ebc	-0.1390943
37	0x3e827c24	0.25485337
38	0xbe21d909	-0.15805449
39	0x3d07976e	0.0331034
40	0x3e7b8b73	0.24564914
41	0x3dbecb2c	0.09316096
42	0xbf19c651	-0.6006823
43	0xbd35a4b7	-0.044346537
44	0xbe88f4c0	-0.2674923
45	0xbedd8d68	-0.43271947
46	0x3dbcc5ee	0.092174396
47	0xbe64857f	-0.2231655
48	0xbdd3f9ed	-0.10350404
49	0x3d1aff22	0.03784097
50	0x3ccf9326	0.02533872
51	0xbe4e88f4	-0.20169431
52	0x3e22d011	0.15899684
53	0x3e0cf508	0.13765347
54	0x3d12c45c	0.035831794
55	0xbd7dbc04	-0.061946884
56	0xbd8fefc4	-0.070281535
57	0x3edc9233	0.4308029
58	0xbe598279	-0.21241178
59	0x3d83d7ce	0.06437646
60	0xbd16fa8d	-0.036860038
61	0xbddf9d16	-0.10918634
62	0xbe0ca4cf	-0.13734744
63	0xbe31c1bf	-0.17359065
64	0x3e941d81	0.2892876
65	0xbe08b07b	-0.13348572
66	0x3cd62541	0.02614081
67	0xbe5ac9da	-0.21366063
68	0x3ed6162b	0.41813788
69	0x3c817436	0.015802484
70	0xbeba76c7	-0.36418745
71	0x3e795883	0.24350171
72	0x3e262408	0.16224682
73	0xbe1f7ac3	-0.15574174
74	0x3e39b133	0.18134002
75	0xbe0165be	-0.12636468
76	0x3c95739a	0.0182436
77	0xbefe18fb	-0.49628434
78	0x3f3968e2	0.72425663
79	0x3eebf549	0.46085575
80	0x3d407a51	0.04699165
81	0x3d128e3d	0.03578018
82	0xbace5b7e	-0.001574382
83	0xbdba1022	-0.09085108
84	0x3d6368f5	0.055520017
85	0x3e42b16d	0.19012995
86	0x3f478ade	0.7794627
87	0x3eff6ceb	0.49887785
88	0xbf220dbc	-0.63302207
89	0xbe799796	-0.24374232
90	0x3dc7e163	0.09759786
91	0x3d37ab23	0.044840943
92	0xbe4719d8	-0.19443452
93	0xbdc9fab8	-0.09862274
94	0xbdd65169	-0.104647465
95	0xbe5a43d4	-0.21314937
96	0xbe2ea241	-0.17054082
97	0x3e47640d	0.1947176
98	0x3d826d70	0.0636853
99	0x3d1579fb	0.036493283
100	0x3c6030a2	0.01368347
101	0x3d33c293	0.043886732
102	0xbd2445f4	-0.040105775
103	0xbda424c9	-0.08014829
104	0x3d41f1aa	0.04734961
105	0xbc4708c5	-0.012148087
106	0x3da54781	0.08070279
107	0xbd13f622	-0.036123402
108	0x3e3e55fb	0.18587486
109	0xbe7c689d	-0.24649282
110	0x3d9864f2	0.07441129
111	0x3e1fa0f5	0.15588744
112	0xbbe4df9a	-0.006984663
113	0xbe7a1850	-0.24423337
114	0x3db7a9f8	0.08967966
115	0xbd5c2d49	-0.053754125
116	0xbe19308e	-0.14959928
117	0xbd1d7242	-0.038439043
118	0xbdbafa4c	-0.091297716
119	0x3cd6c670	0.02621767
120	0x3e87d63d	0.26530638
121	0x3e317321	0.17329074
122	0xbdfc3251	-0.123142846
123	0xbd444ce0	-0.047924876
124	0xbe126ede	-0.14300105
125	0xbe47d3d1	-0.19514395
126	0x3dde6971	0.10859955
127	0xbc8c5037	-0.017128093
128	0xbe075f2a	-0.13219896
129	0x3e34233f	0.1759157
130	0x3d5cf0ab	0.053940456
131	0xbcacf85e	-0.021114524
132	0xbcfc6454	-0.030809559
133	0x3d78ea20	0.060770154
134	0xbd5b7080	-0.053574085
135	0xbda461c2	-0.08026458
136	0xbe8552b8	-0.26039672
137	0x3cba04ce	0.02270737
138	0xbb6ffd43	-0.0036619462
139	0x3da287a4	0.07936028
140	0xbe51f7e7	-0.20504723
141	0x3daecd62	0.085352674
142	0xbd285fb1	-0.041106883
143	0xbc7d9342	-0.0154770035
144	0x3dea22c1	0.1143241
145	0x3da47361	0.08029819
146	0xbdf624fb	-0.12018772
147	0xbd446d22	-0.04795564
148	0x3db31f62	0.0874622
149	0x3cec21ac	0.02882465
150	0xbdb31da8	-0.08745891
151	0x3d8cc083	0.06872656
152	0x3e2e5b39	0.17026986
153	0x3d8616a8	0.0654729
154	0x3ea72494	0.32645094
155	0xbe8796b0	-0.26482153
156	0xbe035c4f	-0.12828182
157	0xbd5b876b	-0.05359594
158	0xbe028813	-0.1274722
159	0xbd60b417	-0.054859247
160	0xbe7e050b	-0.24806611
161	0xbd370787	-0.044684913
162	0xbe1deff1	-0.15423562
163	0xbe9941bb	-0.2993296
164	0xbe35f4e2	-0.17769197
165	0xbdd69a69	-0.1047867
166	0xbe86edb1	-0.2635322
167	0x3e2d2ab9	0.16910829
168	0xbe168187	-0.14697848
169	0xbe72b81f	-0.23703049
170	0x3e961f8a	0.29320937
171	0x3e819298	0.25307155
172	0xbe6d9172	-0.23200014
173	0xbcede97b	-0.029041996
174	0x3e83138b	0.25600848
175	0xbd626656	-0.055273376
176	0x3e5a714f	0.21332286
177	0xbeb0d53c	-0.34537685
178	0x3c9eb158	0.019371673
179	0x3d80f2b7	0.06296294
180	0xbd94c1f9	-0.0726356
181	0x3e10b85b	0.14132826
182	0x3d67b168	0.056565672
183	0xbe21e850	-0.15811276
184	0xbe6565da	-0.22402135
185	0xbd6afa18	-0.057367414
186	0xbe58f615	-0.21187623
187	0xbe7c879e	-0.24661109
188	0xbe6130af	-0.21991228
189	0x3e4e76fd	0.20162578
190	0x3dbc9d88	0.09209734
191	0xbe94796a	-0.28998882
192	0x3e10ecac	0.14152783
193	0xbddb2247	-0.10699897
194	0xbe151f98	-0.14562833
195	0xbe88f39d	-0.26748362
196	0x3d3224bd	0.043492068
197	0xbe2485c8	-0.16066658
198	0x3ec7bb43	0.39010057
199	0x3dbcf5b6	0.09226553
200	0x3e1c8b50	0.15287519
201	0x3e67c21e	0.22632644
202	0xbd23e51c	-0.040013418
203	0x3d9c2d0a	0.07625778
204	0x3dccb199	0.099948116
205	0x3dc01f4e	0.09380971
206	0xbd7d6119	-0.061860178
207	0x3e150416	0.1455234
208	0xbba7d7f4	-0.005122179
209	0x3e011fbc	0.12609762
210	0xbda9ac56	-0.082848236
211	0x3ccc1874	0.024914004
212	0x3e8fea80	0.28108597
213	0xbe9958f7	-0.29950687
214	0xbec7fab8	-0.3905847
215	0x3d01694f	0.03159457
216	0x3e3634a5	0.1779352
217	0xbe9155be	-0.2838573
218	0xbe840c24	-0.25790513
219	0x3e47b35e	0.19502017
220	0xbc4caaf3	-0.012491929
221	0xbed6c636	-0.41948098
222	0x3da928c1	0.08259726
223	0x3eaa6866	0.33282775
224	0x3da288f8	0.07936281
225	0xbe2ce9fa	-0.1688613
226	0xbe0b438c	-0.13599986
227	0x3d27a369	0.040927324
228	0xbcd651b4	-0.026162006
229	0xbd01fb3c	-0.031733736
230	0xbcff07a5	-0.031131575
231	0xbd6738ee	-0.056450777
232	0x3e9622f2	0.29323536
233	0xbe82ff11	-0.25585225
234	0xbd344388	-0.044009715
235	0x3c573492	0.013135092
236	0xbe65e420	-0.22450304
237	0x3e224796	0.1584762
238	0xbce9bd85	-0.028532753
239	0x3e3742e6	0.17896613
240	0x3e395264	0.18097836
241	0xbe44291c	-0.19156307
242	0xbdf8dd8d	-0.121516325
243	0xbeae0903	-0.3399125
244	0x3e951e2f	0.2912459
245	0xbe53f061	-0.20697166
246	0x3e26e56a	0.16298452
247	0xbe17fa91	-0.14841677
248	0x3e6502be	0.22364327
249	0xbed49832	-0.41522366
250	0x3cebfd90	0.028807431
251	0x3d8c5d69	0.06853754
252	0xbe48158a	-0.19539467
253	0x3f2b63e7	0.66949314
254	0xbe2274b4	-0.15864831
255	0x3ef3a87f	0.4758949

o2o.bias f4 [27]
0	0xbebe8697	-0.3721206
1	0x3da98d4c	0.08278903
2	0xbe116527	-0.14198743
3	0xbcd4e5a9	-0.025988417
4	0xbe07701f	-0.13226365
5	0xbd716fe7	-0.05894461
6	0xbeb01390	-0.34389925
7	0xbd8c3c56	-0.06847446
8	0xbdaa0617	-0.08301943
9	0x3d83fd7d	0.064448334
10	0xbe4abddb	-0.19798987
11	0xbd7095d5	-0.05873664
12	0xbce2c557	-0.02768199
13	0xbcbd826a	-0.023133475
14	0xbceb1339	-0.02869569
15	0xbd0df61d	-0.03465854
16	0xbe10e47d	-0.14149661
17	0xbe75574a	-0.2395908
18	0x3daa03bc	0.083014935
19	0xbdcf8aa6	-0.10133867
20	0x3b31c10a	0.0027123117
21	0x3d5d18ba	0.05397866
22	0xbe787f00	-0.24267197
23	0xbe258793	-0.16164999
24	0xbe86ceb2	-0.2632957
25	0xbdf5397a	-0.119738534
26	0xbe8e9c20	-0.2785349
