models/char_rnn/Dino_Names_LSTM.pth (torch_old, 103249 bytes, 6 tensors)

lstm.weight_ih_l0 f4 [256, 27]
0.51788825 0.31785595 0.004786184 0.23634398 0.14302059 0.26188308 -0.18105349 -0.20472974
0.09407071 0.2487908 0.07837439 0.09132346 0.03457793 -0.21380387 -0.25123417 0.43303147
0.019018615 -0.09938303 0.28358757 0.12311978 -0.09435925 -0.0796415 0.63548386 -0.09366082
0.33679476 0.1261972 -0.18584785 1.0427119 -0.3226385 0.0270409 0.41879705 0.27015778
-0.05666343 0.23592274 0.14998507 -0.40266532 -0.008877734 0.060629718 0.14189228 0.15941325
0.527583 0.3520937 0.2540632 -0.31275252 0.4916562 -0.15906377 -0.2509692 0.080480106
0.46911559 0.020699847 -0.31985027 0.3528132 0.4457908 0.2719901 0.35300663 0.10249134
0.6018335 0.18165827 0.03492679 -0.41515687 -0.25969043 0.3072774 0.23614113 -0.48095986
-0.09910075 0.26264346 0.2607867 0.3378556 0.044361934 -0.28121457 0.70831794 0.008834281
-0.15945643 -0.23823556 0.2692963 -0.23846543 0.52380407 0.21891645 0.48698005 -0.06154236
-0.1320045 0.50113785 0.09169579 0.007945341 -0.60596806 0.18534486 -0.033993658 0.1976771
0.053517252 -0.29765376 -0.11691902 0.1985698 -0.22780702 -0.17322369 -0.19775055 -0.29780164
-0.19038512 -0.27979037 0.5611339 0.54296494 0.4132981 0.27038267 -0.37210372 0.34486115
0.23872516 0.4627757 0.3302187 0.2295372 0.90484107 -0.28838283 0.17634031 0.31502125
-0.17313157 -0.16260384 -0.13594925 -0.40788874 -0.07136416 0.12159717 0.62307906 -0.27774006
-0.32352683 0.8334106 0.052199077 0.3435143 -0.63090986 0.6053479 0.40966722 0.15975688
0.76065975 -0.25175795 0.69123715 0.10385193 -0.078664266 0.6088316 -0.20506293 1.1125782
0.41553473 -0.030022837 0.50708276 0.1554437 0.41487378 0.408932 -0.41962203 -0.02143133
0.23349279 0.39812046 0.06252219 -0.5207726 -0.020099461 0.0051790336 -0.19364373 0.54755485
-0.21192522 0.35683 0.51609457 0.050974805 -0.41243652 0.59384704 0.42176992 0.13892171
-0.0860382 0.24173097 0.9457437 0.05103336 -0.20320788 0.3319891 0.14985818 -0.008317093
-0.3887274 0.033940062 -0.12742372 0.037766732 0.073697194 -0.04086093 0.1448692 0.1576027
-0.15234618 0.14126244 0.25087667 -0.16508314 0.022011427 0.044356037 0.27043772 -0.158974
0.19944707 0.19928227 0.0058772443 0.2103765 0.2120144 1.8888537 -0.054656006 0.05086482
-0.2233785 -0.24585502 -0.2705758 0.65061164 0.0490423 0.3832884 0.03483811 0.27400967
0.40044525 0.030779313 0.52952754 0.4892463 0.03516381 0.17326923 0.30709377 0.41131005
-0.58638424 -0.2840719 0.37311786 0.9174421 0.37293345 0.548719 -0.19997123 0.056865484
4.842684 0.606186 -0.6002443 0.067047305 0.5175295 0.26514643 0.12466884 -0.17052215
-0.7307121 -0.12913305 -0.3864193 -0.21222958 0.35880625 -0.38900712 0.028832896 0.19211572
0.43598756 0.029195642 0.061678108 -0.20847146 -0.06458029 -0.025393654 -0.09149642 0.2670162
0.04563545 0.0088382 0.0033332666 0.75980854 0.16543357 0.09507269 0.29315633 -0.37699822
0.16406406 0.35192466 -0.14639512 -0.05023135 -0.072076686 0.27381015 0.19882543 0.1995904
00000000: 5394 043f 04be a23e 6cd5 9c3b 2804 723e
00000010: fd73 123e 8a15 863e 1666 39be aca4 51be
00000020: 25a8 c03d 04c3 7e3e c182 a03d cb07 bb3d
00000030: 96a1 0d3d 67ef 5abe c4a1 80be 4db6 dd3e
00000040: edcc 9b3c 5489 cbbd 6432 913e 3926 fc3d
00000050: 6c3f c1bd 151b a3bd 12af 223f 3ed1 bfbd
00000060: 5d70 ac3e d739 013e e64e 3ebe 9577 853f
00000070: e030 a5be e184 dd3c 916c d63e 1f52 8a3e
00000080: ea17 68bd bb95 713e b095 193e 262a cebe
00000090: ea73 11bc de56 783d 364c 113e 3a3d 233e
000000a0: ae0f 073f a045 b43e 9214 823e 1921 a0be
000000b0: 5dba fb3e 9de1 22be 097f 80be c1d2 a43d
000000c0: eb2f f03e ba92 a93c 6ac3 a3be efa3 b43e
000000d0: b13e e43e 4942 8b3e 49bd b43e fbe6 d13d
000000e0: c311 1a3f a004 3a3e 650f 0f3d 718f d4be
000000f0: 25f6 84be 7753 9d3e fbce 713e 5f40 f6be
00000100: 56f5 cabd 3479 863e d685 853e 69fb ac3e
00000110: dcb4 353d 5bfb 8fbe 5354 353f a9bd 103c
00000120: 8c48 23be 06f4 73be 34e1 893e 4830 74be
00000130: 0618 063f a22b 603e 7355 f93e d713 7cbd
00000140: 302c 07be 924a 003f 01cb bb3d 2d2d 023c
00000150: b920 1bbf 0bcb 3d3e ef3c 0bbd de6b 4a3e
00000160: e834 5b3d 1366 98be 3d73 efbd e255 4b3e
00000170: 3e46 69be 8d61 31be 1f7f 4abe 7579 98be
00000180: 51f4 42be af40 8fbe 79a6 0f3f c0ff 0a3f
00000190: cf9b d33e 996f 8a3e 6184 bebe a491 b03e
000001a0: 5e74 743e f0f0 ec3e 6d12 a93e cd0b 6b3e
000001b0: aaa3 673f eaa6 93be 8e92 343e 774a a13e
000001c0: 6749 31be 9f81 26be 4836 0bbe cbd6 d0be
000001d0: 5f27 92bd f007 f93d 1c82 1f3f f233 8ebe
000001e0: 4fa5 a5be 665a 553f b3ce 553d 1be1 af3e
000001f0: 4f83 21bf 14f8 1a3f e7bf d13e 4f97 233e
00000200: 99ba 423f 6be6 80be ebf4 303f 52b0 d43d
00000210: bb1a a1bd 63dc 1b3f 04fc 51be f668 8e3f
00000220: f8c0 d43e 74f2 f5bc 2dd0 013f a22c 1f3e
00000230: 566a d43e 895f d13e b3d8 d6be c290 afbc
00000240: bc18 6f3e 72d6 cb3e a20b 803d 5a51 05bf
00000250: a0a7 a4bc e2b4 a93b 8b4a 46be 8e2c 0c3f
00000260: ed02 59be 6cb2 b63e c61e 043f f5ca 503d
00000270: e12a d3be 5c06 183f 3af2 d73e 7e41 0e3e
00000280: cc34 b0bd 5388 773e 421c 723f 5b08 513d
00000290: ba15 50be 7afa a93e 6c74 193e 6b44 08bc
000002a0: 4707 c7be bc04 0b3d 5d7b 02be 4ab1 1a3d
000002b0: 8eee 963d ca5d 27bd 9758 143e 9a62 213e
000002c0: a300 1cbe 1aa7 103e e872 803e 8e0b 29be
000002d0: 4f51 b43c adae 353d d076 8a3e 15ca 22be
000002e0: da3b 4c3e a710 4c3e e695 c03b f06c 573e
000002f0: 4e1a 593e f5c5 f13f fade 5fbd a157 503d
00000300: 55bd 64be 6bc1 7bbe e988 8abe 7c8e 263f
00000310: 94e0 483d 613e c43e 68b2 0e3d ff4a 8c3e
00000320: 2907 cd3e e624 fc3c 1e8f 073f 7e7e fa3e
00000330: ed07 103d 7d6d 313e 653b 9d3e 3b97 d23e
00000340: 471d 16bf df71 91be 4e09 bf3e 7cdd 6a3f
00000350: 22f1 be3e d978 0c3f 42c5 4cbe c8eb 683d
00000360: 44f7 9a40 012f 1b3f 9ca9 19bf 1950 893d
00000370: d07c 043f 46c1 873e 6052 ff3d 5c9d 2ebe
00000380: f30f 3bbf 743b 04be c0d8 c5be b652 59be
00000390: 74b5 b73e f12b c7be f732 ec3c fcb9 443e
000003a0: c339 df3e b32b ef3c 2fa2 7c3d 8b79 55be
000003b0: ac42 84bd 5a06 d0bc 7a62 bbbd 59b6 883e
000003c0: 3dec 3a3d 19ce 103c ef72 5a3b d082 423f
000003d0: 6b67 293e 78b5 c23d 9618 963e e905 c1be
000003e0: 6900 283e 782f b43e 9ae8 15be 63bf 4dbd
000003f0: f19c 93bd d830 8c3e e598 4b3e 6d61 4c3e

lstm.weight_hh_l0 f4 [256, 64]
0.103688605 -0.2598048 -0.16650268 0.0021141337 -0.10040288 0.10121162 -0.24631995 -0.5189553
0.07719427 -0.11805563 -0.4625892 0.080078654 -0.19849235 -0.24892996 0.015241068 0.11912084
-0.25016782 -0.16235064 -0.100714065 0.08638336 -0.08406719 0.22183378 0.23885444 -0.29466245
-0.22278835 -0.18860881 0.35800993 -0.2974129 -0.13077144 -0.29746053 -0.14812063 -0.19877957
0.0590662 -0.35829005 -0.065647915 -0.17123717 0.07407232 -0.016573133 -0.13095304 0.34236762
0.08508376 0.27030736 0.27948457 -0.24162924 -0.23087275 0.059874974 0.40831813 0.0025914512
-0.33637056 0.12955953 0.25616008 -0.20449288 0.1706177 -0.24949186 0.20888546 -0.07948368
-0.07761037 -0.25969893 0.2351094 0.027897876 0.25398144 0.11032385 0.0128882155 -0.14011402
0.3700875 -0.07527927 -0.14370951 -0.11662475 -0.4570232 0.033255942 -0.5512651 -0.41425288
0.34994698 -0.67279553 -0.7331806 0.34261975 0.15231171 -0.41254023 -0.32519546 0.71727914
-0.1698528 0.15520334 -0.016941957 0.5908703 -0.61945266 0.45295456 -0.029574132 -0.1715593
-0.07043317 -0.21674646 0.1288443 -0.36512 -0.3250451 -0.40782708 -0.47764468 -0.19834729
-0.22278845 -0.36801925 -0.18519571 -0.61741924 0.626499 -0.63514423 -0.06798697 0.49367008
0.19774163 0.10410139 0.19093345 -0.25533193 -0.51132447 -0.30857757 -0.020285072 0.124439895
-0.07898241 0.8476015 -0.038715065 -0.64009756 0.30081794 -0.8407424 0.45083353 0.11201228
-0.186171 -0.4988468 0.53230804 0.4182352 0.017424341 0.27980056 -0.16072316 -0.4509149
0.34119835 0.4544289 -0.17291495 -0.11005756 -0.12113037 -0.3356922 -0.24017492 0.18069091
-0.55598986 -0.26772037 -0.08491743 -0.00046892546 0.41208 -0.38754284 -0.029988552 0.15368953
0.39304867 0.34634697 -0.36054215 0.16474979 0.07077455 -0.39138117 -0.65440714 -0.114181936
-0.101976275 -0.2347207 -0.3464575 -0.44962117 -0.12122392 -0.046876192 0.037127398 0.12915003
-0.02126087 -0.10194366 0.4188569 -0.16367392 -0.10294644 -0.2384095 0.43590975 0.21664514
-0.5346729 0.0941702 -0.35714307 0.1561236 -0.17623952 -0.07582474 -0.12662543 -0.027584545
0.008302359 0.5288138 0.04497527 -0.08422526 -0.26814875 0.033506397 -0.1847836 -0.34796596
-0.12695776 0.059800535 0.23037499 -0.27054065 0.10917201 -0.7198012 -0.16234504 -0.40384156
0.5662816 0.2667316 -0.3136343 -0.14915381 -0.05828943 -0.27896103 -0.18419884 -0.10154526
-0.09895634 -0.30206582 0.0032600407 0.202036 0.26566944 -0.48365736 -0.09088855 0.01984521
0.22954857 0.2298414 -0.05024051 -0.026237838 -0.046621304 -0.09168883 -0.5253979 0.1505915
0.07057039 0.003384259 -0.4242641 -0.18057805 -0.06803241 -0.10840539 0.12658964 -0.030660648
-0.11675653 0.056215674 -0.09396669 -0.25974745 0.19899154 -0.063998125 0.0136618195 -0.023734167
-0.1330704 0.12834767 -0.19324388 -0.062217467 -0.17247958 -0.23208752 -0.41817585 -0.10283835
-0.13266744 0.2755709 0.19983071 -0.15881912 -0.201007 -0.094716005 0.28165573 0.10615785
-0.020679498 -0.1017504 0.10617117 -0.7136859 0.033117056 -0.104352325 -0.3724493 -0.2586729
00000000: b15a d43d 2205 85be ae7f 2abe 478d 0a3b
00000010: 06a0 cdbd 0a48 cf3d 4c3b 7cbe 41da 04bf
00000020: 0818 9e3d 26c7 f1bd 7ed8 ecbe 4700 a43d
00000030: 9441 4bbe 7fe7 7ebe acb5 793c a1f5 f33d
00000040: ff15 80be 3f3f 26be 2d43 cebd c2e9 b03d
00000050: 6b2b acbd 6528 633e 4296 743e ffdd 96be
00000060: a122 64be ab22 41be 144d b73e 8146 98be
00000070: f3e8 05be bf4c 98be efac 17be df8c 4bbe
00000080: 66ef 713d cb71 b7be 6a72 86bd cc58 2fbe
00000090: 3ab3 973d 61c4 87bc 8e18 06be cf4a af3e
000000a0: 6540 ae3d ba65 8a3e 9a18 8f3e a86d 77be
000000b0: e869 6cbe 763f 753d 130f d13e 56d5 293b
000000c0: c338 acbe 41ab 043e 6a27 833e 9566 51be
000000d0: 68b6 2e3e cb7a 7fbe 12e6 553e 57c8 a2bd
000000e0: 30f2 9ebd 42f7 84be 85c0 703e 168a e43c
000000f0: db09 823e 78f1 e13d 1829 533c 0d7a 0fbe
00000100: 1c7c bd3e 052c 9abd 9628 13be f5d8 eebd
00000110: f2fe e9be 6237 083d b61f 0dbf f418 d4be
00000120: 402c b33e 543c 2cbf b9b1 3bbf db6b af3e
00000130: 9af7 1b3e 7938 d3be 0580 a6be 9b9f 373f
00000140: e4ed 2dbe a0ed 1e3e dcc9 8abc 4743 173f
00000150: 7394 1ebf a9e9 e73e 7345 f2bc 3ead 2fbe
00000160: 443f 90bd c9f2 5dbe c3ef 033e 02f1 babe
00000170: 506c a6be b6ce d0be d88d f4be 8d1b 4bbe
00000180: a822 64be 056d bcbe f2a3 3dbe 300f 1ebf
00000190: 3d62 203f d098 22bf c13c 8bbd 53c2 fc3e
000001a0: c87c 4a3e 1c33 d53d 0f84 433e deba 82be
000001b0: 29e6 02bf e1fd 9dbe e12c a6bc 58da fe3d
000001c0: 88c1 a1bd 69fc 583f b093 1ebd 6fdd 23bf
000001d0: cf04 9a3e e53a 57bf a7d3 e63e b266 e53d
000001e0: 9ca3 3ebe d968 ffbe 5745 083f ed22 d63e
000001f0: 7ebd 8e3c 0542 8f3e 9d94 24be 51de e6be
00000200: 8db1 ae3e e8aa e83e 9e10 31be dc65 e1bd
00000210: 3313 f8bd d9df abbe 6af0 75be 0a07 393e
00000220: 5a55 0ebf a512 89be 31e9 adbd 1cda f5b9
00000230: 26fc d23e 046c c6be 8daa f5bc ca60 1d3e
00000240: ad3d c93e 6454 b13e fb98 b8be 2bb4 283e
00000250: 3ff2 903d 1d63 c8be 3a87 27bf 38d8 e9bd
00000260: f0d8 d0bd a05a 70be e162 b1be bf34 e6be
00000270: 3f44 f8bd 4001 40bd e612 183d e83f 043e
00000280: 472b aebc d6c7 d0bd 6974 d63e 239a 27be
00000290: 95d5 d2bd 9f21 74be 902f df3e 39d8 5d3e
000002a0: 53e0 08bf 4edc c03d 75db b6be ddde 1f3e
000002b0: 2278 34be 004a 9bbd 19aa 01be fcf8 e1bc
000002c0: 9e06 083c 5760 073f fd37 383d 4b7e acbd
000002d0: cb4a 89be 013e 093d e937 3dbe 9828 b2be
000002e0: 3701 02be 68f1 743d 6ce7 6b3e 4e84 8abe
000002f0: 9395 df3d e444 38bf c73d 26be 52c4 cebe
00000300: d5f7 103f 0b91 883e ad94 a0be c7bb 18be
00000310: e6c0 6ebd fbd3 8ebe 9f9e 3cbe f6f6 cfbd
00000320: 9fa9 cabd 5fa8 9abe 68a6 553b 86e2 4e3e
00000330: d305 883e f0a1 f7be c723 babd 6c92 a23c
00000340: c80e 6b3e 8b5b 6b3e fec8 4dbd bcf0 d6bc
00000350: fbf5 3ebd 5ac7 bbbd 7a80 06bf a834 1a3e
00000360: 3587 903d 72ca 5d3b 2539 d9be 74e9 38be
00000370: 9454 8bbd a503 debd b7a0 013e 0a2c fbbc
00000380: 0c1e efbd 6842 663d 9c71 c0bd 9efd 84be
00000390: 70c4 4b3e 7311 83bd d3d5 5f3c 286e c2bc
000003a0: 9b43 08be 926d 033e b9e1 45be bed7 7ebd
000003b0: 7d9e 30be 5aa8 6dbe 251b d6be ea9c d2bd
000003c0: f9d9 07be a117 8d3e 6ca0 4c3e 7ba1 22be
000003d0: c7d4 4dbe 77fa c1bd 2e35 903e 4969 d93d
000003e0: 0d68 a9bc 8462 d0bd 4570 d93d 1fb4 36bf
000003f0: c0a5 073d acb6 d5bd adb1 bebe c670 84be

lstm.bias_ih_l0 f4 [256]
0.3178144 0.6026608 0.23451267 0.0700219 0.19531134 0.4491548 0.13335164 0.46313334
0.16173592 0.060932394 0.09223626 0.21401578 0.886286 0.61318237 0.36815408 0.059210278
0.38404837 0.20091449 0.35062662 0.18576077 0.61116165 0.5535522 0.2597709 0.9093171
0.39253557 0.21125872 0.2024255 0.3695261 0.2734555 0.44739515 -0.0062525384 0.41393456
0.18940184 0.10736507 0.5051127 0.2986835 0.20853917 0.21795362 0.32228538 0.48601022
0.33644098 0.015513949 0.26244304 0.70523417 0.2870511 0.5470428 0.6196855 -0.016499897
0.01245704 0.047927912 0.86538607 0.2671587 0.46191967 0.5355067 0.24113515 0.90853053
0.18349604 0.36189213 0.29262677 0.48982993 0.18955909 0.28096756 0.41395387 0.16831954
0.15782592 -0.026134113 -0.029357009 -0.07016773 -0.31204447 0.12452651 0.027434558 -0.005369454
0.07366636 0.10487835 -0.06092676 -0.15186118 0.075591564 -0.062168743 0.0750143 0.2537092
0.0130149145 -0.119478524 0.17601198 0.02258149 0.07325779 -0.041703608 -0.042746026 0.070682906
-0.07364421 0.13183874 0.03496311 -0.14373438 0.13046357 0.00095511175 -0.018987156 -0.048826184
-0.13343397 -0.14742853 0.02052871 0.00039577996 -0.0124758715 0.078111954 0.079523996 0.19868605
-0.05821251 0.003675623 0.14750212 -0.08941018 0.1887652 0.09980707 0.14182127 0.0009771368
-0.07584031 0.040648665 -0.022656899 0.017121714 -0.021754513 0.16820075 -0.03714274 -0.022401728
-0.019933393 -0.035745602 -0.04127058 -0.17168887 0.04714007 0.007380764 -0.020317432 0.109300055
0.038304873 0.074850604 -0.15643895 -0.07499626 -0.0903159 -0.07020001 -0.11411915 -0.17539583
0.0184121 -0.09349988 -0.073376976 0.13166177 0.032116618 -0.10671802 -0.07777786 0.02670646
-0.10750128 0.018043762 0.10589864 0.1818648 -0.38241598 0.14106013 0.08284851 -0.22766316
-0.22997597 0.009940828 0.120549545 0.053088147 -0.073981486 -0.15796117 -0.21317557 -0.29902014
-0.04774761 -0.026377212 -0.17007 0.0415348 0.12028383 0.016470809 -0.12508814 0.12878838
0.188908 0.13790376 -0.021285625 -0.36452016 -0.062020022 -0.15854141 -0.060165435 0.09246884
0.020831596 -0.023343425 0.16522294 -0.074059464 0.17428136 -0.2785239 0.22711459 0.039252605
-0.16309778 -0.06956008 0.032969616 0.01539625 0.09413175 -0.0021013434 -0.05015649 -0.11281287
0.17171323 0.50415415 0.23418517 0.1164794 0.2734573 0.27162367 0.13483076 0.49968493
0.21528062 0.11010069 0.2519854 0.26466984 0.1868123 0.28076825 0.17763917 0.04365841
0.15720156 0.23971371 0.31566367 0.17224441 0.2686347 0.5674963 0.23109499 1.045953
0.5151246 0.06103949 0.078354344 0.50766325 0.2372063 0.3310602 0.013369467 0.42095357
0.17290466 0.24336435 0.6536146 0.20703916 0.27401638 0.1597791 0.2801336 0.3758373
0.23886777 0.22543219 0.3127724 0.59639555 0.08756595 0.40904868 0.41696274 -0.025291339
0.044680804 0.2000286 1.1153731 0.15326002 0.21929453 0.28990805 0.31448564 0.66754204
0.27268544 0.2574428 0.17067856 0.38076618 0.1940098 0.27862084 0.5550633 0.13805655
00000000: 92b8 a23e fa47 1a3f 1724 703e a467 8f3d
00000010: b2ff 473e 9ef7 e53e 558d 083e d01f ed3e
00000020: 1a9e 253e 3f94 793d 5de6 bc3d f426 5b3e
00000030: a4e3 623f 85f9 1c3f b17e bc3e 7a86 723d
00000040: fda1 c43e 87bc 4d3e 5585 b33e 1238 3e3e
00000050: 1775 1c3f 99b5 0d3f b100 853e 01c9 683f
00000060: 6cfa c83e 3554 583e a148 4f3e 8632 bd3e
00000070: 5c02 8c3e fa10 e53e 18e2 ccbb 3bef d33e
00000080: 8ef2 413e 38e2 db3d 114f 013f 0bed 983e
00000090: 4b8b 553e 3c2f 5f3e 9702 a53e 55d6 f83e
000000a0: fe41 ac3e 382e 7e3c ef5e 863e 3a8a 343f
000000b0: 5df8 923e ff0a 0c3f b5a3 1e3f cb2a 87bc
000000c0: 9d18 4c3c 0f50 443d f189 5d3f 06c9 883e
000000d0: bc80 ec3e f816 093f 22ec 763e 7595 683f
000000e0: 63e6 3b3e ed49 b93e 2dd3 953e fdca fa3e
000000f0: c71b 423e fbda 8f3e c3f1 d33e f55b 2c3e
00000100: 1e9d 213e 3517 d6bc 1c7e f0bc 19b4 8fbd
00000110: 4bc4 9fbe c107 ff3d 70be e03c 3ff2 afbb
00000120: 63de 963d 76ca d63d 578e 79bd 7f81 1bbe
00000130: c0cf 9a3d a7a4 7ebd 19a1 993d 2ce6 813e
00000140: 823c 553c 28b1 f4bd 7c3c 343e d1fc b83c
00000150: 2e08 963d 67d1 2abd 7516 2fbd 33c2 903d
00000160: c7d2 96bd bc00 073e 7a35 0f3d 1b2f 13be
00000170: 3e98 053e 7760 7a3a f48a 9bbc f7fd 47bd
00000180: eaa2 08be 81f7 16be d32b a83c b080 cf39
00000190: 9967 4cbc 29f9 9f3d 7add a23d 5b74 4b3e
000001a0: 3e70 6ebd b9e2 703b cc0a 173e af1c b7bd
000001b0: aa4b 413e a667 cc3d 9839 113e 4513 803a
000001c0: 2a52 9bbd 377f 263d f69a b9bc d642 8c3c
000001d0: 8536 b2bc d13c 2c3e fc22 18bd d483 b7bc
000001e0: 5b4b a3bc fb69 12bd 570b 29bd 35cf 2fbe
000001f0: f215 413d 56da f13b be70 a6bc b5d8 df3d
00000200: 92e5 1c3d 464b 993d 8831 20be a497 99bd
00000210: 8bf7 b8bd 06c5 8fbd 4db7 e9bd f79a 33be
00000220: f9d4 963c dd7c bfbd ab46 96bd 58d2 063e
00000230: b78c 033d fa8e dabd 004a 9fbd 82c7 da3c
00000240: a229 dcbd 83d0 933c 63e1 d83d c43a 3a3e
00000250: 07cc c3be 1172 103e 7bac a93d 8820 69be
00000260: d27e 6bbe dbde 223c aee2 f63d f572 593d
00000270: 9b83 97bd 93c0 21be b24a 5abe 2b19 99be
00000280: ff92 43bd 0615 d8bc d526 2ebe 6520 2a3d
00000290: 5e57 f63d caed 863c 1b17 00be 1ae1 033e
000002a0: 1971 413e a536 0d3e 315f aebc 63a2 babe
000002b0: b508 7ebd ae58 22be 0870 76bd 4e60 bd3d
000002c0: 06a7 aa3c b63a bfbc 3430 293e 7dac 97bd
000002d0: d076 323e af9a 8ebe ba90 683e 57c7 203d
000002e0: 1b03 27be 8475 8ebd 260b 073d 8e40 7c3c
000002f0: 26c8 c03d b1b6 09bb e470 4dbd 6f0a e7bd
00000300: 98d5 2f3e 3f10 013f 3dce 6f3e c08c ee3d
00000310: 9802 8c3e 4212 8b3e 1311 0a3e b4d6 ff3e
00000320: 8672 5c3e 787c e13d 3b04 813e ce82 873e
00000330: b94b 3f3e dbc0 8f3e 0be7 353e 29d3 323d
00000340: 72f9 203e 8377 753e ab9e a13e d760 303e
00000350: 7d8a 893e 7047 113f 2aa4 6c3e cae1 853f
00000360: 35df 033f 8b04 7a3d 3e78 a03d 38f6 013f
00000370: 35e6 723e b980 a93e 9c0b 5b3c 3a87 d73e
00000380: eb0d 313e 8134 793e 4953 273f 1302 543e
00000390: e04b 8c3e 229d 233e ac6d 8f3e bf6d c03e
000003a0: c199 743e b2d7 663e b423 a03e 61ad 183f
000003b0: c755 b33d d46e d13e 247c d53e c82f cfbc
000003c0: 3803 373d 4cd4 4c3e 8cc4 8e3f 32f0 1c3e
000003d0: bf8e 603e d46e 943e 4304 a13e 09e4 2a3f
000003e0: 6d9d 8b3e 8bcf 833e 5cc6 2e3e c9f3 c23e
000003f0: 81aa 463e 64a7 8e3e a118 0e3f b25e 0d3e

lstm.bias_hh_l0 f4 [256]
0.27920157 0.68505543 0.29166004 0.14750391 0.17282419 0.5616173 0.150803 0.39936
0.29710662 0.05291412 0.11359609 0.068730526 0.90169716 0.48775074 0.39485955 0.18593764
0.53823173 0.31987762 0.3711788 0.1711793 0.49326515 0.5814109 0.17631859 0.8965567
0.4958264 0.15558138 0.16685885 0.4363432 0.33819553 0.43983248 0.0984719 0.3951145
0.13994005 0.21351606 0.4456888 0.14012785 0.2865471 0.26142564 0.34250385 0.47299552
0.36153567 0.15526263 0.3444616 0.7904981 0.356045 0.6155937 0.46600297 -0.014521443
-0.021196276 0.14377192 0.83442 0.19246933 0.28554514 0.3397356 0.28134385 0.85359627
0.18196777 0.3177839 0.35652652 0.54828835 0.1407101 0.29480174 0.41775683 0.14755416
0.035394832 -0.1633393 0.045958556 0.029564911 -0.18469097 0.11416805 0.07987827 -0.090754926
-0.02751153 0.15957268 0.012555503 -0.012388355 0.025053201 -0.02528354 0.09082515 0.14707305
0.0016917905 -0.08489957 0.012240638 0.03799706 0.08472855 -0.071780585 -0.08181457 -0.111050434
-0.11869771 0.20801894 0.06365066 -0.022318723 0.1867562 0.03711503 -0.026417034 -0.12234945
-0.12586616 -0.22425222 0.020389065 0.144227 -0.013076476 -0.0086854985 -0.028702168 0.1734056
-0.10242052 0.04960401 0.118777744 -0.07963541 0.012817891 0.07028724 0.03196213 0.083363615
0.072753824 0.13178985 0.00368114 0.011448939 -0.050901376 -0.0102141155 -0.1279756 0.012865805
0.0063975863 0.07524492 0.07194177 -0.12896217 0.031169882 0.08088195 0.009116615 0.25724876
-0.074664555 0.040407773 -0.054090492 -0.10556845 -0.067312084 0.06669904 -0.04313255 -0.22976723
0.052441586 0.029077902 -0.091320544 0.15971285 0.02028522 -0.08856446 -0.07261664 0.0805723
0.011285784 0.008300191 0.11461011 0.20791091 -0.25780186 0.20103306 0.07273142 -0.21080673
-0.32304883 0.0006365401 0.10216775 0.014040287 -0.093803756 -0.25167736 -0.084217325 -0.20710461
-0.07405207 -0.06005095 -0.03353686 -0.054677516 0.07754849 -0.00972944 -0.2112433 0.008648338
0.10716103 0.014961015 0.07379125 -0.33797857 -0.07357096 -0.039329935 -0.0438812 0.0038774812
-0.10286147 0.044862468 0.18942365 -0.075050265 0.12298203 -0.2309829 0.20306404 -0.09970679
-0.0866471 -0.23690613 0.1066286 0.14060193 0.17392991 0.11304695 -0.056469608 -0.06229346
0.26050198 0.628995 0.18776713 0.13854708 0.25119486 0.23763974 0.010215768 0.46899605
0.200992 0.04713718 0.09476563 0.1184964 0.27814293 0.23991206 0.33327273 0.10171719
0.1476907 0.22801526 0.2628319 0.066450536 0.3686525 0.58697975 0.18298347 0.8997738
0.38944247 0.14953284 0.20265932 0.4615553 0.0537645 0.35053295 -0.008793767 0.36193314
0.26700857 0.10057133 0.47449985 0.16968167 0.11995529 0.18062565 0.29205427 0.22902107
0.25043583 0.10037841 0.20646986 0.74611306 0.18934333 0.3195229 0.34101576 -0.067985184
0.056518942 0.07390954 0.9382609 0.1352051 0.08653094 0.31783643 0.29276428 0.6699273
0.31026503 0.15569377 0.11529059 0.56190896 0.24908587 0.30502328 0.52884614 0.038649097
00000000: 82f3 8e3e cb5f 2f3f 7754 953e 440b 173e
00000010: d3f8 303e 27c6 0f3f 1a6c 1a3e ea78 cc3e
00000020: 5c1e 983e 7abc 583d 11a5 e83d 97c2 8c3d
00000030: a0d5 663f 77ba f93e 082b ca3e 7066 3e3e
00000040: 8ec9 093f 00c7 a33e 260b be3e a049 2f3e
00000050: 408d fc3e 58d7 143f dc8c 343e bd84 653f
00000060: f5dc fd3e ba50 1f3e 0cdd 2a3e 6068 df3e
00000070: f727 ad3e b931 e13e a3ab c93d 734c ca3e
00000080: 724c 0f3e f4a3 5a3e 5331 e43e ad7d 0f3e
00000090: 4db6 923e 95d9 853e aa5c af3e 782c f23e
000000a0: 341b b93e 2bfd 1e3e 455d b03e 155e 4a3f
000000b0: 884b b63e 8c97 1d3f f197 ee3e 59eb 6dbc
000000c0: d0a3 adbc f238 133e 8d9c 553f ae16 453e
000000d0: f932 923e d3f1 ad3e 4d0c 903e 4985 5a3f
000000e0: c255 3a3e 92b4 a23e a58a b63e a05c 0c3f
000000f0: 4f16 103e 41f0 963e 39e4 d53e 7018 173e
00000100: 2cfa 103d 6b42 27be 0a3f 3c3d 1d32 f23c
00000110: a11f 3dbe f0d0 e93d 3897 a33d b8dd b9bd
00000120: dc5f e1bc 0567 233e 99b5 4d3c 87f8 4abc
00000130: 5f3c cd3c 6d1f cfbc 8902 ba3d 519a 163e
00000140: 12bf dd3a d3df adbd f58c 483c cea2 1b3d
00000150: 2986 ad3d b301 93bd 668e a7bd 696e e3bd
00000160: c917 f3bd eb02 553e 475b 823d c1d5 b6bc
00000170: 043d 3f3e ee05 183d 8968 d8bc 5992 fabd
00000180: 0fe3 00be 60a2 65be f806 a73c 3eb0 133e
00000190: b73e 56bc 9f4d 0ebc cf20 ebbc 3d91 313e
000001a0: d9c1 d1bd 932d 4b3d bf41 f33d e417 a3bd
000001b0: 2202 523c c2f2 8f3d b9ea 023d 8bba aa3d
000001c0: f5ff 943d ebf3 063e 483f 713b 5594 3b3c
000001d0: f67d 50bd 1b59 27bc 090c 03be 19cb 523c
000001e0: d8a2 d13b 021a 9a3d 3556 933d a90e 04be
000001f0: fb57 ff3c 70a5 a53d db5d 153c 1cb6 833e
00000200: bbe9 98bd 9f82 253d fe8d 5dbd 4634 d8bd
00000210: ebda 89bd 8299 883d c2ab 30bd 1a48 6bbe
00000220: fdcc 563d c834 ee3c 4406 bbbd c48b 233e
00000230: 312d a63c 4961 b5bd 08b8 94bd 1703 a53d
00000240: 02e8 383c 86fd 073c b5b8 ea3d 99e6 543e
00000250: 9bfe 83be 9cdb 4d3e 36f4 943d b8dd 57be
00000260: a866 a5be 7cdd 263a 533d d13d 3b09 663c
00000270: 2f1c c0bd dbdb 80be 227a acbd 3b13 54be
00000280: 9da8 97bd fcf7 75bd f25d 09bd 88f5 5fbd
00000290: bed1 9e3d 3b68 1fbc 2a50 58be c2b1 0d3c
000002a0: 3e77 db3d 0c1f 753c de1f 973d 870b adbe
000002b0: 5fac 96bd 6d18 21bd c6bc 33bd 571d 7e3b
000002c0: 09a9 d2bd b5c1 373d 46f8 413e f4b3 99bd
000002d0: 01de fb3d c886 6cbe 05f0 4f3e 1333 ccbd
000002e0: 0974 b1bd 8597 72be 1860 da3d f4f9 0f3e
000002f0: af1a 323e 2985 e73d ad4c 67bd 6d27 7fbd
00000300: 8460 853e d105 213f 0746 403e 49df 0d3e
00000310: 9d9c 803e d557 733e 0960 273c 4020 f03e
00000320: d9d0 4d3e ea12 413d 7c14 c23d 3eae f23d
00000330: c068 8e3e 82ab 753e b9a2 aa3e 1a51 d03d
00000340: 3b3c 173e d57c 693e e791 863e 3817 883d
00000350: 05c0 bc3e 4e44 163f 0560 3b3e 9357 663f
00000360: 0165 c73e 231f 193e ed85 4f3e fa50 ec3e
00000370: 2a38 5c3d 0e79 b33e bb13 10bc 4d4f b93e
00000380: 59b5 883e 57f8 cd3d a5f1 f23e 08c1 2d3e
00000390: 1eab f53d eef5 383e 2388 953e 8084 6a3e
000003a0: 2039 803e 3293 cd3d d66c 533e 4401 3f3f
000003b0: 38e3 413e 8198 a33e 9e99 ae3e d13b 8bbd
000003c0: 6880 673d e35d 973d de31 703f 3573 0a3e
000003d0: 2237 b13d 75bb a23e 33e5 953e 5b80 2b3f
000003e0: 0fdb 9e3e 306e 1f3e 791d ec3d 44d9 0f3f
000003f0: 5e10 7f3e 032c 9c3e 7662 073f 844e 1e3d

fc.weight f4 [27, 64]
-0.02009483 0.30545142 -0.14074545 0.024270378 -0.7345632 -0.49508002 0.058903042 -0.015086023
-0.14534654 0.026105208 -0.38905233 -0.5139317 0.09843044 0.29685465 -0.1315033 -0.1732059
0.27491733 0.36614156 -0.12170417 0.17691834 0.49478203 -0.19246514 -0.42311966 0.41597545
1.1453148 0.15368684 -0.0009780097 -0.6767961 0.26624155 0.55391264 -0.28808337 1.135897
0.71939546 -0.5174268 0.7764878 0.20243204 0.21137075 -0.06591352 0.5737219 -0.16408491
-0.14478849 0.59765756 -0.28343117 1.1137131 0.1006177 0.43202987 0.5226765 0.05334834
0.33643523 0.090587035 -0.799801 0.15916388 -0.22615051 -0.117688775 -1.1510152 -0.34466612
0.053327125 0.30971888 -0.15310505 0.8556862 -0.63936156 -0.053500026 0.8108337 -0.02627404
0.02664145 -0.4012051 -0.79251605 0.18311061 -0.3332436 -0.21089067 -0.01849492 -0.06538834
0.27962267 0.16209075 -0.07526033 -0.20928065 0.22969489 -0.24216487 0.13788143 -0.27409828
-0.22327527 -0.43861133 -0.023088071 -0.1094952 -0.03106337 -0.0579902 -0.18945035 -0.7189961
-0.46100417 0.2859162 0.23151907 -0.3923679 0.41638437 -0.111648455 0.6824007 -0.57157826
-0.29299572 -0.9365539 0.09862471 -0.14767219 0.18669239 0.10292988 0.24352108 0.016907763
-0.1764392 -0.16380088 0.41563633 -0.68740934 -0.2347938 0.34559238 -0.075869255 -0.25268483
-0.5428547 0.022382434 0.6936358 -0.044994902 -0.04333898 -0.14652503 0.3306853 0.25130624
-0.08726928 0.033144545 0.31226167 -0.6018446 -0.61067235 0.80660474 0.41438487 0.061989486
-0.22417699 -0.43885422 0.19573438 -0.16332875 0.31105188 0.54663265 0.014406711 0.32647008
0.25951785 0.14270261 -0.13935451 0.043355964 -0.09141929 0.2524959 0.36192387 -0.16537996
-0.30676088 -0.19834301 0.21951513 -0.03407563 0.37120548 -0.14572385 -0.12422208 0.23073089
0.22155663 0.37538067 -0.026682036 0.8293622 0.22918403 0.22214898 0.25405875 0.39992124
0.13271153 -0.47988915 -0.096443295 0.093090095 -0.30418456 0.12202432 0.12013833 -0.21107633
-0.010170328 -0.3337729 0.40750888 -0.11228844 0.09626795 0.41251212 0.18753116 -0.039476745
-0.27318132 0.054234818 -0.21769702 0.312436 0.16774453 0.016201701 -0.109354585 0.23917438
0.069982946 0.05323942 -0.082482256 -0.3311539 -0.14641124 0.23084533 0.2158326 -0.025823353
-0.0922209 -0.4986086 0.27500078 0.21153809 0.41528624 0.34837735 0.14370163 0.37269345
0.023075454 0.19347651 -0.20115043 -0.35413316 -0.60529166 0.12744398 0.3449945 -0.1128104
-0.104426734 -0.16739449 -0.085519746 0.4176046 0.018307427 -0.15661404 -0.30865186 0.5119992
-0.053106904 -0.1627484 0.016109725 0.27234727 -0.088265926 0.35751534 -0.031498536 0.7028076
-0.32851738 -0.06764032 0.034742434 -0.006677005 -0.1477482 -0.09554802 -0.051563352 0.22811033
0.21980199 -0.76525694 0.39514536 -0.00812204 -0.08707214 0.03549116 -0.06837866 -0.0057550133
-0.1617466 -0.13413148 -0.4956825 0.17938188 0.2642759 0.08598676 -0.1704418 0.38901046
0.124574155 0.023931142 0.064082615 -0.23891972 -0.15339479 -0.10603372 0.04857595 0.00077660877
00000000: ea9d a4bc 2164 9c3e 931f 10be acd2 c63c
00000010: 550c 3cbf 217b fdbe 5144 713d 5e2b 77bc
00000020: b9d5 14be 97da d53c de31 c7be 0791 03bf
00000030: e695 c93d 55fd 973e cda8 06be e35c 31be
00000040: f7c1 8c3e e876 bb3e 0940 f9bd 152a 353e
00000050: 1254 fd3e 9515 45be 24a3 d8be bcfa d43e
00000060: ad99 923f 1560 1d3e 8f30 80ba 8242 2dbf
00000070: d050 883e 38cd 0d3f aa7f 93be 1365 913f
00000080: 4d2a 383f 1576 04bf e8c7 463f 584a 4f3e
00000090: 9371 583e abfd 86bd 70df 123f e005 28be
000000a0: 6f43 14be 1600 193f e41d 91be 278e 8e3f
000000b0: a710 ce3d 0533 dd3e 21ce 053f ca83 5a3d
000000c0: 3d41 ac3e b285 b93d c2bf 4cbf dbfb 223e
000000d0: 0094 67be d006 f1bd 7754 93bf 1478 b0be
000000e0: 8b6d 5a3d 7993 9e3e 92c7 1cbe 400e 5b3f
000000f0: 33ad 23bf d822 5bbd cc92 4f3f a83c d7bc
00000100: 2c3f da3c c16a cdbe 55e2 4abf 5981 3b3e
00000110: e89e aabe b9f3 57be a982 97bc 52ea 85bd
00000120: b42a 8f3e 1efb 253e 1722 9abd ab4d 56be
00000130: 2335 6b3e 11fa 77be ca30 0d3e 9c56 8cbe
00000140: 46a2 64be aa91 e0be 3223 bdbc 053f e0bd
00000150: 9c78 febc 2287 6dbd 46ff 41be 2110 38bf
00000160: bd08 ecbe 9c63 923e 5613 6d3e 72e4 c8be
00000170: 5530 d53e f2a7 e4bd d0b1 2e3f f452 12bf
00000180: 8903 96be ffc1 6fbf c1fb c93d 6137 17be
00000190: 4a2c 3f3e e7cc d23d 975d 793e 2682 8a3c
000001a0: 7aac 34be 6bbb 27be 49ce d43e 0ffa 2fbf
000001b0: c96d 70be 7cf1 b03e 5761 9bbd e85f 81be
000001c0: 87f8 0abf 5e5b b73c 1e92 313f 934c 38bd
000001d0: 3784 31bd a80a 16be 954f a93e 36ab 803e
000001e0: 3cba b2bd 93c2 073d c3e0 9f3e 7d12 1abf
000001f0: 0655 1cbf a67d 4e3f 412a d43e b0e8 7d3d
00000200: a78e 65be 80b1 e0be 986e 483e a73f 27be
00000210: 3142 9f3e 1ef0 0b3f 200a 6c3c 1627 a73e
00000220: 86df 843e a220 123e f3b2 0ebe 0696 313d
00000230: 093a bbbd 2547 813e 164e b93e 5d59 29be
00000240: c30f 9dbe 6e1a 4bbe 93c8 603e e392 0bbd
00000250: a50e be3e a238 15be 2568 febd b844 6c3e
00000260: bedf 623e e531 c03e 4994 dabc 1551 543f
00000270: 38af 6a3e 067b 633e fd13 823e 7ac2 cc3e
00000280: 88e5 073e 08b4 f5be 1084 c5bd 05a6 be3d
00000290: 14be 9bbe e3e7 f93d 160b f63d 6524 58be
000002a0: 73a1 26bc 48e4 aabe 01a5 d03e 7bf7 e5bd
000002b0: 2228 c53d ca34 d33e 2b08 403e 5eb2 21bd
000002c0: 6cde 8bbe 5425 5e3d f8eb 5ebe 9df7 9f3e
000002d0: 39c5 2b3e 6eb9 843c 4cf5 dfbd 21ea 743e
000002e0: 3853 8f3d 9411 5a3d 75ec a8bd 018d a9be
000002f0: d4ec 15be b862 6c3e 3903 5d3e 7f8b d3bc
00000300: 50de bcbd a049 ffbe e7cc 8c3e 719d 583e
00000310: 66a0 d43e 845e b23e 8526 133e add1 be3e
00000320: bc08 bd3c b51e 463e 61fa 4dbe f150 b5be
00000330: 65f4 1abf ad80 023e 1ea3 b03e 2409 e7bd
00000340: afdd d5bd 7669 2bbe fa24 afbd 45d0 d53e
00000350: 75f9 953c 6e5f 20be 9e07 9ebe 6112 033f
00000360: a086 59bd 84a7 26be 8bf8 833c 1a71 8b3e
00000370: c4c4 b4bd 400c b73e 9c04 01bd 33eb 333f
00000380: 6e33 a8be 0287 8abd 154e 0e3d c7ca dabb
00000390: 4e4b 17be aeae c3bd 1834 53bd c195 693e
000003a0: c613 613e e1e7 43bf 7e50 ca3e 4e12 05bc
000003b0: e152 b2bd 2e5f 113d 1c0a 8cbd 8d94 bcbb
000003c0: e7a0 25be c359 09be 19ca fdbe e2af 373e
000003d0: 2c4f 873e d419 b03d 4c88 2ebe 612c c73e
000003e0: bc20 ff3d 3e0b c43c bf3d 833d 5fa7 74be
000003f0: 8613 1dbe 3528 d9bd 93f7 463d 5595 4b3a

fc.bias f4 [27]
-0.3600934 0.033616744 -0.31127635 -0.0140180355 -0.22173017 0.111595824 -0.5769849 -0.17135476
-0.15594299 -0.07808594 -0.31284264 -0.2676217 -0.09933727 -0.25827718 -0.08054559 -0.007836109
-0.25338772 -0.38678578 0.0468246 -0.12788497 -0.10920544 0.025027195 -0.4368429 -0.28689986
-0.28539002 -0.2482421 -0.42636308
00000000: 2a5e b8be b6b1 093d 9d5f 9fbe e7ab 65bc
00000010: 3c0d 63be 5a8c e43d 48b5 13bf 9f77 2fbe
00000020: 85af 1fbe 85eb 9fbd e92c a0be b605 89be
00000030: 5771 cbbd e83c 84be 16f5 a4bd 0663 00bc
00000040: 09bc 81be c908 c6be 27cb 3f3d 47f4 02be
00000050: 1aa7 dfbd d505 cd3c dfa9 dfbe 8ae4 92be
00000060: a41e 92be 2d33 7ebe 434c dabe
